external_validation/cal_model_artifacts/metabolic_health_index/model_state_dict.pt (torch, 836340 bytes, 19 tensors)

bottleneck.0.weight f4 [1, 400]
000000 e1 30 69 bd 14 8e 07 bd e3 ce 5e bd c5 4d 19 3d
       -0.05693138 -0.03309448 -0.05439652 0.037427682
000010 3f c9 be bc 92 4c 4c bd f7 76 d4 3c 88 00 99 bd
       -0.023289321 -0.04987771 0.025935633 -0.074708045
000020 ac 76 3b b8 5e 14 54 3c 4e 9b 8f 3c 50 16 96 bd
       -4.4694796e-05 0.012944309 0.01753011 -0.073284745
000030 39 54 a7 3a 6f 12 02 3d cb ac 3e 3d b3 25 bc bc
       0.0012766189 0.03175586 0.046551507 -0.022967195
000040 ce 0f 92 3d cd 55 ae bc 0e 70 0b 3c a2 91 a9 bd
       0.07131921 -0.021281147 0.008510603 -0.082797304
000050 55 eb 37 3d c7 5f e6 bc c0 76 6d bd 41 5c 0c bd
       0.044902164 -0.028121842 -0.057974577 -0.034267668
000060 8d 8f 3b 3c 24 52 09 3d 2f b6 14 bd f9 eb c0 bc
       0.011447799 0.0335256 -0.036306556 -0.02355002
000070 a1 8a 80 bd 3d e6 2d 3c 9e e2 94 3c 72 d3 02 3d
       -0.06276441 0.010613975 0.018174466 0.03193993
000080 c7 ed 5d 3d ea 59 f8 bc 39 24 da 3c 45 a9 37 bd
       0.05418184 -0.030316312 0.0266286 -0.044839162
000090 dc 81 0f 3c 77 45 4a bb 82 10 07 3c d2 f3 bc bd
       0.008758988 -0.0030864158 0.008243682 -0.092261925
0000a0 ee 4c 8a bd 4b 4f 48 3d 45 77 8d 3c 35 3a 10 3c
       -0.067529544 0.048903745 0.017268786 0.00880294
0000b0 0d 31 92 3c 03 ec 80 3d 68 a0 0b be 1f c8 19 3d
       0.017845655 0.06295016 -0.13635409 0.037544366
0000c0 93 4b fa 3c b3 74 d1 bd 73 3b 9a 3d c2 71 98 bd
       0.030553615 -0.10227337 0.0753087 -0.074435726
0000d0 fd 31 34 bc 88 6a 85 bd f0 41 b7 bd 3f 2f cc bc
       -0.010998246 -0.0651446 -0.089481235 -0.024924872
0000e0 bf bc 40 bd 7a 27 dd 3c c4 03 de 3c e5 fd bf bd
       -0.047055002 0.026996363 0.027101405 -0.093745984
0000f0 ac e1 4b 3d 8b e9 d4 39 aa 70 1a 3c 91 16 16 bb
       0.049775764 0.00040609794 0.009426275 -0.0022901634
000100 61 44 3a bd ac 01 29 bd d2 88 bf 3c 2a 11 3d bd
       -0.045475367 -0.04126136 0.02338067 -0.046158947
000110 da 1e f2 3c 78 10 00 bc 0e 83 15 3d 62 dc 25 bc
       0.029555727 -0.007816426 0.036501937 -0.010123344
000120 28 58 6d bd de f6 02 3d 7e 81 e4 3b 98 0c 80 3d
       -0.0579454 0.031973712 0.0069734445 0.06252402
000130 b0 1f 49 3c e4 61 c8 3b 9d 47 8f bd 30 9d 3d 3d
       0.012275621 0.006115185 -0.06996081 0.046292484
000140 43 fe fa 3c fe a2 28 bd 68 23 cf bc e1 9d 8c 3d
       0.03063882 -0.041171066 -0.025285438 0.068660505
000150 80 55 f7 bb f0 ad 53 bd b6 53 81 3d ab 72 3a bd
       -0.007548034 -0.05167955 0.06314795 -0.045519512
000160 93 65 4c 3d 1a ae 19 3d 19 29 3e bd 52 b3 8e bc
       0.049901556 0.03751955 -0.046425913 -0.017419491
000170 2b 96 eb bc 43 4e 8d 3d 51 49 7a bd eb b5 86 bd
       -0.02875813 0.06899693 -0.061105076 -0.06577667
000180 f1 5d 24 3d 3f 2c a3 3a 0a 06 4d 3d 8e de 6d bd
       0.040128652 0.00124491 0.050054587 -0.058073573
000190 f9 f3 9d bd 27 db e1 bc 5e 07 a3 bb 33 fe 98 3a
       -0.0771255 -0.02757032 -0.0049752435 0.0011672437
0001a0 a6 c7 ee bc 71 bb 71 3d 99 f1 40 bd bb 58 1c bc
       -0.029147934 0.05901665 -0.047105405 -0.009542639
0001b0 ff 45 d6 bd 34 04 4b 3c 0b eb 1f 3d 0a 29 0f 3d
       -0.104625694 0.012391139 0.039042514 0.034951247
0001c0 c5 fa 37 bd 9a 01 82 bb cc 82 26 ba d7 a0 19 ba
       -0.044916887 -0.003967476 -0.0006351888 -0.0005860454
0001d0 57 68 53 bb ea 96 b7 bd b8 1e 41 38 40 c7 8e bd
       -0.0032258236 -0.089643314 4.6043395e-05 -0.06971598
0001e0 ba 18 fb bc 05 6c 9f bd 9f 93 1e ba 99 4d 71 bc
       -0.030651439 -0.07784275 -0.0006049219 -0.014727973
0001f0 e4 d5 c6 bd 89 ea 4e bd 3b 1a 2d bd 2c 0f 34 3d
       -0.09708765 -0.05051664 -0.042261343 0.04395978
000200 28 c4 86 bd 99 ad a5 bd bb 7d b4 bd 60 6e ef bc
       -0.065803826 -0.08089752 -0.08813044 -0.029227436
000210 5d 88 72 bd 47 91 28 3c de 73 08 bd fa 3e ca bc
       -0.059212077 0.010288543 -0.033313625 -0.024688233
000220 f9 f4 ed bd 46 33 61 3d e0 0f 89 bd bc 27 f1 3b
       -0.116189905 0.05498054 -0.06692481 0.007359473
000230 17 52 50 3c fb c4 bc 3c 89 16 6c 3b 3f 59 33 bd
       0.012714884 0.023043146 0.0036024174 -0.043786284
000240 70 e7 96 3d 6a 44 5c bd b5 8a 93 bb ba eb 60 3d
       0.07368362 -0.053776182 -0.004502619 0.054912306
000250 2f e0 e0 bd 55 ea 5d 3c 47 13 c4 3b 82 e6 92 3c
       -0.109802596 0.013544639 0.0059837434 0.01793218
000260 8b 1f c1 3d 30 b5 26 3d 36 4a ac 3d ff b6 bd 3a
       0.094298445 0.040700138 0.08412592 0.0014474093
000270 52 84 73 3d 89 86 0d bd 97 73 05 bd 2e 50 2e 3c
       0.059452362 -0.03455213 -0.03258094 0.0106392335
000280 9d fe 3b 3d ba a9 6f bd d7 f2 4b 3d 26 c2 b7 bb
       0.045897115 -0.058511473 0.049792137 -0.005607861
000290 61 b8 69 3d f0 e3 17 bd 2c 0a a4 bd a2 d6 af bd
       0.057060603 -0.037082613 -0.08009753 -0.0858586
0002a0 a8 4f 21 3a 8e ba 11 bd ed 5e be bd f8 3d a2 ba
       0.00061535323 -0.035578303 -0.092954494 -0.0012378087
0002b0 78 35 83 bc 78 d8 03 bc 40 de f2 39 5e 52 5b bc
       -0.016016707 -0.008047216 0.00046323426 -0.013386337
0002c0 82 ee f7 bb e7 a1 97 bd ed 7f d8 bc 1b a1 74 bd
       -0.007566274 -0.07403927 -0.026428187 -0.059723955
0002d0 8e 5a b7 bc 25 85 0d bd e9 55 70 3d 47 dd a1 bd
       -0.022382047 -0.034550805 0.05867568 -0.079035334
0002e0 55 cf f6 3c 90 74 bb bd 6b c8 55 3c aa bc ce bd
       0.03012816 -0.09153092 0.013048272 -0.100945786
0002f0 9a ae 54 bb 94 1b e4 bb 56 42 e4 3c e4 05 5d 3c
       -0.0032452703 -0.0069612954 0.027863663 0.013490174
000300 11 27 23 ba fe 2b 04 3c 91 68 5d bd ee 31 38 bc
       -0.0006223778 0.008067129 -0.0540548 -0.011242373
000310 99 72 40 3d a6 4a ae bd 11 0f 8d 3c 9e 3e 93 bc
       0.04698429 -0.08510332 0.017219098 -0.017974194
000320 db 31 e1 3c 6e 66 15 bd 18 e1 27 3d 87 3d 29 bd
       0.027489593 -0.036474638 0.04098615 -0.041318443
000330 a3 a5 9f 3c 58 d5 ea bc 63 83 f9 bc c3 28 ed 3c
       0.019488161 -0.028666183 -0.030458158 0.0289501
000340 2d f0 a5 bd dc e0 7c bc 3c 74 37 3c 25 6e 07 3d
       -0.081024505 -0.01543447 0.011197146 0.033064026
000350 54 cc d2 3b 8b 10 9c 3a 01 be 20 bd 49 1b bf 3c
       0.006433049 0.0011906786 -0.0392437 0.02332844
000360 ac e3 11 3c ee 89 3d 3a c1 25 4f 3d 59 2e c2 bd
       0.008904379 0.0007230331 0.050573114 -0.09481496
000370 cd 6e 90 3b 44 44 66 3d ec 5a 3b 3c f2 10 23 3d
       0.0044077397 0.056217447 0.011435252 0.039811082
000380 ad 9c 58 3d b6 c0 35 bc 76 40 90 3d 1b 32 cb 3c
       0.052883793 -0.011093309 0.07043545 0.024804166
000390 3c 9f 64 bd aa ee 5e 3c 91 6a 42 bd 61 2a 69 3b
       -0.05581592 0.013606707 -0.04746491 0.0035578238
0003a0 90 4b 9a bd 1c de 45 3c 9a 3a 46 3c 6f 18 4d 3d
       -0.07533944 0.012076881 0.012098933 0.05007213
0003b0 11 e7 d3 3b d7 48 90 bb c4 43 46 bd 5f e6 01 bc
       0.0064667542 -0.0044032144 -0.04840447 -0.00792846
0003c0 d6 cf a7 bc 0e 97 b3 3c 7c e0 8c bc 67 4c d7 bc
       -0.020484846 0.021922614 -0.017196886 -0.026281549
0003d0 47 76 69 3d 56 b1 8a 3c 0e 11 c0 bc 35 de 65 bd
       0.056997564 0.016930263 -0.023445632 -0.056120116
0003e0 a7 be a0 3d 34 82 a7 bd 98 60 f4 bc db c5 01 3d
       0.07848864 -0.08179131 -0.029831216 0.03168283
0003f0 e3 a5 9d 3c 01 56 2c 3d b6 d2 87 bd 13 d2 a8 3b
       0.01924414 0.042074207 -0.06631987 0.005151996

layers.0.weight f4 [100, 41]
000000 c3 53 f3 bd bd cb 21 bd c2 4a 57 bd 9f 3c ee 3c
       -0.11881211 -0.03950094 -0.05256153 0.02908164
000010 58 4e d6 3d ad 47 49 3d c7 31 07 3e b2 04 6d 3d
       0.10464162 0.04914062 0.13202582 0.057865806
000020 de 4c d3 bd 4b 66 4f bd fc eb 94 3b 60 de e3 3d
       -0.10317396 -0.050634664 0.004544733 0.11126399
000030 54 03 08 be 1e 45 13 3e 46 b9 61 bd c6 5d 02 3e
       -0.1328252 0.14381835 -0.05510833 0.12731084
000040 98 8f 02 be 8a 6f 00 bd bb 39 9f bd ab f5 b6 3a
       -0.12750089 -0.031356372 -0.07774683 0.0013958713
000050 eb aa c3 3c b6 14 7f 3d 58 41 ea bd 1e d8 72 bc
       0.023885211 0.06227561 -0.114382446 -0.014822034
000060 81 4b ca 3d 18 b1 53 bd 6b 2b 84 3d 64 91 c3 bd
       0.098776825 -0.05168256 0.06453594 -0.095492154
000070 3d 5c 02 be fa 5a bb b9 47 be c2 3d 7a 90 a8 bd
       -0.12730499 -0.00035735202 0.09508949 -0.08230682
000080 e6 f6 d2 bd 13 ec 29 bd 26 43 7f 3d c8 02 34 bd
       -0.103009984 -0.041484904 0.062319897 -0.043947965
000090 26 4f e9 bc 74 f7 ea 3c 23 20 37 bd 6a 7c 22 bd
       -0.028480124 0.028682448 -0.044708382 -0.03966943
0000a0 b5 96 20 be e7 7e e2 3d ac 08 13 3d bb 91 d6 3d
       -0.1568249 0.11059361 0.035896942 0.10477015
0000b0 f5 18 e3 bc 99 4c 02 3e e8 a9 1a be a7 74 54 3d
       -0.027721861 0.12724532 -0.15103877 0.05186906
0000c0 cd 47 43 3d 76 f0 e4 bd 25 c6 c2 bd a6 99 12 3e
       0.047675896 -0.11178677 -0.09510449 0.14316425
0000d0 be ab f9 bc ea a5 cc bc 5c 80 f9 3c c9 8f 0e be
       -0.0304774 -0.024981458 0.030456714 -0.13922037
0000e0 b4 0f 62 bd b1 bf 9a 3d 21 4e c7 3b a4 98 cd ba
       -0.055190757 0.075560935 0.0060823117 -0.0015685749
0000f0 72 fb b9 bc 00 e3 e9 bd 70 83 cf 3d 21 bb 09 3e
       -0.022702906 -0.1142025 0.101324916 0.1345029
000100 66 1b 76 3d 6f 73 65 3d 93 97 a6 3d 0f b1 68 bd
       0.060084723 0.05601829 0.08134379 -0.05680948
000110 f3 fd eb 3d e9 71 5d 3d 60 68 28 bd 84 42 e1 bd
       0.11523046 0.05406371 -0.041115165 -0.10999015
000120 3e 65 95 bd 03 2c 52 3d c3 22 02 be 49 e1 b0 3d
       -0.07294701 0.051311504 -0.12708573 0.0863672
000130 c1 c4 b6 3d 62 77 b9 bc 01 c7 09 bd d6 78 13 3d
       0.089242466 -0.022639934 -0.03363705 0.03600391
000140 0d b8 27 3e 67 d3 c6 3d 5a b8 15 be cd ce 28 be
       0.16378804 0.097082905 -0.14621106 -0.16485138
000150 a6 84 2a be bd c0 6a bd e8 60 5b 3d 0e 56 0a 3d
       -0.16652164 -0.057312716 0.053559214 0.033773474
000160 4d 89 0b ba 7c a6 3b bd 36 fc 94 3d 23 86 20 3d
       -0.00053228886 -0.04581307 0.07274668 0.039190423
000170 68 3d 4c bd 85 7b c1 3d 5d ec 73 3c 00 89 a4 3c
       -0.04986325 0.094473876 0.014887896 0.020084858
000180 08 79 0c bc ac 01 62 bd 27 e9 cf 3a 05 02 f1 3d
       -0.008573778 -0.055177376 0.0015862331 0.11767963
000190 71 dd bb 3c 8a 27 bb 3c 8f 41 fb bd fb ba c1 bd
       0.02293274 0.022846002 -0.12268364 -0.09459492
0001a0 40 ed 46 3d 79 f9 0a be e0 bb 06 bd f3 00 13 be
       0.048566103 -0.13571729 -0.032894015 -0.14355831
0001b0 63 65 33 3e 82 50 9a 3d 29 26 4a bc 9f 7d fb 3c
       0.17519145 0.07534887 -0.0123382 0.03069955
0001c0 b1 1f 31 bd 88 32 04 3e 78 e1 6a bc 6d c3 37 bd
       -0.043243114 0.12909901 -0.0143359825 -0.044864107
0001d0 02 a8 02 bd ab fb 13 3e e6 6d 40 bc b2 05 08 be
       -0.031898506 0.14451472 -0.011744952 -0.13283423
0001e0 42 5f 2a bc 48 c6 0a bd da d0 2f be c9 46 3b 3d
       -0.010398688 -0.033880502 -0.17169514 0.045721803
0001f0 46 cb a4 bd 47 f8 9b bd 07 dc b0 bc b6 c9 71 bd
       -0.08046584 -0.076157145 -0.021589292 -0.059030257
000200 57 d6 a2 3d 84 6e df bc e9 52 0c 3e a7 f5 06 be
       0.07951038 -0.027274378 0.13703503 -0.13179646
000210 a7 69 a3 3c 14 d0 30 3c d7 d6 d8 bd c7 2c 93 bd
       0.01994784 0.010791797 -0.105878524 -0.07186275
000220 94 36 a8 3d 4b e3 ae bd 58 06 22 3d 90 a8 1b 3d
       0.08213535 -0.085394464 0.03955683 0.03800255
000230 3f eb 49 bc 72 bf f5 bd 54 76 bc bd 33 22 99 bd
       -0.012324153 -0.11999406 -0.09202257 -0.07477226
000240 e3 fd d5 3d be 84 0c bd 43 ef 05 3e 55 50 e0 bd
       0.10448816 -0.03430628 0.13079552 -0.10952822
000250 d9 4f 11 3e d4 22 92 bd a7 c9 41 bd 1a 61 1a be
       0.14190616 -0.07135549 -0.04731145 -0.15076104
000260 86 b9 22 bd 09 b4 bd 3d ea 42 17 3e 37 62 cc bd
       -0.03972771 0.092628546 0.1477162 -0.099796705
000270 2f 40 0c 3e 8c 21 cd 3d d0 03 03 bd de 4c 17 be
       0.13696359 0.10016164 -0.031986058 -0.14775416
000280 9c 2c c7 3c 08 4a 97 bd 75 2d e2 3d 3b 74 02 be
       0.024313264 -0.07387167 0.110438265 -0.12739651
000290 98 8c a4 3d 6e db c9 3b 03 60 f9 3d 04 0a e8 bc
       0.08034629 0.0061601913 0.12176516 -0.028325088
0002a0 d5 6a 78 3b 79 2a 04 be ec 4b 4e bd 71 a2 55 bd
       0.0037905474 -0.12906827 -0.050365373 -0.05215687
0002b0 11 c3 e7 3c 5c 29 7b 3d 67 43 73 bd ce ad 51 bd
       0.028291257 0.06131874 -0.05939045 -0.051191144
0002c0 f6 a2 d0 bd b0 7f 57 3c 74 cc 02 be 6a e7 22 3e
       -0.10187332 0.013153002 -0.12773305 0.1590859
0002d0 24 82 de bd 95 8b c1 3d d8 43 bc 3d 95 3c 31 3c
       -0.10864666 0.09450451 0.09192628 0.010817667
0002e0 b9 91 c6 bd bd 33 fb bc b3 d2 c5 bd 3b 30 07 3d
       -0.09695763 -0.03066432 -0.09659328 0.03300498
0002f0 e1 c3 a9 3d 27 06 d1 3c 1b 49 c7 3c 21 5d 2a 3c
       0.08289314 0.025515629 0.024326852 0.01039818
000300 95 f9 8c 3d 13 a2 8e bd 76 f5 53 3d f8 0e f1 3c
       0.068835415 -0.06964507 0.05174776 0.029426083
000310 76 70 0b 3e 96 1c 4a bd ef 2c 18 be e9 23 15 3b
       0.13617119 -0.049343668 -0.14860891 0.0022757
000320 6d 7d 1d be 88 d8 ba 3c dc 21 23 be e0 e1 56 3d
       -0.15379877 0.022808328 -0.15930885 0.052461505
000330 53 ac 91 bd 98 04 e7 bd 19 1f df 3d 2d a3 bc 3d
       -0.07112946 -0.11280173 0.10894603 0.09210811
000340 de 9b 02 3e a2 3a 33 3e 0e 65 86 3d 08 ce 9d bd
       0.12754771 0.17502835 0.065622434 -0.07705313
000350 b0 7c c6 bd bf ea 85 3d 88 12 10 be 57 71 1d 3e
       -0.09691751 0.06538915 -0.14069569 0.15375267
000360 94 1a 09 be ca 44 e9 bd 4b 09 b3 bd 06 a5 dc 3d
       -0.13389045 -0.113900736 -0.08742007 0.10773663
000370 22 4d d9 bc 8d e3 28 bd c4 c5 e5 bd 72 d4 21 be
       -0.026526038 -0.041232634 -0.112193614 -0.15803698
000380 46 f3 b0 3c 9e 10 18 be 03 06 de bb 0d e4 01 3e
       0.021600377 -0.14850089 -0.006775619 0.1268465
000390 34 27 7f bc ff 6b 0b be a7 bd c1 bd 31 52 4c 3d
       -0.015573312 -0.13615416 -0.094600014 0.04988307
0003a0 20 d8 ce bc b1 45 ce 3d 01 ff 00 bb b3 9e 42 bc
       -0.02524954 0.10071886 -0.0019683244 -0.011878657
0003b0 ea 15 08 3e a1 5d b1 3c 3a 9d 1b 3d e4 31 c6 3d
       0.1328961 0.021651091 0.03799174 0.09677485
0003c0 4d 84 17 3e 47 0c b8 3d 86 93 70 3c 3b e5 66 bd
       0.14796562 0.08986717 0.01468361 -0.056370955
0003d0 e2 fe 95 bd 6f 05 e3 3c 61 9d ee bc c2 63 1e 3c
       -0.07324006 0.027712552 -0.029127778 0.009667339
0003e0 2b 29 2b be 42 05 4e 3d 6b 23 18 3d 3c 76 3a bd
       -0.16714923 0.050297983 0.037143152 -0.045522913
0003f0 35 38 34 3c 09 a6 c5 3d c8 c1 bc 3c 3e f4 88 bd
       0.010999729 0.09650809 0.02304162 -0.066872105

layers.0.bias f4 [100]
000000 57 29 f3 bd fa 3e ae 3d 86 e8 a5 3d 22 53 1d be
       -0.11873119 0.085081056 0.08100991 -0.15363744
000010 d7 d6 9c 3d 84 db 12 bd 93 20 e9 3d dc 23 2f 3c
       0.07658165 -0.035853878 0.11383166 0.010689702
000020 eb 05 b7 bd 25 14 d5 bd 56 12 e6 bc 2d 77 8e bc
       -0.08936676 -0.10404233 -0.028084915 -0.017390812
000030 b0 41 9f bc e7 d4 93 bd 38 5f f8 bd df c0 a3 3d
       -0.019440502 -0.07218342 -0.121275365 0.079957716
000040 2b 9a 04 be 68 3c b1 3c 33 61 dd bc fe d4 2c 3d
       -0.12949435 0.02163525 -0.027023887 0.042195313
000050 22 74 9c 3d a5 c3 ce 3d 28 a3 92 3c 54 2b 3c 3e
       0.07639338 0.1009591 0.017900065 0.18375903
000060 3d de a0 3d 7e 03 56 3c 01 da a9 3d a9 ec 51 3d
       0.078548886 0.013062356 0.08293534 0.051251087
000070 ca 6d 19 be 2d 52 ef bd b5 4f e7 3d d4 1c 39 be
       -0.14983287 -0.11685596 0.112945 -0.18077403
000080 f4 27 5c bc 4b 43 e9 bd 82 8a 16 3d e6 3d 0f 3d
       -0.01343726 -0.11389788 0.036753185 0.03497114
000090 6b 53 2d 3d 54 59 81 3d 2e 3b 59 bc 46 57 0f 3e
       0.04231588 0.06315866 -0.013258738 0.13998136
0000a0 ea 97 bf bc 4e e1 9b 3c 66 5a be 3c 82 fb fb bd
       -0.023387868 0.019028332 0.023236465 -0.12303831
0000b0 cd fd cf bd ce 40 af 3d 55 20 c0 bc b3 e7 21 bc
       -0.101558305 0.085572824 -0.023452917 -0.009881902
0000c0 8b a2 44 3c f5 aa de 3d 33 5b 15 bd a4 a5 51 3d
       0.012001644 0.10872451 -0.036463927 0.051183358
0000d0 24 ec 1a be 7a 3c 4e bd 00 ff 78 3d c4 7a 95 bd
       -0.15129143 -0.050350644 0.060790062 -0.07298806
0000e0 90 45 53 3d 33 a0 41 bd 30 c3 84 bd 26 3e 8e 3d
       0.05158001 -0.04727192 -0.064825416 0.069454476
0000f0 a7 1b da 3d 72 6e 36 bd 24 39 69 bb f1 a7 40 be
       0.106498055 -0.044538923 -0.0035587037 -0.18814065
000100 69 b6 e7 bd 72 6f cd 3d 48 e0 ca 3d 3a c3 c3 3a
       -0.11314089 0.10031022 0.099060595 0.0014935501
000110 17 bb 2b be 1d e3 c5 bc ae 33 12 be 4e 2e b9 bd
       -0.16770588 -0.024156148 -0.14277527 -0.09042035
000120 b2 a5 ab bd 29 ce fc 3d 72 ee ae 3d e6 d8 14 be
       -0.08381213 0.123440094 0.085415736 -0.14535865
000130 6a 6c 8d 3b 79 6f 7e bc 5a b5 fb 3d 63 85 f0 bc
       0.0043159025 -0.015529507 0.122904494 -0.029360479
000140 05 c4 6a 3c 91 f7 b2 3d e9 ea b4 bc bf dd ce bd
       0.014328961 0.08738626 -0.02208467 -0.101008885
000150 93 76 23 bc 4a 80 08 3c 3b e5 f6 3d 9a 10 ef bc
       -0.009977001 0.008331368 0.12055441 -0.02918272
000160 4b e5 97 bd a7 fb 08 be f0 b0 e4 3d 07 5a f7 3c
       -0.07416781 -0.13377248 0.11166561 0.030194296
000170 3c cd 0b bd a4 54 c8 3d a6 80 c0 bd 5c 80 5b 3e
       -0.034131274 0.09781769 -0.09399538 0.21435684
000180 8d df 8f 3d 83 e3 dd 3d 5f 8e c1 bc 2b ac ba 3d
       0.07025061 0.1083441 -0.023627458 0.0911487

layers.1.weight f4 [400, 100]
000000 b4 87 78 3c 8e 20 cd bd 9f e4 85 bd f4 f7 1c bd
       0.015169073 -0.10015975 -0.06537747 -0.038322404
000010 9e d3 23 3d 22 d2 1d bd c4 49 98 bb cc d0 ad 3d
       0.039996736 -0.038530476 -0.0046474654 0.084870905
000020 34 8d 07 3d d7 a9 50 bd 09 d0 9c bd 5c 8d b4 bd
       0.033093646 -0.050943222 -0.07656867 -0.08816025
000030 e4 68 89 3d d4 04 b6 3d 4f 0e f8 bd d2 9f 27 bd
       0.067094594 0.0888764 -0.12112104 -0.0409239
000040 11 0c d3 bd f5 68 fb bc c5 b6 c7 3c f8 0e 8a 3d
       -0.10305036 -0.030689696 0.024379143 0.06741136
000050 61 36 60 bd 00 81 f9 bc 51 18 6d bd a8 e6 71 bd
       -0.05473936 -0.03045702 -0.057884518 -0.05905786
000060 e0 01 41 3c 88 d8 cf bd ee 4c 0b 3d 55 00 5a 3d
       0.011780232 -0.10148722 0.034008913 0.053222973
000070 39 cc a5 bd bc 81 b2 bc c0 b0 29 bd ae 56 a1 bd
       -0.08095593 -0.021790378 -0.041428328 -0.07877861
000080 ec 90 3f 3d d3 7c c9 bb ee 1d 8f 3d 5e bb c2 3d
       0.046769068 -0.0061489134 0.069881305 0.09508394
000090 89 ad 85 bd 11 d8 a1 bd a5 e3 c5 bd 85 32 c6 bd
       -0.0652724 -0.079025395 -0.096625604 -0.096776046
0000a0 24 a6 3b 3d 70 bc d5 bc 74 8c 16 3d da a9 a0 bd
       0.04581274 -0.02609083 0.03675504 -0.078448966
0000b0 b2 a6 9e bc c0 77 d5 3d 75 8c e5 bc eb de 36 3d
       -0.019366596 0.10423231 -0.028021077 0.044646185
0000c0 5e 80 ef 3d 31 04 01 bd ef 59 94 3d 6b ad 94 bc
       0.11694406 -0.031498138 0.07243716 -0.018149098
0000d0 e6 7a af 3c e0 aa 81 bd e1 fe b9 3d fa 2b ba bd
       0.021420907 -0.0633142 0.090818174 -0.09090419
0000e0 12 89 92 3d 59 5b 83 bd 2e a9 77 3d ad e0 52 3d
       0.0715505 -0.064139076 0.060464077 0.0514838
0000f0 92 f0 39 bd d9 57 2a 3d db 94 67 bd ae c8 bf bd
       -0.04539544 0.041587684 -0.056538444 -0.093644485
000100 10 9f 13 bd 55 36 88 bb 2c 24 95 bd 6b 6d 69 bc
       -0.036040366 -0.0041568675 -0.0728229 -0.014247279
000110 99 d9 17 bd b4 2e 2f 3d 01 05 66 3d fa 60 0d 3d
       -0.03707275 0.04276915 0.056157116 0.034516312
000120 c2 5e 55 3c 90 19 86 3d c2 f3 26 3d 0f 1d a7 bc
       0.01302308 0.065478444 0.04075981 -0.020399598
000130 38 d7 44 bd f8 8d 84 3d 38 e8 bb 3d 7e 65 93 bd
       -0.04805681 0.06472391 0.091751516 -0.071970925
000140 f5 f7 10 3d 16 fb 0a 3d e0 75 dc bb 77 72 f3 bc
       0.03539272 0.03393086 -0.006727919 -0.029717667
000150 a5 d2 94 3d 4a b9 ba 3d 0a 22 8c bd 55 25 8d bd
       0.0726674 0.09117372 -0.0684243 -0.06891886
000160 ad 7d 22 3d bc fd 49 bd 1b bf ce bc 9d 0f 05 bd
       0.039670635 -0.049314246 -0.02523761 -0.032485593
000170 52 6a 3a 3d 8e ec ca bc f1 6f a9 3b 95 9b 8a 3c
       0.04551155 -0.024771001 0.005170815 0.01691989
000180 ff c8 b7 3d d5 80 a3 3d 92 6a 80 bd 94 50 06 3d
       0.08973884 0.07983557 -0.06270327 0.03279169
000190 f5 0a 84 bd fc 81 ca 3d 6c 80 42 3d 88 f7 cd bd
       -0.064474024 0.09888074 0.047485754 -0.100569785
0001a0 6f 32 6f bd 96 03 bf bc 17 0d 8e 3d 90 a1 b2 3d
       -0.058397707 -0.02331714 0.069360904 0.08722222
0001b0 be 8c a0 3d 86 80 7d 3d 39 f9 90 bd b3 ed 1a bd
       0.078393444 0.061890148 -0.070787854 -0.037824344
0001c0 b7 6d 32 3d 4d 1a 72 3d 8a e4 25 bd 99 a6 96 3d
       0.043561663 0.059107114 -0.040501155 0.07355995
0001d0 ac 3f 13 bd 09 ea 9c bd 14 a5 4d 3c 40 ae ac 3d
       -0.035949394 -0.07661826 0.012551565 0.08431673
0001e0 0e fd 89 3d 7b b3 33 3d c2 a2 c0 3d be da c8 3d
       0.067377195 0.043872338 0.094060436 0.09807347
0001f0 bf da 40 bd 84 f8 65 3d 68 27 3b bd 4c 78 a0 bd
       -0.047083613 0.056145206 -0.045691878 -0.07835445
000200 0e a8 33 3d b2 06 23 bd f9 78 6f 3d e5 6d 47 3d
       0.04386144 -0.039801307 0.058464978 0.048688788
000210 c0 97 c0 3d 62 fa 90 3d 13 90 2a bd 3f 43 f1 3c
       0.09403944 0.07079007 -0.041641306 0.02945101
000220 60 ff b0 bd b7 e0 97 bd b2 26 65 3d 5d a0 50 3d
       -0.08642459 -0.07415908 0.055945106 0.050934184
000230 9d a4 7d bd d5 ff 14 bc ad 21 fd 3c 41 c8 0e 3d
       -0.061924566 -0.009094198 0.030899847 0.034858946
000240 1c 2c 49 3d d9 0f 3d bd 79 d6 fb bd 12 2a 55 3d
       0.04911433 -0.04615769 -0.12296767 0.052042075
000250 7c 55 5c bd e6 2e c2 3c fd 02 d9 bc 25 fc 11 3d
       -0.05379246 0.023704004 -0.026490683 0.035640854
000260 fd 5b 7e 3c 9b 4c a5 bc 89 90 ad bd 0c 8e 82 bc
       0.015524861 -0.02017813 -0.084748335 -0.015936874
000270 ef 11 9a 3c 8e 1c f6 bc 52 ad 86 3b aa 07 bd ba
       0.01880738 -0.030042913 0.004110017 -0.001442184
000280 35 cd 43 bd f0 bb fe bc b0 67 a2 bd b5 95 cb 3d
       -0.047803123 -0.031095475 -0.07929933 0.09940664
000290 2a 17 e3 3b c1 5b 80 3d de 2a c9 bc 23 86 a1 bc
       0.0069302516 0.06267501 -0.024556573 -0.019717282
0002a0 51 1a b0 3d 9e 71 ae 3d a8 24 ca bd ee 98 7a bd
       0.085987695 0.085177645 -0.09870273 -0.061181
0002b0 58 9b 4a bd c6 f1 57 bd 2d 83 fa bd 18 9b fc bc
       -0.049464554 -0.052720807 -0.12232051 -0.030835673
0002c0 3c 19 d7 bd 8f 09 a1 3d 90 89 b0 bd ba cf a7 3d
       -0.1050286 0.07863151 -0.08619988 0.081939176
0002d0 bd a7 25 3d c0 2c a0 bd 3e 2e 19 bd 39 21 fa bc
       0.04044317 -0.078210354 -0.037397616 -0.03053342
0002e0 17 bc 01 3d 36 15 ea 3c 95 c7 f7 bb f0 d0 82 bd
       0.031673517 0.028574567 -0.007561634 -0.06387508
0002f0 2f 4c fc bb fa 82 0a 3d 94 a6 2d bc 88 ed 12 3d
       -0.0076995115 0.033816315 -0.010598797 0.03587106
000300 25 57 8d bd f6 58 5e bd bb 1c f1 bd 3f b7 ea 3c
       -0.06901387 -0.05428406 -0.11773058 0.028651832
000310 f3 a1 fb 3d 62 6a 34 bd 67 54 ac bb 61 af a9 bd
       0.12286749 -0.044046767 -0.005259085 -0.08285404
000320 9a e2 32 3d 68 2b 14 3d e6 80 c0 3d f2 01 88 bd
       0.043673135 0.036174208 0.093995854 -0.06640996
000330 d1 63 d5 bc 56 2e 92 bd 02 f7 2a bd fb 13 af bc
       -0.026048573 -0.07137744 -0.04173947 -0.021371832
000340 d9 83 cf 3d 3e d5 fb 3c f8 fc 47 ba cf d9 62 bc
       0.1013257 0.03074133 -0.0007628943 -0.013845875
000350 a0 62 6e bc a8 d2 86 bd e9 27 ba bd eb 04 7c bd
       -0.014549881 -0.06583148 -0.090896435 -0.061528128
000360 d2 e3 0f 3d 37 08 a9 3d f3 80 9b 3d a0 54 ad bd
       0.035129376 0.0825352 0.075929545 -0.084634066
000370 ee a4 f5 bc 7c d9 55 bb e7 e2 d4 3d e4 02 7d bd
       -0.029985871 -0.0032630851 0.10394841 -0.061770335
000380 97 f0 6a 3d 67 90 7c 3d e7 28 c8 bc ef 2a af 3d
       0.05735835 0.06166115 -0.024433566 0.08553111
000390 87 eb 76 bd 18 27 0b 3d 47 26 49 3d 8b 7b a3 bc
       -0.06028321 0.03397283 0.04910877 -0.01995637
0003a0 9d 4b ba 3c d9 07 9f bd 9d 60 1f bd a8 8e c9 3c
       0.022741133 -0.07765169 -0.038910497 0.024604157
0003b0 c7 51 e9 3d b5 83 96 3b 84 ce 4e bd a5 3a 82 bd
       0.11392551 0.0045933374 -0.050489917 -0.06358842
0003c0 a3 c4 1b bd f3 84 c3 3d ed ab 40 3d 86 52 24 bd
       -0.038029324 0.095468424 0.04703896 -0.040117763
0003d0 ce b4 9a 3c 09 a4 64 bd 7c 8c 9e bd 68 46 6d bd
       0.018885043 -0.0558205 -0.07741639 -0.057928473
0003e0 1d a1 20 3b 65 f1 a1 3d f1 13 eb ba 02 7e 50 3d
       0.0024510093 0.079073705 -0.001793502 0.05090142
0003f0 a4 4d 36 bc 5a e8 d3 3d 37 3d 93 bd c6 c5 85 bd
       -0.011126909 0.10347052 -0.0718941 -0.06531863

layers.1.bias f4 [400]
000000 c5 6f 98 3d fc 02 e5 bc ae d8 5a 3d ef c1 2c 3d
       0.07443193 -0.027955525 0.053429298 0.042177137
000010 55 5c 6e 3b 8a d7 25 bd 78 b7 63 bd 79 25 b4 3d
       0.0036370952 -0.040488757 -0.05559489 0.0879621
000020 f2 02 cf bd 95 56 61 bb cd 6d d2 3a 3b 51 61 bd
       -0.10107984 -0.0034383882 0.0016054452 -0.055009108
000030 48 bf 83 bd c2 4f 7f bc 77 9f 86 bc fd 5c 8a 3c
       -0.064329684 -0.015582981 -0.01643346 0.016890043
000040 7c 98 7c 3d 98 1e 53 bd 75 8c 9e bd da 03 90 bd
       0.061668858 -0.05154285 -0.07741634 -0.070319846
000050 35 8c ba 3d fd dd 9b bd b5 f3 8c bd cb 79 35 3d
       0.091087736 -0.076107 -0.06882421 0.044305604
000060 15 c2 84 bd e9 4f 2d 3d b0 72 b0 3d 65 4a c8 3c
       -0.06482331 0.042312536 0.08615625 0.024449537
000070 41 4d e0 bc eb bd 14 3c f4 06 85 bd 1f ec 78 3d
       -0.027380588 0.009078483 -0.06495467 0.060772058
000080 78 69 d0 bd 3b 32 cd 3b 00 b8 88 3b c7 60 87 bd
       -0.101763666 0.0062620915 0.004172325 -0.06610256
000090 86 32 20 3c cb 73 65 bc 7e 35 6f bd b0 8d 20 bd
       0.009777671 -0.014004658 -0.058400624 -0.039197624
0000a0 09 fd 8a 3d d2 ff 1c bd b0 2f f5 3a cd bd 9d bd
       0.06786544 -0.038329907 0.0018706229 -0.07702217
0000b0 62 70 09 3d 5b 01 87 bd a7 a5 44 3c e1 52 b1 bc
       0.033554442 -0.065920554 0.012002385 -0.021645965
0000c0 c0 d8 69 3c 3e a4 87 3d 4a e7 93 3d b8 c5 94 bd
       0.014272869 0.066231236 0.07221849 -0.07264274
0000d0 58 33 11 3d 7a b6 f0 3c ad 27 be bc cb 12 55 bc
       0.035449356 0.029383887 -0.023212278 -0.013004969
0000e0 65 53 6b bb d9 9b c3 3c 22 c9 c3 3c 27 a8 05 be
       -0.0035907861 0.023878025 0.023899619 -0.13052426
0000f0 d6 6b 0d 3d 79 b2 a4 bc f2 9e 9c bd d0 a9 95 3c
       0.03452667 -0.020104634 -0.07647504 0.01826945
000100 98 83 c4 bd 1c 75 47 bd 9f 69 d1 bc 16 0b c6 3d
       -0.09595412 -0.04869567 -0.02556306 0.09670083
000110 4d 38 2c bc 0f 75 ae 3d 1b fe 4d 3d f5 cc 09 3d
       -0.01051147 0.08518421 0.050291162 0.033642728
000120 db e7 33 3d e0 1b 06 bd 9d cc ad 3c 3f 08 9f bd
       0.043922286 -0.032741427 0.021215731 -0.07765245
000130 7f 4b ab bd a1 0a 4f bd 69 e9 5a 3d ee 78 c3 3d
       -0.08364009 -0.050547246 0.053445254 0.0954455
000140 68 39 ca bc 21 ea 8e 3d 90 d4 31 bc a0 cd 30 bd
       -0.024685577 0.0697825 -0.0108539015 -0.04316485
000150 0f e8 7a 3d 06 58 91 3d e1 64 9e bd 82 94 ca bc
       0.061256465 0.07096867 -0.07734085 -0.024729017
000160 b9 cb ad 3d 8c 8d d2 bd 1f 3f 8f bd a7 1e 84 bd
       0.08486123 -0.10280904 -0.06994461 -0.06451159
000170 d7 25 d1 bd db ed 20 bd 2e b0 9a bd c4 82 70 3d
       -0.102122955 -0.039289337 -0.07553135 0.058718458
000180 90 0d b8 bd 03 00 38 3d b5 79 5c 3d 92 e1 b9 bd
       -0.08986962 0.044921886 0.053827006 -0.09076227
000190 4a cf a4 3a f6 d5 f2 3d 7c 6a 83 3d 38 ff e4 bd
       0.0012573984 0.11857216 0.06416795 -0.111814916
0001a0 ae 22 7c 3d 4e fa bd 3d cf a7 b7 bd 8d e4 d9 bd
       0.06155651 0.092762575 -0.08967554 -0.10639296
0001b0 2f 75 5a 3d e0 6f d2 3c bb 8a e3 bd 6d df 70 bd
       0.05333441 0.025688112 -0.11110445 -0.058806825
0001c0 9b f5 4f bd 45 ae 9e bd d8 c8 e8 bd ad ff 09 bd
       -0.050771337 -0.07748083 -0.11366433 -0.033691097
0001d0 30 8d 85 3d e6 17 ee 3c 53 c1 b3 bd ce 15 33 3d
       0.0652107 0.02906413 -0.08777108 0.043721966
0001e0 6a 99 bf bd d0 b9 c0 3d 85 4b f6 bd 70 29 4f bd
       -0.09355433 0.09410441 -0.12026123 -0.050576627
0001f0 d7 e5 a4 3d e0 2e 5d 3c f7 db f7 ba cd dc 86 bd
       0.08051651 0.013499945 -0.0018910159 -0.06585083
000200 0f 36 aa bd 05 cd d5 bc b4 c2 11 3d b6 76 e4 bd
       -0.08311092 -0.026098737 0.035586074 -0.11155455
000210 70 31 d5 bc 90 88 c1 3c 2d 8f cc bc 30 3f ff bc
       -0.02602455 0.023624688 -0.024970615 -0.03115806
000220 c8 b8 33 3d e9 80 0e 3d d1 b6 33 3c c3 35 93 bc
       0.043877393 0.034790907 0.01096888 -0.017969972
000230 46 ac 9e bd d4 95 a7 3d fc 3e bf bd 96 a4 a7 bc
       -0.07747702 0.08182874 -0.09338185 -0.020464223
000240 9f fc a6 bd 2d 76 5f 3c b6 22 23 3d c5 fc 83 bd
       -0.081536524 0.013639015 0.039828025 -0.06444696
000250 7c 6c 0c 3c be 27 d7 bd c0 3d 40 bd 58 f2 40 3d
       0.008570787 -0.10505627 -0.04693389 0.047106117
000260 c9 a4 30 3d bb 37 45 bd dc 5c a1 bd c0 ad ac 3d
       0.0431259 -0.04814885 -0.0787904 0.08431578
000270 ea 4a d6 bb 8e 50 88 bd 19 1c de bd ae 0b 5e bd
       -0.006539692 -0.066559896 -0.10845203 -0.054210357
000280 86 12 6f 3d 07 0f e5 bd 8b 94 a4 3c 8d 52 e5 3d
       0.058367275 -0.11184507 0.020090362 0.11197386
000290 d2 74 94 3d 0e b3 c7 bd ed b8 a8 bc 05 2e 87 3d
       0.07248844 -0.09750949 -0.020595992 0.066005744
0002a0 43 46 70 3d 43 fa c2 3d 05 e2 69 bb c5 87 ca bd
       0.058660757 0.0952039 -0.0035687697 -0.09889177
0002b0 3d 1c 85 bd 37 3f 46 bc 2a eb 2a 3d 33 34 1d 3d
       -0.06499527 -0.0121000325 0.041728176 0.03837986
0002c0 f4 b7 72 3d 00 16 87 bd 51 5c 25 bd 9c 61 5d 3c
       0.059257463 -0.06595993 -0.040371243 0.013512041
0002d0 8a 96 da 3d 7e 6d a6 bd 73 a0 ae 3d 0b 02 5f bd
       0.10673244 -0.08126353 0.08526697 -0.054445308
0002e0 c0 1b cc bc 66 f9 64 bd f1 08 20 3d 72 0f b7 bd
       -0.024915576 -0.055901907 0.039071027 -0.08938493
0002f0 a9 5e db bd ae d8 88 3c b4 77 a0 bd 22 0e f5 bc
       -0.10711414 0.016704883 -0.078353316 -0.029913966
000300 d3 ef ab 3c b8 c5 d1 bd 0a eb 19 bd 96 55 57 3d
       0.02098838 -0.1024279 -0.037577666 0.052571855
000310 7b 05 9e bc d1 54 f9 bc 0d f2 b1 3c ff c2 8c bd
       -0.019289723 -0.030435951 0.021721864 -0.0687313
000320 ec 6b da ba b3 f9 2e 3d 85 de 22 3c 7c 1f 6b 3d
       -0.0016664243 0.0427186 0.009940748 0.057403073
000330 64 18 37 bd 26 eb a7 bd 18 1d 21 bd db 14 9d 3d
       -0.044700995 -0.08199148 -0.039334387 0.076699935
000340 4f 2c a4 3d 31 55 72 bd d2 74 63 3d e1 f5 d1 3d
       0.08016264 -0.059163276 0.05553133 0.10251976
000350 1c 18 e1 bc 1b 0f fc bc 07 53 35 bc d1 ff 94 3d
       -0.027477317 -0.030768922 -0.011067159 0.072753556
000360 ba 38 23 3b d9 ec 3f bd 16 85 a4 bd 50 76 6c 3b
       0.0024905638 -0.046856735 -0.08033197 0.0036081262
000370 0a 7c 94 3d 5c ec 21 3c 45 a9 3d 3c 08 09 af bc
       0.07250221 0.009883013 0.0115760015 -0.021366611
000380 3b d4 a5 3b 0a cc b4 3d a9 ec 8d 3d e2 7a 2d bd
       0.0050607002 0.0882798 0.06929905 -0.04235352
000390 c1 d6 40 bd d6 36 b4 bd c0 0e 7d 3d 62 20 1f 3d
       -0.047079805 -0.087995216 0.061781645 0.038849242
0003a0 e2 df f6 bb a9 ec af bd be e3 92 bc 02 b2 c6 bd
       -0.007534013 -0.08590061 -0.017930862 -0.09701921
0003b0 6d 59 d2 ba 94 5f ce bd 76 72 2e 3d f5 07 8d bd
       -0.001604838 -0.10076824 0.042589627 -0.06886283
0003c0 7e 02 da 3d ef 41 1c bd 55 2b a2 bc da aa b0 3c
       0.106450066 -0.038148817 -0.019796053 0.021565843
0003d0 15 7d 5a bd d2 c6 4e bd 19 d9 77 3c 58 cf dc bd
       -0.053341944 -0.05048258 0.015127444 -0.10781735
0003e0 96 e6 8a 3d d9 27 a3 bc 20 c1 a2 bd 2e 30 aa bd
       0.06782262 -0.019916462 -0.07946992 -0.08309971
0003f0 5b 96 b3 bd b2 6e 1a 3d bc 76 7d 3d 40 e7 fc bd
       -0.087689124 0.037703224 0.061880812 -0.12348795

layers.3.weight f4 [400, 400]
000000 65 fd 12 bc 2c e7 e8 bc e5 13 07 bd 8d cc 3f 3d
       -0.008971547 -0.028430544 -0.032977957 0.046825934
000010 86 ce 0e 3b bd 01 ea bc d4 91 d4 3a 62 be 18 3d
       0.0021790578 -0.028565282 0.0016217777 0.03729094
000020 f9 bc 83 3c bf 4f 66 bd 6f 4a 7b bc d5 fa 11 bd
       0.01608132 -0.056228396 -0.015337571 -0.035639603
000030 66 81 07 3d 6f dc a5 bd 56 42 3f 3c 26 77 b1 3a
       0.03308239 -0.08098685 0.011673531 0.0013539537
000040 35 03 12 bd f0 4e 2e b7 c2 38 6b bd 45 e0 8a bd
       -0.03564759 -1.0389587e-05 -0.057427175 -0.06781057
000050 9f 19 77 bd 80 e6 c8 3b b4 88 68 bc c2 b1 8b 3c
       -0.06032717 0.0061309934 -0.014192749 0.017052535
000060 63 f2 2c 3c f2 58 0f bd a6 61 09 bb 80 b7 0a 3d
       0.010555836 -0.034996934 -0.0020962744 0.033866405
000070 b3 8a 43 3d 8e f5 48 bd 0e 22 4a bd ff 36 2b bd
       0.047739696 -0.049062304 -0.049348883 -0.041800495
000080 57 9c 21 3d 9a 98 4d 3b f0 e6 a9 3c 30 9c 1c 3c
       0.039455738 0.0031371475 0.020740002 0.009558722
000090 9f 61 4c bd 0f 30 95 bd 4c 99 5b 3d d7 14 59 bd
       -0.049897786 -0.07284557 0.053612992 -0.05299839
0000a0 eb d1 2f bd 01 fa 04 bc 66 94 bc 3d 32 8a f0 bc
       -0.042924803 -0.008116246 0.09207992 -0.029362772
0000b0 01 27 e6 3c fb 23 9e bb 26 3e d5 3b 61 fb a7 bc
       0.02809477 -0.0048260665 0.006507653 -0.020505609
0000c0 7c 25 92 3b 25 58 df bd ea 09 b2 ba 6d 12 5c 3d
       0.004460035 -0.10905484 -0.0013583277 0.05372851
0000d0 6b f4 26 3d 58 0d 28 bd 32 e6 57 3c fe fe 33 bd
       0.04076044 -0.04102835 0.013177441 -0.04394435
0000e0 7c ca a7 bc 15 7b 20 bc 60 f5 93 3c 22 00 de bc
       -0.020482294 -0.00979497 0.01806134 -0.027099673
0000f0 39 7b 84 bc 03 3d bf bb 4f 05 69 3b 8f bc 89 bd
       -0.016172038 -0.0058361306 0.0035556143 -0.06725418
000100 21 de b0 bc 9c 88 1f 3d be 00 01 3c 9b 7f 24 3d
       -0.021590294 0.03894864 0.007873712 0.040160757
000110 48 2e cf bb d4 bb 53 3d 8a cb e8 bc 7c e6 8e bb
       -0.006322656 0.0516928 -0.028417367 -0.004360972
000120 c9 52 b2 bd 38 79 26 3d 5f 72 03 bd 74 f7 2c 3c
       -0.08707196 0.040642947 -0.032091495 0.010557044
000130 c0 89 1d 3d 02 b3 16 bd a9 d1 0d bd fb 1d f3 bd
       0.038461447 -0.03679181 -0.034623776 -0.11870953
000140 74 51 66 bd 0f 53 07 bd d7 9d a3 3d 40 98 49 bd
       -0.056230024 -0.033038195 0.0798909 -0.049217463
000150 2f f0 2f bd 76 9e 4c 3d bf 54 10 3d ca 58 97 3c
       -0.042953666 0.049955808 0.03523707 0.018474955
000160 c6 95 13 bd 7a cc 95 bd 63 46 8f 3c cb 6a 99 bd
       -0.036031507 -0.073143914 0.017489618 -0.07491072
000170 b8 f2 8d bd 74 31 ce 3c 19 a4 77 3c da 6a 0c bd
       -0.069310606 0.025170065 0.0151148075 -0.03428159
000180 4f a3 68 3d 51 5e d4 3b 96 19 2d 3b 5d bc b1 bd
       0.05679637 0.00648097 0.0026412955 -0.086785056
000190 50 19 86 3c 0f 9d 5f 3b 2c d1 31 bd d6 14 36 bb
       0.016369492 0.0034120714 -0.043412372 -0.0027783415
0001a0 31 b4 65 bd bb 18 e4 bc 7a 92 83 bc b2 14 44 bd
       -0.056080047 -0.027843824 -0.016061056 -0.0478713
0001b0 68 f6 b7 3c f7 43 f5 ba d3 5d 6e bc 8f 94 bb 3d
       0.022456363 -0.0018712272 -0.014548737 0.09159195
0001c0 aa f4 29 bd cd 43 2d bd a0 37 c4 3a 57 5b a2 3c
       -0.041493095 -0.042300988 0.0014970191 0.019818945
0001d0 cf 83 94 bc d0 70 f3 3c db f5 84 3c 73 31 8e 3d
       -0.018129257 0.02971688 0.016230514 0.069430254
0001e0 a8 65 5b bd 4a 90 41 3a bf 2a 9c bc 09 76 72 3c
       -0.053563744 0.00073838665 -0.019063352 0.01479865
0001f0 4f 42 fe 3c 42 3d 56 bd f6 1b 10 bc dc 47 04 bd
       0.031037478 -0.052304514 -0.008795729 -0.032295093
000200 4a 61 50 bd 59 d5 a0 3b 93 66 a4 3c 5b e4 4f 3c
       -0.050874032 0.0049082455 0.020068442 0.0126887215
000210 76 67 7e 3c 00 f9 25 bd 9d 81 16 bc 8a 36 e5 3c
       0.015527597 -0.040520668 -0.009186176 0.027980108
000220 4f a8 5a bd 2b 67 23 3d 31 22 92 3c 31 9b 44 3d
       -0.053383168 0.03989331 0.01783857 0.047999565
000230 b1 6a f9 bc 7d 0d 9b bc 01 56 a6 bc 7e 6d e6 3c
       -0.030446382 -0.01892733 -0.020304682 0.028128382
000240 50 d0 81 3b b2 8a 95 bd f7 40 47 3d 7d 3b 37 3d
       0.0039616004 -0.07301845 0.04864594 0.044734467
000250 5c c3 9a 3d 8b 1a 83 3c 98 f1 90 3c ba 5a 18 bd
       0.07556793 0.016003868 0.017693326 -0.0371959
000260 9a f8 d6 ba 9f 1d 53 3c 40 4f 82 3d 33 af 32 bd
       -0.0016400993 0.01288548 0.06362772 -0.043624114
000270 8c d9 80 bd 99 51 6d bc 57 4c 8c bd 8d 34 c3 bc
       -0.06291494 -0.014484786 -0.06850498 -0.02382877
000280 dd 7f 9b bc b8 12 58 3c a5 e9 23 3d c2 f2 9f 3c
       -0.018981868 0.013188057 0.040017743 0.019524936
000290 c1 83 98 3b f4 d3 9e 3d 12 7d 16 bd de f2 f3 bc
       0.004654378 0.077552706 -0.03674037 -0.029778894
0002a0 7f 51 09 3d 9a 20 53 3d 4f 38 3e bb b5 a1 c3 3c
       0.033524986 0.051544763 -0.0029025262 0.023880819
0002b0 52 66 b2 bc 1f 4b 18 bd 1e 9c c4 3c 1e e3 c8 bc
       -0.021777306 -0.037181016 0.024000224 -0.02452236
0002c0 41 84 c7 3c bf f4 25 bd 6c cc 9f b9 7b cb 12 bc
       0.024355056 -0.04051661 -0.0003047915 -0.008959646
0002d0 cb 3d 94 3c 21 c7 64 3d f2 f2 c5 bc b1 58 36 3d
       0.018095871 0.055853967 -0.024163697 0.044518176
0002e0 12 8c 2a bd 3a 42 cc bc 1a 5e 5d 3c ca 8f 34 39
       -0.041637488 -0.024933923 0.013511205 0.00017219703
0002f0 74 4c 32 bd be ad ff bc cc f3 08 3d 00 21 1d bc
       -0.043529943 -0.031210776 0.033435628 -0.009590387
000300 06 ad 51 bd 17 8e 84 3d 05 9e 96 bb dc b9 3c bd
       -0.0511904 0.06472414 -0.004596474 -0.046075687
000310 bc f7 e8 3c 41 6a a9 3c 50 a1 0c bc e8 80 50 3b
       0.028438441 0.020680549 -0.008583382 0.0031815115
000320 09 44 79 3d a3 10 49 bd b4 05 79 3c 37 76 04 bd
       0.0608559 -0.04908813 0.015199114 -0.0323393
000330 fc 5c 19 3d 61 68 38 bd f9 a8 90 3d ba 5e 2b bd
       0.037442192 -0.04502142 0.07063479 -0.041838385
000340 d9 09 b6 3c 08 cb f8 bb 02 0b ad 3c c2 b7 8a bc
       0.022221493 -0.0075925626 0.021123413 -0.016933326
000350 03 55 13 3d 58 51 f0 bb be 0e cb bc 4f b1 70 3d
       0.035969745 -0.0073339157 -0.024787303 0.058762845
000360 9f 5f 3c 3d 12 7f 08 bb 6a 07 18 bc bd a7 46 bc
       0.04598963 -0.0020827693 -0.009279111 -0.012124953
000370 7b 97 39 bd c6 5c 3c 3d a5 35 55 bd 1b a9 cd 3c
       -0.04531048 0.045986913 -0.052053113 0.02510505
000380 bc d1 f9 3c 67 7f 46 3d 98 d6 05 3c 6d 9f 80 bc
       0.030495517 0.048461344 0.008168839 -0.01570102
000390 e9 f3 3c bd 12 08 f5 bc 00 07 0e 3d f6 e5 fd 3c
       -0.04613105 -0.029911075 0.034674644 0.030993443
0003a0 a8 be b6 bc 4e cf 02 bc ed 6c 45 3c 5e f1 ef 3c
       -0.022307709 -0.007983996 0.012049896 0.029289898
0003b0 75 64 c7 3c d1 46 6b 3c 1f fd 20 3d 3b 4e 06 3c
       0.024339894 0.014360146 0.039303895 0.008197363
0003c0 64 06 4a bd 1c 33 1e bd 0d 1c 0e bd bf 1c 82 3c
       -0.0493225 -0.03862296 -0.03469472 0.015882848
0003d0 07 53 f3 bc e5 21 14 3d 9b a8 4e bc 15 ef b0 bc
       -0.029702676 0.036165137 -0.012613441 -0.021598378
0003e0 c0 50 70 3a d0 e4 0f 3d 14 3e 52 bc b3 71 17 bd
       0.0009167306 0.035130322 -0.012832183 -0.036973666
0003f0 40 06 84 3d bc d3 9f bc bf a8 29 bd db e5 35 3c
       0.064465046 -0.019510143 -0.041420694 0.011102165

layers.3.bias f4 [400]
000000 ff b3 e8 3b 0f 48 7c bd 8b d8 38 3d fd a3 01 3c
       0.0071015353 -0.061592158 0.045128386 0.007912633
000010 cb fa f9 3c ed 16 81 3d 1c 41 3f 3c 44 e0 a8 3c
       0.030515095 0.06303201 0.011673238 0.02061475
000020 b1 3f c2 bb 9a 3a d2 bc 3e e2 04 3d 8d 94 1b bd
       -0.0059280028 -0.025662709 0.032442324 -0.037983466
000030 ed 64 e7 bc 40 62 2b 3d 4e c7 8a bc 10 3e ac 3c
       -0.028246367 0.041841745 -0.016940739 0.021025687
000040 bd 5d 16 3d 02 42 57 3d ec c5 6c 3c c5 5a 89 3d
       0.03671049 0.052553184 0.014451485 0.06706766
000050 a3 a0 b4 bb 8c 84 2c bd 09 6f 30 3d 0c f6 16 3d
       -0.0055123135 -0.042118594 0.04307464 0.036855742
000060 d8 45 26 3d e5 70 59 bd 4a 47 b3 bb 0c 03 a4 bc
       0.040593952 -0.05308618 -0.005471145 -0.020020984
000070 4f 5a 88 3d 82 5e 05 bc 26 29 d3 ba 78 8d ae bc
       0.0665785 -0.008140208 -0.0016110286 -0.021307692
000080 ae 69 6b 3c 88 e3 59 3d 93 24 28 bd eb 8f 55 bc
       0.014368458 0.053195506 -0.041050505 -0.013034801
000090 16 fe f4 bc 7f da 3a 3d dd d0 05 bd 66 af d5 3b
       -0.029906314 0.04561853 -0.03266989 0.0065211533
0000a0 74 10 46 bd 59 2c d1 bc b7 0f d5 3c cd 96 ae bc
       -0.048355535 -0.025533842 0.02600847 -0.021312142
0000b0 04 a2 af 3c 00 f2 6b 3c be 85 50 3b 98 2e d8 3b
       0.02143956 0.014400959 0.0031817998 0.0065973513
0000c0 9c 4e 64 bd 6d 87 94 ba db e4 48 bc af c0 43 3d
       -0.05573903 -0.0011331864 -0.012261595 0.04779118
0000d0 e7 8c 8f bc 0a 95 27 3d 78 04 94 bc 51 d4 0f 3c
       -0.017523242 0.04091362 -0.018068537 0.0087786475
0000e0 25 e3 7d 3d c7 df db bc 22 5c 07 3c b1 3f fb 3c
       0.0619842 -0.026840104 0.008261712 0.030670019
0000f0 f2 96 e7 bb 15 ee ec 3c 50 e7 f3 bc 25 0e 13 3d
       -0.0070675546 0.02892212 -0.029773384 0.03590216
000100 cf ab 9f 3c 02 9e ae 3d ad 62 52 3d a2 74 6c 3d
       0.019491104 0.08526231 0.051363636 0.057728417
000110 2b 0a 0b bd f0 31 65 bd a2 de 25 bc 66 86 48 bd
       -0.033945244 -0.055955827 -0.010123881 -0.048956297
000120 87 17 27 3d 93 37 25 bd 9a 4c 27 3d 39 b2 82 3b
       0.04079392 -0.040336203 0.040844537 0.003988531
000130 a8 48 1e 3d b0 41 a1 3c d4 52 46 3d ec be 11 3d
       0.03864351 0.019684643 0.048418835 0.035582468
000140 f7 b7 3b bd 8a d6 88 3d b7 52 ce bc 34 17 8b bc
       -0.04582974 0.06681545 -0.025185926 -0.016978838
000150 83 d2 81 3c 68 bc ec 3c 6c 95 be bc 35 0c 82 3d
       0.01584745 0.028898433 -0.02326461 0.063499846
000160 63 c0 7e bc 10 45 35 3d e6 3e 4d 3d ca a5 0b 3d
       -0.015548798 0.044255316 0.050108813 0.034093656
000170 b5 57 2b bd 1d b9 67 3c 15 ec 04 3d df 48 4b bd
       -0.04183169 0.014143256 0.032451708 -0.049630042
000180 06 18 31 bd 68 8a 4f bc cc ed fe 3b 97 fb 48 bd
       -0.0432358 -0.012667276 0.0077798124 -0.04906806
000190 45 f1 87 bd de f2 87 3d ef 89 d6 3c 2e 47 26 bd
       -0.066378154 0.0663812 0.026188819 -0.040595226
0001a0 3f 23 17 3d ac ee 9c bc eb 33 24 3d d5 42 55 bd
       0.036898848 -0.019156776 0.040088575 -0.05206569
0001b0 61 4b 51 bd 2b 42 df bc 53 79 93 3c cb 74 61 bc
       -0.051097278 -0.027253231 0.018002188 -0.013760756
0001c0 6f 4f 87 3d 06 1e 12 3d 84 ae 33 3c e5 e9 24 3d
       0.06606948 0.035673164 0.010966901 0.04026212
0001d0 5e c0 4d 3d ea 00 4e 3d 25 ad 02 3d 37 b5 80 3d
       0.050232284 0.05029384 0.031903405 0.06284564
0001e0 74 85 09 bd 29 45 1c 3d 2c 5e 8b bb 1e 8c 4e 3c
       -0.033574536 0.038151894 -0.0042531695 0.012606649
0001f0 61 05 0d bd b3 19 4d bc 64 bf 20 bd 43 d3 04 3c
       -0.034428958 -0.012518334 -0.039245024 0.008107009
000200 a1 ae 07 bd 9f b2 de 3b 90 88 00 3d af 75 53 bd
       -0.033125523 0.0067961956 0.031380236 -0.051625904
000210 c8 b3 67 3d e7 a1 25 bd 01 e3 1e bd b1 19 84 3c
       0.056567937 -0.040437605 -0.038790707 0.016125532
000220 49 9e 45 3d 6b 41 1c bd ee 2a 8c 3d 0a ec 4d bd
       0.048246656 -0.038148325 0.06844126 -0.050273933
000230 21 e8 27 bb 63 8c 3e bc 37 c6 9f bc a7 37 0d 3d
       -0.0025620537 -0.0116301505 -0.019503696 0.034476902
000240 57 49 be bc be 9d f3 3c b1 aa 4c bb 16 2f fc 3c
       -0.02322833 0.029738303 -0.003122967 0.030784171
000250 43 a5 b6 3b d3 5f 6a bd 8d d0 18 3d da 8e 06 3d
       0.0055739 -0.05722029 0.037308265 0.032851078
000260 2b e1 cd 3c 68 09 f1 3a 21 35 8d bc 12 fc c6 bb
       0.025131783 0.0018389644 -0.017237248 -0.0060725296
000270 6e f8 0c 3d 99 8d 9b 3c 24 7b bd bc e0 2f b2 3c
       0.03441661 0.018988417 -0.023130007 0.021751344
000280 6b 73 83 3c a8 8a 75 3d e1 86 be bc 4f 81 b0 39
       0.016046247 0.059946686 -0.023257675 0.00033665678
000290 e3 61 f6 bb ec 59 60 3d 36 61 27 bd c4 c7 d7 3c
       -0.007518993 0.054773256 -0.040864192 0.026340373
0002a0 67 42 f2 bc 30 35 73 bd 98 b4 1c ba db 66 9f bd
       -0.029572679 -0.059376895 -0.00059778383 -0.0778329
0002b0 ee 3c 54 3d 05 fe 39 3c 2d 50 06 bd 5d e0 fc bc
       0.05181592 0.011352067 -0.032791305 -0.030868703
0002c0 81 03 07 bc d8 d3 1c bd 5c 8f 0c bd 4b d7 98 3d
       -0.0082405815 -0.038287967 -0.034316406 0.07462939
0002d0 98 4d d1 3c 8c b5 18 bd 9c f8 2a bd 91 08 8a ba
       0.025549695 -0.03728251 -0.041741 -0.0010531117
0002e0 f9 ef 9a bc 01 7f f5 3c a0 77 47 3b 12 27 6f 3d
       -0.018913256 0.029967787 0.0030436292 0.05838687
0002f0 85 49 ef bc 26 a0 e2 bb 8d 7c 9f bc 4b ce 5e bc
       -0.029209862 -0.006916064 -0.01946857 -0.013598989
000300 0a 28 9f 3b 31 59 06 3d 48 d5 4f bd dd 2c 28 3d
       0.004857068 0.032799903 -0.05074051 0.04105841
000310 ac ba dc bc 66 1d e3 3c 9c 00 b2 bc 25 af 28 3d
       -0.02694448 0.02772398 -0.021728806 0.041182656
000320 83 ea 09 3c f2 aa 09 3d e1 bb 12 3d c3 eb b8 bc
       0.008417728 0.03361029 0.035823707 -0.022573357
000330 61 24 ae 3c fb 61 1c 3d d2 ea ce bc 5c 36 1e 3d
       0.021257581 0.03817938 -0.025258455 0.03862606
000340 ee c4 84 3d 3c f3 a7 3b dd 9c 91 bc 02 f5 a0 bc
       0.06482874 0.0051254313 -0.017774994 -0.019648079
000350 7b bf e7 3c 3e 8f f9 bb 39 d2 79 3d 19 23 56 3d
       0.028289547 -0.0076159528 0.0609915 0.052279565
000360 f7 8f 4a bd a3 d4 fe 3b 46 40 e4 3c 64 79 c9 3b
       -0.0494537 0.007776813 0.02786268 0.006148504
000370 10 7d 76 3d 97 f8 31 bc 68 24 0e bc 77 77 cb bb
       0.060177863 -0.010862491 -0.008675672 -0.0062093097
000380 e6 2c 4d 3c 88 f6 08 bd 69 10 87 3d a6 44 59 bd
       0.012522912 -0.033438236 0.06594927 -0.053043984
000390 a4 6a b6 3a 90 93 ac 3c ea 3d 33 bd 2a e9 4e 3d
       0.001391728 0.021066457 -0.043760218 0.05051533
0003a0 76 4e a5 bc ba c6 20 3d 25 42 ad bc b9 b8 3b bd
       -0.020179015 0.03925202 -0.021149704 -0.045830462
0003b0 83 d9 cd 3c 8c fd 96 3d a8 0e 8d 37 92 5f 3c bd
       0.025128132 0.07372579 1.6815335e-05 -0.04598958
0003c0 54 c4 0d 3d 55 90 e1 3b 50 36 fa 3c d4 59 13 bd
       0.03461106 0.006883661 0.030543476 -0.03597434
0003d0 79 11 1a 3b d5 cb df 3c e6 65 c0 3c e6 60 ba 3c
       0.002350895 0.027318874 0.023486089 0.022751283
0003e0 2b 23 06 3d 33 b5 eb bc 37 0e 98 3d 8b 35 e8 3c
       0.032748383 -0.028772926 0.07424586 0.028345844
0003f0 35 9e b9 bc e4 51 ff bb 7e 9c 58 bd c9 03 3a bc
       -0.022658447 -0.0077917445 -0.052883618 -0.0113534415

out.0.models.model_0.0.weight f4 [100, 1]
000000 b1 ae 1a bf ac e3 69 bf 30 b9 21 bf fd 48 0a bf
       -0.6042281 -0.91363025 -0.631732 -0.5401762
000010 28 d5 80 3f 86 a8 66 3f 2b 31 17 3f 0a a2 35 3e
       1.006505 0.90100896 0.590594 0.17737594
000020 67 2d 5c 3e 44 f0 0d bf 39 76 c5 be 1d 4c 34 be
       0.21501695 -0.5544474 -0.3856676 -0.1760716
000030 91 9e 31 3f 2a e8 72 3f 29 bf 58 3f da ff 57 bf
       0.6938258 0.94885504 0.8466669 -0.84374774
000040 42 35 43 3e 58 bc 4c be f8 d9 7a bf 2d 86 17 be
       0.19063285 -0.19993722 -0.97988844 -0.14797278
000050 8a 6e 44 3f 4e b0 b9 3e 80 f6 93 bc d3 22 12 bf
       0.7673117 0.36267322 -0.018061876 -0.5708439
000060 ad c5 02 3f 68 96 44 3f 71 5d 80 bf 59 46 67 3f
       0.5108288 0.76792 -1.0028516 0.90341717
000070 c4 d2 88 be c7 49 fa 3b ad dc eb be aa 97 65 bf
       -0.267233 0.0076381895 -0.460668 -0.89684546
000080 02 5c 85 bf 23 10 48 3e 2d e5 25 3e 5c c6 7a bf
       -1.0418704 0.19537406 0.16200705 -0.9795892
000090 30 fa f5 bd e6 c0 6b bf 0c 10 a8 be df 4d b9 be
       -0.1201061 -0.92091215 -0.32824743 -0.36192223
0000a0 5b 5e 97 bd 22 c4 55 bf 13 31 17 3f 9f a8 a8 3e
       -0.07391044 -0.835024 0.59059256 0.32941148
0000b0 54 99 fc be 4a 6f 51 bf a6 75 cc 3e d4 1d 07 bf
       -0.4933573 -0.8181044 0.3993351 -0.5277989
0000c0 e5 d0 24 3e d9 40 e0 3d 20 35 70 be 3c 29 49 bf
       0.16095312 0.10949869 -0.23457766 -0.78578544
0000d0 b5 f4 af 3e 5a 64 6f bf e7 f6 d8 3e f4 dc 77 3e
       0.34366384 -0.935125 0.42375872 0.2420538
0000e0 c0 f6 8e bd 96 b7 6b bf 61 04 ab 3e 6d 70 8b 3e
       -0.069806576 -0.92077005 0.33401778 0.27234212
0000f0 b2 72 16 bf cb 9d 12 3e e7 2a 16 bf 8f fb ee 3e
       -0.5876876 0.14318006 -0.58659214 0.466763
000100 a6 9f 21 3e 3f 59 7a 3f 62 4a 55 bf fd 82 1c 3e
       0.15783557 0.9779243 -0.83316624 0.15284343
000110 bb 85 40 3f 50 6b b4 be 6b 35 5d 3f e9 a7 d5 3e
       0.75204057 -0.35238123 0.86409634 0.41729668
000120 22 ea 3d 3f 5b 9f 73 3f d6 61 b3 bd d0 47 df bd
       0.74185383 0.9516503 -0.08758895 -0.10902369
000130 e6 a5 17 3f c5 f9 a6 3e 7b 68 81 3c 70 14 28 bf
       0.59237516 0.32612434 0.01579689 -0.65656185
000140 a0 27 83 bd 97 04 06 3f d5 e1 0c 3f 29 b6 8e 3f
       -0.06404042 0.52350754 0.5503209 1.1149341
000150 85 ee 4a 3f 18 22 a8 be 24 32 0e bf 20 77 24 bf
       0.792702 -0.3283851 -0.5554526 -0.6424427
000160 d0 a4 68 3f 42 bf 35 3f 32 05 55 bf 82 33 97 3e
       0.90876484 0.7099496 -0.8321105 0.29531485
000170 80 8b 29 bf 63 e9 22 3f b7 f9 8c 3f 7a bd 3d 3f
       -0.66228485 0.6363737 1.1013707 0.74117243
000180 55 dc b7 be c2 40 64 bf ea 5c d4 be 24 7b 8f be
       -0.35910287 -0.8916131 -0.41477138 -0.28023636
