results/interpretability/with_infant_sex/model_outputs/model_state_dict.pt (torch, 838708 bytes, 19 tensors)

bottleneck.0.weight f4 [1, 400]
-0.02348877 -0.03796192 -0.030395085 0.040095307 -0.04243068 -0.06384816 0.042809665 -0.02907461
-0.030764438 0.0147716375 -0.022415748 -0.020044882 0.030528469 0.013283619 0.022661682 -0.040552408
0.03660175 -0.0011118875 0.007069831 -0.0038097238 0.018614033 -0.018359937 -0.048899896 -0.055693507
0.016685301 -0.016658412 -0.030871404 -0.05691082 -0.022447128 0.01564666 -0.004856671 0.02829237
-0.012373245 -0.059754953 -0.0323821 -0.028953012 -0.008617274 0.030496135 0.03836993 -0.038172733
0.010888581 0.021251148 -0.00048107043 0.019104002 -0.016908726 0.02106597 -0.039327595 0.0024856986
0.02148962 -0.015228608 0.014729788 -0.023800965 -0.0264661 -0.029509597 -0.030163538 -0.040371712
-0.03631536 0.04892964 0.045688745 -0.024889348 0.03304142 -0.0019281881 0.02168794 -0.018565772
-0.024796179 -0.010419608 -0.007095097 -0.050778057 0.039969973 -0.005779458 0.04818438 -0.020133464
-0.0043639555 0.047624934 -0.014647251 0.06918967 0.061049264 0.05712644 -0.06741334 0.025181964
0.028574875 -0.044113245 -0.008455259 0.010947542 0.0021530704 -0.0015368583 0.04381943 -0.04967135
0.015786808 0.062147975 -0.03934598 -0.051140726 -0.02856945 0.02021371 -0.05035598 9.041306e-05
0.01968822 0.015349684 0.055808555 -0.04571633 -0.009919153 0.023916582 -0.027287768 0.031525094
-0.03157554 0.017084124 -0.02745524 -0.0049529416 -0.00017851932 0.00241598 0.029127665 0.016062006
-0.056067746 -0.002552851 -0.016571283 0.039719254 0.0150055215 -0.058194038 0.012409606 -0.0024084174
-0.025233671 -0.025880389 -0.002021412 -0.025985137 -0.063319094 -0.05481133 -0.024069682 0.06827966
-0.051797953 -0.03178978 -0.052483685 -0.0063950475 -0.02751212 0.03216492 -0.05487914 -0.0403309
-0.07143971 0.013355673 -0.025679113 0.07471959 0.045514025 -0.01031827 0.023358293 -0.050094135
0.0524785 -0.03262849 0.009008283 0.0422515 -0.033866275 -0.003820403 0.014178863 0.015030633
0.047065537 0.031461265 0.00840863 0.0073423507 -0.00013030983 -0.01954346 -0.062461793 0.03130464
0.031052118 -0.05967291 0.093427636 -0.0040484816 0.0271572 -0.020695813 -0.027492872 -0.047947135
0.039529283 -0.018681457 -0.026404673 0.008906052 -0.007693906 -0.012139193 -0.05390253 -0.02501768
-0.018961187 -0.018537834 -0.034740806 -0.04071383 0.023529846 -0.024389857 -0.0120427 -0.005154797
-0.010160619 -0.03845798 0.0047726408 -0.06497829 0.00085562107 0.043835476 -0.00046923925 0.0072076265
0.0021487197 0.013484576 -0.053965732 -0.0025204539 0.03649154 -0.03491927 0.028869955 -0.02244824
0.033233624 -0.027522879 -0.0019279699 -0.052721813 0.0018810397 -0.039265312 0.00081117114 0.08640314
-0.027079178 -0.020236451 0.04025288 0.020954942 0.013762415 0.019506793 -0.038057253 0.01785673
0.008226738 0.0072437683 0.027850075 -0.016672133 0.016974743 0.02755507 0.039716925 0.052174434
-0.022573285 -0.005322368 0.007343943 -0.02671212 -0.013389688 0.04132768 0.010828394 0.0055468003
-0.042515963 -0.022645874 0.023781292 0.026236994 0.005311954 -0.00089453015 -0.05821998 -0.004190875
-0.027527582 0.021235293 -0.004650772 -0.050702363 -0.0058233743 0.04748044 -0.016945636 -0.044636875
0.042205986 -0.022676473 -0.05137441 0.060090624 -0.025598211 0.056041103 -0.0297079 0.05067381
00000000: 856b c0bc f57d 1bbd 1dff f8bc fa3a 243d
00000010: cbcb 2dbd d3c2 82bd 3059 2f3d e02d eebc
00000020: b405 fcbc bd04 723c 3ba1 b7bc 2a35 a4bc
00000030: d716 fa3c 89a3 593c fea4 b93c 481a 26bd
00000040: b7eb 153d c1bc 91ba 0aaa e73b 8fac 79bb
00000050: 757c 983c 9467 96bc 424b 48bd e01e 64bd
00000060: 9daf 883c 3977 88bc 07e6 fcbc 521b 69bd
00000070: 0ae3 b7bc 6d2d 803c b624 9fbb 66c5 e73c
00000080: 27b9 4abc 9cc1 74bd 18a3 04bd de2e edbc
00000090: 782f 0dbc 08d3 f93c ca29 1d3d 035b 1cbd
000000a0: 0566 323c e316 ae3c 2e38 fcb9 ff7f 9c3c
000000b0: 2b84 8abc 8b92 ac3c f915 21bd 1ae7 223b
000000c0: 000b b03c 6981 79bc 3555 713c 3efa c2bc
000000d0: 6fcf d8bc 1cbe f1bc 8619 f7bc cf5c 25bd
000000e0: 6abf 14bd 726a 483d 1f24 3b3d bfe4 cbbc
000000f0: 7156 073d 42bb fcba e8aa b13c 3f17 98bc
00000100: 5b21 cbbc 01b7 2abc fd7d e8bb a7fc 4fbd
00000110: 8eb7 233d 9c61 bdbb fc5c 453d efee a4bc
00000120: 83ff 8ebb 5d12 433d 06fb 6fbc 50b3 8d3d
00000130: cb0e 7a3d 6afd 693d 0110 8abd 684a ce3c
00000140: db15 ea3c 17b0 34bd ed87 0abc 525d 333c
00000150: 871a 0d3b 6870 c9ba 017c 333d 2f74 4bbd
00000160: 5653 813c e08e 7e3d 4029 21bd f078 51bd
00000170: 7b0a eabc 3997 a53c 1242 4ebd 249c bd38
00000180: 3149 a13c 3e7d 7b3c 8397 643d 0c41 3bbd
00000190: f183 22bc b5ec c33c 998a dfbc 7520 013d
000001a0: 5a55 01bd 01f4 8b3c d0e9 e0bc 494c a2bb
000001b0: ea30 3bb9 6b55 1e3b 249d ee3c 7894 833c
000001c0: 4ba7 65bd bc4d 27bb 80c0 87bc a8b0 223d
000001d0: b8d9 753c df5c 6ebd a951 4b3c 8ad6 1dbb
000001e0: d8b6 cebc 1c03 d4bc aa79 04bb c8de d4bc
000001f0: 71ad 81bd d881 60bd c82d c5bc 35d6 8b3d
00000200: 172a 54bd 0036 02bd 22f9 56bd 8c8d d1bb
00000210: 1961 e1bc 5dbf 033d f3c8 60bd 0432 25bd
00000220: fc4e 92bd c1d1 5a3c 015d d2bc 9606 993d
00000230: ea6c 3a3d f60d 29bc e459 bf3c 822f 4dbd
00000240: b2f3 563d 74a5 05bd 7a97 133c e90f 2d3d
00000250: 5db7 0abd ba5f 7abb 764e 683c 0b43 763c
00000260: cbc7 403d 87dd 003d 5ac4 093c 1a98 f03b
00000270: c7a3 08b9 9b19 a0bc f0d7 7fbd 4b39 003d
00000280: 0361 fe3c 956b 74bd fd56 bf3d 20a9 84bb
00000290: c778 de3c 448a a9bc bb38 e1bc 3764 44bd
000002a0: 75e9 213d db09 99bc 9d4e d8bc b1ea 113c
000002b0: 291d fcbb 77e3 46bc e6c8 5cbd e1f1 ccbc
000002c0: 7e54 9bbc a8dc 97bc 604c 0ebd 8cc3 26bd
000002d0: aac1 c03c 3dcd c7bc bf4e 45bc 92e9 a8bb
000002e0: ba78 26bc 1d86 1dbd d063 9c3b 5613 85bd
000002f0: c24b 603a d48c 333d 3a04 f6b9 f42d ec3b
00000300: 89d1 0c3b 69ee 5c3c 2c0b 5dbd 332e 25bb
00000310: 2778 153d 8207 0fbd af80 ec3c 5fe5 b7bc
00000320: fb1f 083d a977 e1bc efb3 fcba d4f2 57bd
00000330: 388d f63a aad4 20bd c6a4 543a 21f4 b03d
00000340: 27d5 ddbc eac6 a5bc 34e0 243d b3a9 ab3c
00000350: c17b 613c b6cc 9f3c ece1 1bbd 4748 923c
00000360: 71c9 063c 225d ed3b d725 e43c ff93 88bc
00000370: 9e0e 8b3c 2cbb e13c 37ae 223d dcb4 553d
00000380: 9ceb b8bc 4267 aebb 76a5 f03b 60d3 dabc
00000390: 6c60 5bbc 3747 293d 9469 313c efc1 b53b
000003a0: 3825 2ebd d783 b9bc fcd0 c23c f7ee d63c
000003b0: e60f ae3b e77e 6aba 1378 6ebd 9c53 89bb
000003c0: 8681 e1bc a3f5 ad3c 8165 98bb 48ad 4fbd
000003d0: 01d2 bebb da7a 423d 93d1 8abc 28d5 36bd
000003e0: 2fe0 2c3d 03c4 b9bc f96d 52bd 9621 763d
000003f0: 57b3 d1bc 5b8b 653d fb5d f3bc 578f 4f3d

layers.0.weight f4 [100, 47]
-0.13665476 -0.06278954 -0.041044477 0.003688315 0.07498278 0.055520922 0.118877515 0.08271404
-0.07864398 0.039902132 0.020768737 0.12717386 -0.12840022 0.14768797 -0.033603597 0.1056882
-0.11134971 -0.056570936 -0.019772932 -6.209615e-05 -0.02398991 0.044987902 -0.12466824 -0.035276573
0.0768213 -0.057955716 0.07428747 -0.058388602 -0.11559836 -0.030583482 0.03385033 -0.09130546
-0.052121285 -0.03796633 0.07727034 -0.0898904 -0.011363398 0.007935844 -0.04741261 -0.015805444
-0.12462852 0.11932983 -0.000441407 0.1088208 -0.035364754 0.109904 -0.11617685 0.07345275
0.0821664 -0.12638529 -0.111377 0.15052387 -0.017273782 0.020776497 0.033947837 -0.115365446
-0.049852557 0.13180457 -0.016999703 0.0069188518 0.02564648 -0.093307294 0.10292396 0.13366841
0.059565783 0.0092567485 0.036591068 -0.0689341 0.09249556 0.036889836 -0.061870284 -0.12342787
-0.07365984 0.017889384 -0.10969683 0.028869597 0.106124856 -0.05810642 -0.03412993 0.041516047
0.15002625 0.09851341 -0.13881151 -0.13809164 -0.108381666 -0.043971807 0.06753315 0.020502483
-0.007123555 -0.03084838 0.07376575 0.033879627 -0.0506062 0.10449595 0.0010073844 0.002690235
-0.050480608 -0.065439135 -0.022541774 0.105520695 0.014955938 0.0146005 -0.09655216 -0.09450312
0.032676253 -0.13535717 0.0024962986 -0.11414534 0.11833403 0.066357456 -0.03978368 -0.00498627
-0.04004885 0.11018937 0.004865381 -0.020223051 0.0031296436 0.15471525 -0.009533537 -0.099828854
0.00052462204 -0.055683427 -0.13537039 0.013217415 -0.08132541 -0.02572171 -0.0005046895 -0.06259408
0.065676734 -0.038696036 0.14176333 -0.11718245 0.03360927 -0.010061712 -0.07419135 -0.082724966
0.092068754 -0.07665786 0.01747109 0.011935945 -0.031592626 -0.09178066 -0.08300792 -0.07081561
0.12096906 -0.08270459 0.08812536 -0.087463036 0.120003514 -0.041409668 -0.038088433 -0.13949168
-0.025312236 0.10662834 0.13715304 -0.08021671 0.13838951 0.119756065 -0.040880002 -0.11876948
0.063296944 -0.0718437 0.11968824 -0.08286231 0.07422654 -0.00867777 0.11719456 -0.021380773
-0.0109313475 -0.08430955 -0.051435463 -0.011872603 0.05261932 0.035612408 -0.061878115 -0.104082614
-0.09966525 -0.048180234 -0.08623521 0.107490495 -0.1191408 0.048904385 0.07238179 0.02703768
-0.04359519 -0.03306074 -0.05748074 -0.0001406488 0.05099519 0.057532452 0.017640028 0.0024256408
0.07332797 -0.03851494 0.018559976 0.009170548 0.12014376 -0.07558523 -0.13657421 -0.028533565
-0.16814293 0.035840426 -0.16077073 0.025211003 -0.09696289 -0.06782046 0.1091677 0.050233353
0.1157292 0.13675518 0.02919247 -0.10695705 -0.122855015 0.022640897 -0.1353905 0.12100701
-0.11765486 -0.07568737 -0.100752875 0.08817262 -0.018110307 0.007849321 -0.106095135 -0.13960654
0.085354514 -0.13149758 -0.0055486965 0.12631151 -0.029956194 -0.085584015 -0.09719472 0.034140963
-0.01623383 0.14026508 0.021078167 -0.009579285 0.12910609 0.01716878 0.04780621 0.019835342
0.11978036 0.06631712 0.0287555 -0.08729944 -0.081207104 0.02799737 -0.030805951 0.01103062
-0.14340992 0.070246205 0.050693512 -0.00978375 -0.007835571 0.05816181 0.06761471 -0.088418856
00000000: 3aef 0bbe cd97 80bd 411e 28bd a8b7 713b
00000010: 9290 993d e869 633d 0e76 f33d fb65 a93d
00000020: 1810 a1bd 6b70 233d 3323 aa3c dd39 023e
00000030: 597b 03be 843b 173e eda3 09bd 0e73 d83d
00000040: 510b e4bd edb6 67bd d8fa a1bc 9e39 82b8
00000050: 7d86 c4bc 3c45 383d 1052 ffbd 2b7e 10bd
00000060: 7c54 9d3d f962 6dbd 0724 983d e328 6fbd
00000070: d5be ecbd 368a fabc a5a6 0a3d 5bfe babd
00000080: 217d 55bd 9582 1bbd e93f 9e3d 7518 b8bd
00000090: 8c2d 3abc 5805 023c ba33 42bd 6b7a 81bc
000000a0: 3d3d ffbd 3363 f43d a56c e7b9 71dd de3d
000000b0: a2da 10bd 5915 e13d 21ee edbd 656e 963d
000000c0: dc46 a83d 256b 01be a019 e4bd ee22 1a3e
000000d0: bf81 8dbc 7933 aa3c e30c 0b3d b844 ecbd
000000e0: 3232 4cbd c7f7 063e f642 8bbc 89b7 e23b
000000f0: 9118 d23c e517 bfbd ccc9 d23d 5fe0 083e
00000100: 40fb 733d 9ea9 173c 84e0 153d 522d 8dbd
00000110: 506e bd3d cc19 173d b26b 7dbd c0c7 fcbd
00000120: f8da 96bd c28c 923c bba8 e0bd ef7f ec3c
00000130: fd57 d93d ff00 6ebd d3cb 0bbd bb0c 2a3d
00000140: 7ba0 193e 66c1 c93d 9b24 0ebe e567 0dbe
00000150: 35f7 ddbd c81b 34bd d24e 8a3d d3f4 a73c
00000160: b66c e9bb beb5 fcbc 7f12 973d 5dc5 0a3d
00000170: 7248 4fbd f901 d63d 360a 843a a74e 303b
00000180: c1c4 4ebd f404 86bd 87a9 b8bc 3c1b d83d
00000190: c009 753c f036 6f3c 24bd c5bd da8a c1bd
000001a0: 89d7 053d 129b 0abe f198 233b 08c5 e9bd
000001b0: 1d59 f23d 6be6 873d 36f4 22bd dd63 a3bb
000001c0: 430a 24bd f7aa e13d c66d 9f3b d0aa a5bc
000001d0: b51a 4d3b ad6d 1e3e 8d32 1cbc 1273 ccbd
000001e0: ca86 093a 4e14 64bd 899e 0abe db8d 583c
000001f0: f08d a6bd 56b6 d2bc 244d 04ba 5331 80bd
00000200: 8681 863d bc7f 1ebd 682a 113e 5afd efbd
00000210: e0a9 093d e1d9 24bc a2f1 97bd b56b a9bd
00000220: 8b8e bc3d ccfe 9cbd 881f 8f3c fb8e 433c
00000230: 4567 01bd 80f7 bbbd 0e00 aabd c607 91bd
00000240: a0be f73d 0661 a9bd 127b b43d d21f b3bd
00000250: 67c4 f53d 2f9d 29bd 9e02 1cbd e8d6 0ebe
00000260: 9b5b cfbc f65f da3d d971 0c3e a948 a4bd
00000270: fbb5 0d3e ab42 f53d ca71 27bd 6a3d f3bd
00000280: d4a1 813d ca22 93bd 1c1f f53d b7b3 a9bd
00000290: 1604 983d 352d 0ebc b403 f03d bb26 afbc
000002a0: 6519 33bc 7caa acbd fead 52bd 4e85 42bc
000002b0: 5b87 573d 51de 113d e873 7dbd 4429 d5bd
000002c0: 4b1d ccbd a358 45bd 169c b0bd fa23 dc3d
000002d0: 1700 f4bd f74f 483d e73c 943d 207e dd3c
000002e0: df90 32bd b36a 07bd ed70 6bbd 207b 13b9
000002f0: 55e0 503d 26a7 6b3d d281 903c 80f7 1e3b
00000300: fa2c 963d d7c1 1dbd 170b 983c 1140 163c
00000310: ef0d f63d 6ecc 9abd 1cda 0bbe 39bf e9bc
00000320: a92d 2cbe 69cd 123d 15a1 24be 4e87 ce3c
00000330: 7b94 c6bd 74e5 8abd 5193 df3d 7dc1 4d3d
00000340: 6e03 ed3d 8d09 0c3e 0c25 ef3c 4c0c dbbd
00000350: 699b fbbd 6779 b93c cfa3 0abe 86d2 f73d
00000360: 08f5 f0bd fb01 9bbd 8657 cebd d993 b43d
00000370: 115c 94bc 709a 003c 6848 d9bd 04f5 0ebe
00000380: 59ce ae3d 4da7 06be d7d1 b5bb ce57 013e
00000390: b166 f5bc ac46 afbd 060e c7bd 65d7 0b3d
000003a0: cffc 84bc a6a1 0f3e 1fac ac3c 6ff2 1cbc
000003b0: 6334 043e 8ba5 8c3c 72d0 433d ba7d a23c
000003c0: 684f f53d 45d1 873d a890 eb3c 0cca b2bd
000003d0: e94f a6bd be5a e53c c35c fcbc c6b9 343c
000003e0: 0dda 12be 3edd 8f3d 00a4 4f3d 064c 20bc
000003f0: c460 00bc 143b 6e3d 9579 8a3d f214 b5bd

layers.0.bias f4 [100]
-0.07633538 -0.06693322 -0.161286 -0.061262976 -0.07900229 0.06905425 0.12777072 0.042529453
-0.10774072 -0.054000065 -0.026616143 -0.10818184 -0.0220823 0.11839911 0.09005142 -0.119760945
-0.08183843 0.010058786 -0.0759483 -0.09675963 -0.023117647 0.12125699 0.102392934 0.029686086
0.16947964 0.04133363 0.14511013 -0.074503675 -0.07567331 -0.04192752 -0.13228843 0.12349155
-0.017859323 0.024045594 -0.008679217 0.15868951 -0.13709965 -0.15309246 0.09549577 0.093792625
-0.12927125 0.0073880395 -0.14791799 0.15281726 -0.08456478 -0.12439617 0.13942084 0.0029556458
0.14414501 -0.12719198 0.03759708 0.047984555 -0.123382345 -0.08950789 0.11261103 -0.0020433776
-0.08361895 -0.1267082 0.13691168 -0.04395473 0.0031261533 -0.1196957 -0.013012923 -0.14695132
-0.021994364 0.053974207 0.041664004 -0.122424975 -0.01971735 -0.10530781 -0.035512973 -0.020868387
0.13407582 0.006849937 -0.13926011 -0.013814307 -0.011681049 0.13032264 0.05203442 -0.00019326864
-0.081718646 0.00277071 -0.035359517 0.026659869 -0.03899923 0.04417805 0.14626537 0.018822592
-0.12421966 -0.115923144 -0.02211606 0.05209923 0.08065798 0.07022208 -0.049965326 0.06694064
0.0901669 -0.09703876 0.074633084 -0.038507227
00000000: b955 9cbd 4914 89bd 2828 25be e3ee 7abd
00000010: f4cb a1bd 516c 8d3d 54d6 023e 5d33 2e3d
00000020: 2ba7 dcbd 2c2f 5dbd 190a dabc 718e ddbd
00000030: f1e5 b4bc 3c7b f23d e16c b83d 3a45 f5bd
00000040: e89a a7bd 9bcd 243c c88a 9bbd ea29 c6bd
00000050: 3861 bdbc 9655 f83d 63b3 d13d 3c30 f33c
00000060: 128c 2d3e 744d 293d c097 143e 6295 98bd
00000070: 9cfa 9abd 31bc 2bbd 9e76 07be 23e9 fc3d
00000080: b74d 92bc 44fb c43c 4633 0ebc 817f 223e
00000090: da63 0cbe 45c4 1cbe 4993 c33d 5916 c03d
000000a0: af5f 04be 5e17 f23b d077 17be 217c 1c3e
000000b0: 4d30 adbd 6bc3 febd 56c4 0e3e 82b3 413b
000000c0: c09a 133e 9d3e 02be 65ff 193d 748b 443d
000000d0: e2af fcbd ea4f b7bd 9da0 e63d 30ea 05bb
000000e0: 6940 abbd cbbf 01be 9332 0c3e e009 34bd
000000f0: 26e0 4c3b 0523 f5bd 2834 55bc 687a 16be
00000100: 862d b4bc 0f14 5d3d e0a7 2a3d f2b9 fabd
00000110: 4886 a1bc 9fab d7bd 0d76 11bd 2ef4 aabc
00000120: 2c4b 093e 7075 e03b 349a 0ebe 6755 62bc
00000130: df61 3fbc 4c73 053e 0b22 553d 28a8 4ab9
00000140: 1b5c a7bd cd94 353b 24d5 10bd cc65 da3c
00000150: a8bd 1fbd 0bf4 343d 97c6 153e d631 9a3c
00000160: e166 febd 1d69 edbd bd2c b5bc 0166 553d
00000170: 0330 a53d 98d0 8f3d 71a8 4cbd 2d18 893d
00000180: 6ca9 b83d 42bc c6bd 3bd9 983d c1b9 1dbd

layers.1.weight f4 [400, 100]
0.09628876 0.0356647 -0.08780529 0.08636362 -0.1036892 -0.038637895 0.05875348 0.0633503
-0.11802447 0.12591094 0.06527098 0.017563548 -0.08829125 -0.08187247 -0.008353526 -0.05075891
0.09754856 0.056359153 0.07291949 0.10251959 -0.087286815 -0.062514335 0.065495595 0.010404248
-0.051487207 0.041756168 -0.10693391 -0.076396994 0.023510978 0.06478787 0.051753864 0.0032890667
-0.037917856 0.006073671 -0.06307141 0.016546018 0.061215177 -0.027933108 0.073025115 0.03527145
-0.0215413 0.074541345 0.035482105 -0.009071651 0.03212861 -0.06690594 -0.035190538 0.098736666
0.06070058 -0.10749457 -0.037741482 -0.06763408 0.049090832 -0.022633031 -0.08401682 0.05466458
0.043346293 0.07924721 0.05921002 0.085274525 -0.06310959 0.025512258 0.09323494 0.050753385
-0.021004654 0.048247665 0.105711564 -0.068092756 -0.06323989 0.067323126 -0.037595496 0.023589175
0.062404677 -0.010119039 0.05159877 -0.09047889 -0.06776404 -0.09240425 -0.11016654 -0.010129017
-0.012600283 0.00087172294 0.032886576 0.041212063 0.06280484 0.052741744 -0.10153922 0.05117378
0.067458116 0.06341103 0.042454176 0.065322004 0.08761557 -0.0036351262 -0.054690156 0.058398183
-0.051094156 -0.004465982 -0.021247627 0.04582825 0.0882457 -0.07687779 -0.06260777 0.04070813
0.09806196 0.02550635 0.105354585 -0.022389831 0.07587132 0.08104923 0.08151557 0.03645506
0.09896278 -0.10480455 -0.093300045 -0.06714862 0.033843435 0.091476716 -0.08703397 -0.024334947
0.011669542 -0.07700676 -0.08390506 0.10002757 0.060640395 -0.08403642 0.05620412 -0.013362435
-0.04176469 -0.023535483 -0.019063689 -0.022796256 0.054890905 -0.11505552 -0.054416683 -0.062417336
-0.017837295 0.10805949 0.024379827 0.06334711 0.03594456 -0.0050157397 -0.0124184685 0.07295848
-0.06311503 0.026100287 -0.026904222 -0.049818046 0.08065855 0.075578414 0.04852283 -0.056711562
-0.074855395 -0.031781316 0.037525326 -0.04103322 -0.003881841 0.020607306 0.02072391 0.07035773
0.017869707 -0.038073767 0.0074035577 0.049477663 -0.022888917 0.004034989 -0.021495208 0.114653334
-0.08096313 0.0860825 0.051902827 0.08104543 -0.08279806 0.038427558 0.03660332 -0.074667804
-0.105106175 -0.054862432 0.02266327 -0.016624004 -0.06557971 0.09525901 -0.10038533 -0.072056
-0.021227539 -0.0046491716 0.070278436 -0.035535906 0.019345956 0.019926248 -0.102304146 0.068526216
0.07336646 -0.09915686 0.0926168 -0.09483995 -0.08351616 -0.02045426 -0.008950416 -0.080325365
0.061311293 0.050086904 -0.11378826 0.0059332848 0.015532849 -7.551638e-05 0.017155109 -0.023936292
-0.027953327 0.050816406 0.07625031 0.083926275 -0.09249169 -0.05652727 0.040388882 0.05210181
0.08750581 0.0037038776 0.029618798 0.042969897 0.00020533706 -0.070539914 0.048374 -0.030497896
0.07164747 -0.059251774 -0.004426604 0.019498233 0.07322811 0.017766811 0.058572646 -0.071535744
-0.06691797 -0.012243542 -0.07437764 -0.043727335 -0.0036845263 -0.006487964 -0.024119917 0.0016796871
0.08434401 0.010307006 -0.071026154 -0.031581465 -0.0899835 -0.089696504 -0.06846913 -0.05383049
0.022711245 0.07431084 -0.053988606 -0.072853796 0.006960235 0.047621004 0.024158664 -0.06954852
00000000: 0b33 c53d 2615 123d 43d3 b3bd 69df b03d
00000010: 015b d4bd c542 1ebd 7da7 703d cdbd 813d
00000020: d0b6 f1bd ccee 003e cbac 853d 6ee1 8f3c
00000030: 0bd2 b4bd c1ac a7bd 3add 08bc 93e8 4fbd
00000040: 8ac7 c73d dbd8 663d d056 953d caf5 d13d
00000050: 6ec3 b2bd 8407 80bd 8e22 863d 9476 2a3c
00000060: 40e4 52bd 8408 2b3d 2a00 dbbd 0776 9cbd
00000070: 189a c03c 81af 843d dcfb 533d 628d 573b
00000080: c14f 1bbd a505 c73b 952b 81bd 848b 873c
00000090: c4bc 7a3d f9d3 e4bc 318e 953d cc78 103d
000000a0: 6177 b0bc 22a9 983d af55 113d 43a1 14bc
000000b0: 4a99 033d fb05 89bd f423 10bd 7336 ca3d
000000c0: 2ca1 783d 1d26 dcbd d096 1abd bd83 8abd
000000d0: 7813 493d e868 b9bc 0311 acbd f7e7 5f3d
000000e0: e28b 313d 5c4c a23d 3586 723d 69a4 ae3d
000000f0: 9a3f 81bd 15ff d03c f6f1 be3d c8e2 4f3d
00000100: f411 acbc 589f 453d 4e7f d83d 3774 8bbd
00000110: ea83 81bd b5e0 893d bcfd 19bd 163e c13c
00000120: 0c9c 7f3d 53ca 25bc 3b59 533d ff4c b9bd
00000130: dfc7 8abd 703e bdbd ff9e e1bd 2df4 25bc
00000140: 6b71 4ebc 5684 643a 13b4 063d fbcd 283d
00000150: d39f 803d ba07 583d cbf3 cfbd 999b 513d
00000160: 7b27 8a3d a4dd 813d 6ee4 2d3d 8bc7 853d
00000170: cb6f b33d 4c3b 6ebb c902 60bd ef32 6f3d
00000180: 1b48 51bd 5f57 92bb 810f aebc 67b6 3b3d
00000190: 29ba b43d 1a72 9dbd 8138 80bd 91bd 263d
000001a0: b5d4 c83d b1f2 d03c 25c4 d73d e16a b7bc
000001b0: 6c62 9b3d 24fd a53d a3f1 a63d e751 153d
000001c0: ffac ca3d c5a3 d6bd 1814 bfbd 3785 89bd
000001d0: 6a9f 0a3d 2558 bb3d de3e b2bd 155a c7bc
000001e0: 9b31 3f3c b8b5 9dbd 6bd6 abbd 41db cc3d
000001f0: 1062 783d 491b acbd 4b36 663d 1dee 5abc
00000200: 7411 2bbd 7ccd c0bc 742b 9cbc 37bf babc
00000210: 49d5 603d 3aa2 ebbd 07e4 5ebd 52a9 7fbd
00000220: 851f 92bc 4b4e dd3d 34b8 c73c 21bc 813d
00000230: 9a3a 133d 135b a4bb d576 4bbc 416b 953d
00000240: 7442 81bd 45d0 d53c 3e66 dcbc 020e 4cbd
00000250: 4f30 a53d dbc8 9a3d e0bf 463d 624a 68bd
00000260: c94d 99bd 202d 02bd 28b4 193d 7312 28bd
00000270: 7c66 7ebb a7d0 a83c 30c5 a93c b717 903d
00000280: 7e63 923c 3df3 1bbd 8b99 f23b 17a9 4a3d
00000290: 8a81 bbbc f137 843b b816 b0bc 5ecf ea3d
000002a0: ffcf a5bd 064c b03d 0f98 543d 25fb a53d
000002b0: 0792 a9bd 3766 1d3d 5ded 153d 6feb 98bd
000002c0: e841 d7bd 6eb7 60bd 52a8 b93c 102f 88bc
000002d0: a84e 86bd 2817 c33d d396 cdbd 1992 93bd
000002e0: 60e5 adbc 1458 98bb 24ee 8f3d 198e 11bd
000002f0: 697b 9e3c 5f3c a33c d684 d1bd 7957 8c3d
00000300: 2841 963d c012 cbbd e0ad bd3d 733b c2bd
00000310: 850a abbd b18f a7bc c4a4 12bc a081 a4bd
00000320: 8d21 7b3d ed27 4d3d d209 e9bd 006c c23b
00000330: 7e7d 7e3c 8c5e 9eb8 df88 8c3c 0b16 c4bc
00000340: 60fe e4bc dd24 503d 1f29 9c3d 8ae1 ab3d
00000350: 486c bdbd 2389 67bd d06e 253d b568 553d
00000360: 3f36 b33d c1bc 723b 1fa3 f23c 3401 303d
00000370: bf4f 5739 3b77 90bd d123 463d b9d6 f9bc
00000380: e9bb 923d fdb1 72bd 0c0d 91bb c2ba 9f3c
00000390: 9ff8 953d b48b 913c dfe9 6f3d 5581 92bd
000003a0: 4a0c 89bd 2399 48bc 4e53 98bd 6f1b 33bd
000003b0: 1878 71bb fd98 d4bb 2297 c5bc f228 dc3a
000003c0: 8dbc ac3d b7de 283c 2976 91bd 915b 01bd
000003d0: 4549 b8bd cdb2 b7bd 8b39 8cbd 5c7d 5cbd
000003e0: ef0c ba3c 4830 983d 2823 5dbd 5f34 95bd
000003f0: af12 e43b 3e0e 433d 64e8 c53c 746f 8ebd

layers.1.bias f4 [400]
0.086875446 0.031040221 -0.05810147 -0.11090381 0.053669658 -0.094674714 0.08339508 -0.07412591
-0.044205792 -0.009525316 -0.044268347 -0.10301139 0.07010938 -0.010391479 0.008522913 0.030487236
0.023432517 -0.013517442 -0.0011252621 -0.009415747 -0.016392002 0.044900123 -0.094759315 0.051330145
0.09365898 0.04042564 0.03522573 0.04884652 -0.08493906 -0.048891902 0.027615296 0.06501614
-0.09592204 -0.015057138 0.011768546 0.008351311 0.031698696 0.04221149 0.036408454 -0.04098482
-0.014093366 0.027032515 -0.045173757 0.017801281 -0.046978425 0.058325484 0.073632136 -0.045272425
0.03303068 0.049777254 -0.027699726 -0.085403875 0.08372152 -0.078439206 -0.092280395 0.0050894534
-0.10124996 0.06441794 0.03585829 0.11961894 -0.055799916 0.026634192 -0.025530003 -0.00097337965
-0.09651232 0.022578306 -0.052617177 -0.074162416 0.080998726 -0.06749663 -0.07215896 -0.09318128
-0.0066134175 -0.06926188 0.02612548 -0.05348069 0.04163912 0.06053532 0.050277855 0.0079411715
-0.023517663 -0.086618915 -0.00042021758 -0.0029476434 -0.09787834 -0.11382952 0.014896993 -0.01718569
-0.06773111 -0.0037618906 0.07946492 0.02523276 7.846467e-05 -0.06423789 0.0579495 0.03930773
-0.058558017 0.02111432 0.032224964 0.049218144 -0.05853453 0.023886845 0.08428231 0.04732131
0.074551225 0.025605537 -0.007880152 -0.07222508 -0.10326919 -0.09561851 0.11082935 0.087666325
-0.07728333 0.0325169 0.08438422 -0.08475874 -0.10710869 0.034818873 0.066020034 -0.04596692
-0.100434154 0.053647373 -0.008476829 -0.02768538 -0.0009741327 -0.017875327 0.0062378244 -0.057243973
-0.08564128 -0.11322927 0.08140171 -0.059611846 0.07627327 -0.112468444 -0.09520487 -0.048243016
0.056916036 -0.0028912504 0.07361662 -0.031320237 0.09005074 0.060578752 0.054829907 0.02367893
-0.016211435 -0.036222998 0.049757842 -0.0537878 -0.08881749 -0.0047726217 0.097072884 0.0013758547
-0.06311062 -0.08334773 -0.03411486 -0.102658845 0.009825408 0.00816803 0.08228162 -0.011315172
0.05221568 -0.04214484 0.0076423865 -0.031304758 -0.013333863 0.060776886 -0.049275465 0.012871852
0.07515375 -0.103453495 0.029461112 -0.052921288 -0.0847729 -0.009326371 -0.015167231 0.010726998
0.089756995 -0.009122797 -0.07211784 -0.0647357 -0.058483277 0.081996046 0.042853605 -0.078417964
-0.032460973 0.04239287 -0.0014392089 0.09996094 -0.071673654 0.07082353 0.05801352 0.043642815
-0.05950937 -0.08351623 -0.11671936 -0.09183665 0.08435547 0.020733213 0.06977801 0.048356354
-0.016208097 -0.05522943 -0.081437334 -0.04675721 0.036132444 0.017494239 0.016445935 -0.04104092
-0.12746996 0.054443106 0.06814562 0.07205013 0.040371913 -0.08348744 0.0831739 -0.040918697
-0.082540534 -0.0038651857 0.07466893 0.012825644 -0.07603604 0.0112322075 0.074725814 0.06311643
0.07964453 0.018382953 0.103314735 -0.0546851 0.078296736 -0.01811125 0.04744205 0.05796799
-0.042399567 0.081822656 0.093415044 0.09968218 -0.06338321 0.122070186 -0.033814028 -0.011023843
0.073062785 -0.00031086098 -0.09361443 0.04001442 0.009285265 -0.093083054 0.10320455 0.04083941
0.010486597 0.065198466 -0.06386661 -0.027112195 -0.078062 0.044819 0.0077962 -0.09836347
00000000: c1eb b13d 1048 fe3c cffb 6dbd 8921 e3bd
00000010: b7d4 5b3d d1e4 c1bd 0acb aa3d 53cf 97bd
00000020: 2211 35bd 1210 1cbc ba52 35bd a3f7 d2bd
00000030: 8295 8f3d 0641 2abc b0a3 0b3c 5ec0 f93c
00000040: 8df5 bf3c 4378 5dbc 887d 93ba 8144 1abc
00000050: 8548 86bc 31e9 373d 2c11 c2bd 8f3f 523d
00000060: 48d0 bf3d 5b95 253d db48 103d 4a13 483d
00000070: 88f4 adbd e042 48bd 7939 e23c 2f27 853d
00000080: c672 c4bd 37b2 76bc dcd0 403c f0d3 083c
00000090: 7ed6 013d f5e5 2c3d 0821 153d b3df 27bd
000000a0: dde7 66bc 4b73 dd3c 1e08 39bd fed3 913c
000000b0: 736c 40bd b4e6 6e3d 72cc 963d 946f 39bd
000000c0: 2e4b 073d 3ce3 4b3d 89ea e2bc 3ae8 aebd
000000d0: 3076 ab3d bca4 a0bd 81fd bcbd 6ec5 a63b
000000e0: 245c cfbd 8eed 833d 24e0 123d c6fa f43d
000000f0: 748e 64bd f32f da3c 4c24 d1bc 672a 7fba
00000100: 40a8 c5bd 24f6 b83c 1c85 57bd 77e2 97bd
00000110: a9e2 a53d ac3b 8abd 14c8 93bd d4d5 bebd
00000120: 5eb5 d8bb 2cd9 8dbd 1a05 d63c 910e 5bbd
00000130: c88d 2a3d e2f3 773d 27f0 4d3d b01b 023c
00000140: 1da8 c0bc 4265 b1bd a650 dcb9 402d 41bb
00000150: 7074 c8bd 741f e9bd 8412 743c 01c9 8cbc
00000160: 9cb6 8abd 0d8a 76bb 81be a23d efb4 ce3c
00000170: 668d a438 288f 83bd 745c 6d3d 2401 213d
00000180: 88da 6fbd f0f7 ac3c 53fe 033d f798 493d
00000190: e7c1 6fbd 58ae c33c 349c ac3d fdd3 413d
000001a0: 50ae 983d b4c2 d13c c11b 01bc beea 93bd
000001b0: cc7e d3bd a3d3 c3bd 80fa e23d 678a b33d
000001c0: b946 9ebd 7130 053d a2d1 ac3d fe95 adbd
000001d0: cd5b dbbd 3c9e 0e3d 8335 873d cf47 3cbd
000001e0: 6cb0 cdbd 59bd 5b3d 66e2 0abc 73cc e2bc
000001f0: f05c 7fba 476f 92bc aa66 cc3b a878 6abd
00000200: b264 afbd bfe4 e7bd f1b5 a63d 8d2b 74bd
00000210: 2935 9c3d db55 e6bd c5fa c2bd 789a 45bd
00000220: ca20 693d 227b 3dbb 4fc4 963d a649 00bd
00000230: 866c b83d 6d21 783d 5395 603d 51fa c13c
00000240: d8cd 84bc 915e 14bd e1ce 4b3d 9950 5cbd
00000250: f2e5 b5bd a763 9cbb 26ce c63d 0656 b43a
00000260: 2440 81bd 37b2 aabd 06bc 0bbd cd3e d2bd
00000270: c0fa 203c 33d3 053c 4483 a83d 4563 39bc
00000280: 1ce0 553d 11a0 2cbd fc6c fa3b 6b39 00bd
00000290: 4676 5abc 2ff1 783d 12d5 49bd 76e4 523c
000002a0: 36ea 993d 6ddf d3bd 6e58 f13c fec3 58bd
000002b0: 6a9d adbd a3cd 18bc fa7f 78bc 4ac0 2f3c
000002c0: 84d2 b73d c977 15bc 85b2 93bd 2794 84bd
000002d0: 298c 6fbd 8bed a73d 4387 2f3d 9999 a0bd
000002e0: ccf5 04bd 25a4 2d3d d6a3 bcba 52b8 cc3d
000002f0: a3c9 92bd ed0b 913d 969f 6d3d cfc2 323d
00000300: 19c0 73bd 8f0a abbd 8f0a efbd db14 bcbd
00000310: 90c2 ac3d b3d8 a93c c6e7 8e3d 5011 463d
00000320: d8c6 84bc 4138 62bd 9ec8 a6bd 7d84 3fbd
00000330: 9dff 133d 1450 8f3c a0b9 863c 861a 28bd
00000340: 7c87 02be bcff 5e3d ee8f 8b3d 058f 933d
00000350: 055d 253d 77fb aabd 1457 aa3d 5d9a 27bd
00000360: 030b a9bd 0e4f 7dbb 06ec 983d a622 523c
00000370: c9b8 9bbd 4b07 383c d909 993d 3043 813d
00000380: ac1c a33d d997 963c ad96 d33d 7cfd 5fbd
00000390: 0a5a a03d 0b5e 94bc 9852 423d d86f 6d3d
000003a0: 2bab 2dbd a392 a73d 6350 bf3d 2c26 cc3d
000003b0: 0ecf 81bd efff f93d 9480 0abd 599d 34bc
000003c0: f1a1 953d 0efb a2b9 ecb8 bfbd 29e6 233d
000003d0: 3921 183c 54a2 bebd e85c d33d 3a47 273d
000003e0: facf 2b3c c686 853d 7fcc 82bd 651a debc
000003f0: f8de 9fbd 2194 373d 4477 ff3b c972 c9bd

layers.3.weight f4 [400, 400]
-0.03447457 0.056694478 -0.034265842 -0.023784954 0.018027756 -0.038161043 -0.020287627 0.021894304
-0.006622159 -0.03614204 -0.003274147 0.057142075 0.036956605 0.043880846 -0.028530516 -0.022119038
-0.020083275 0.03596089 0.008811573 0.01810722 0.031422935 -0.005728683 -0.067828804 -0.018606415
0.015130571 -0.04790223 0.055363417 0.01259714 -0.022139214 0.014834347 -0.015078684 -0.045708958
-0.057417728 0.0033810462 0.00844672 -0.022605047 0.023597378 0.00032831792 0.019519443 -0.02964376
0.046800323 -0.06760442 -0.00019281657 -0.04095046 0.021802505 -0.008870396 0.032076575 -0.0059201675
-0.0069055753 -0.012510075 0.017783167 -0.0055446895 -0.034111217 -0.03297456 -0.010205845 -0.011112663
-0.019738464 0.038139664 -0.03630789 -0.023123663 -0.0522031 0.040015783 -0.014209966 0.009368177
-0.018473243 -0.02184959 -0.0489705 -0.028653016 0.042640053 0.024286622 -0.029249784 -0.03113243
0.037394732 0.019084636 0.0007338294 0.005021544 0.032801963 0.047309812 -0.028575907 0.00067854667
-0.0132819535 -0.020376472 -0.047360513 -0.021405444 -0.009457079 -0.050445553 -0.020622453 0.0091218185
0.032659348 0.036022976 -0.026771475 -0.032122035 0.036973797 0.05340906 -0.027246516 0.038878705
-0.0008289712 -0.004109106 0.054070108 -0.0011346202 -0.03766845 -0.041078046 -0.02265685 0.008049233
0.0072923815 -0.0420896 0.023798488 -0.010551195 0.00022359416 -0.058937848 0.018793069 -0.04589393
-0.011830692 0.03340879 0.017217487 -0.005308404 0.008832692 0.036454458 0.0083677005 0.056190085
-0.04925532 -0.02387115 0.03911281 -0.027937297 -0.0140891615 -0.035430003 0.023127912 0.012834789
-0.039235603 -0.015762959 -0.027039308 0.05495765 0.028445393 0.020227674 -0.05533573 -0.017912349
-0.051487867 0.016536029 0.0060218554 0.017610349 -0.032469235 0.039372113 -0.0206685 -0.013518875
0.032985266 -0.0017738419 -0.019092908 0.011346473 -0.012027444 0.020910956 -0.041104313 0.015389641
-0.0007746627 -0.07945795 -0.04271501 0.039269093 -0.021025138 -0.035870593 0.033023454 -0.0078719845
-0.017309275 0.0077858754 -0.032662183 0.01881653 -0.056016106 0.03684849 0.024812283 0.023736773
-0.015029777 0.034569494 -0.041216202 -0.03644816 -0.023750925 -0.01901887 -0.047509734 0.0342622
0.04610784 -0.041393932 -0.033459827 0.04263176 0.011151977 0.029233059 0.034615893 0.005873176
-0.019530846 -0.013739607 0.026321571 0.020616619 0.049803153 0.0063874978 0.045950495 0.01055228
0.034650683 -0.0398624 0.02874154 0.014825453 -0.045745384 0.044298638 -0.03495928 0.04245892
-0.0110262465 0.024681278 0.0127978595 -0.017079487 0.00575492 -0.0231928 0.026561936 -0.014267097
0.0086872205 -0.01964703 0.0057873707 0.0029570414 0.023089826 0.029156044 0.030533528 -0.03998722
0.0063569997 0.014052215 0.0022944282 0.0132742 0.018366855 -0.06037684 0.0019918096 0.011082898
0.029929345 -0.027215598 -0.042200744 0.0024916143 0.038522314 -0.02112272 0.06331947 -0.04764558
-0.0077080014 0.010936102 0.042139236 -0.047067914 -0.024889175 -0.056110945 0.015170828 -0.004135588
-0.04874515 0.016835015 0.011317038 0.0075305444 0.0015520258 0.04544579 0.031431384 -0.011503131
0.037769616 -0.043177024 0.007220727 -0.0039816224 -0.04911335 0.01987694 -0.0102145085 -0.03229387
00000000: 3535 0dbd 7838 683d 575a 0cbd aad8 c2bc
00000010: f2ae 933c c14e 1cbd 3d32 a6bc af5b b33c
00000020: b2fe d8bb ad09 14bd 1293 56bb cf0d 6a3d
00000030: cf5f 173d 67bc 333d d4b8 e9bc fc32 b5bc
00000040: ae85 a4bc ba4b 133d 6a5e 103c 9855 943c
00000050: 56b5 003d adb7 bbbb d4e9 8abd 7b6c 98bc
00000060: 37e6 773c 2135 44bd c0c4 623d 3c64 4e3c
00000070: 4c5d b5bc c30b 733c 960c 77bc 5139 3bbd
00000080: da2e 6bbd 8b94 5d3b 1d64 0a3c 382e b9bc
00000090: 4a4f c13c 1622 ac39 3de7 9f3c 78d7 f2bc
000000a0: b2b1 3f3d 3074 8abd ce2e 4ab9 abbb 27bd
000000b0: 2b9b b23c 2355 11bc ba62 033d f7fd c1bb
000000c0: 2a48 e2bb 0ff7 4cbc 01ae 913c 3ab0 b5bb
000000d0: 34b8 0bbd 5510 07bd 6b36 27bc e311 36bc
000000e0: 8fb2 a1bc 5638 1c3d 95b7 14bd d66d bdbc
000000f0: ebd2 55bd 97e7 233d ebd0 68bc fb7c 193c
00000100: 3355 97bc e9fd b2bc 4a95 48bd bbb9 eabc
00000110: 56a7 2e3d bdf4 c63c 3e9d efbc 7009 ffbc
00000120: 382b 193d 6257 9c3c 755e 403a c48b a43b
00000130: 5a5b 063d efc7 413d 0518 eabc 7fe0 313a
00000140: 8d9c 59bc 8fec a6bc 19fd 41bd 785a afbc
00000150: ddf1 1abc ff9f 4ebd 6bf0 a8bc ae73 153c
00000160: cfc5 053d d48c 133d da4f dbbc 6592 03bd
00000170: d671 173d 75c3 5a3d 1634 dfbc 473f 1f3d
00000180: 514f 59ba aea5 86bb 9e78 5d3d 89b7 94ba
00000190: 3c4a 1abd 7441 28bd dc9a b9bc eee0 033c
000001a0: eef4 ee3b 2566 2cbd 0cf5 c23c ebde 2cbc
000001b0: 9a74 6a39 d068 71bd ecf3 993c 46fb 3bbd
000001c0: 85d5 41bc a8d7 083d b00b 8d3c 1ff2 adbb
000001d0: ffb6 103c 4551 153d ae18 093c 9327 663d
000001e0: f2bf 49bd 6e8d c3bc c134 203d c2dc e4bc
000001f0: 3ad6 66bc 0d1f 11bd bf76 bd3c 0249 523c
00000200: 83b5 20bd 5221 81bc 8a81 ddbc 461b 613d
00000210: 5006 e93c 82b4 a53c b8a7 62bd ebbc 92bc
00000220: f1e4 52bd 9176 873c fc52 c53b 9443 903c
00000230: 76fe 04bd a744 213d fc50 a9bc 467e 5dbc
00000240: 8f1b 073d 4280 e8ba bb68 9cbc 8fe6 393c
00000250: c20e 45bc 744d ab3c ff5c 28bd d524 7c3c
00000260: bc12 4bba daba a2bd eff5 2ebd a1d8 203d
00000270: e93c acbc 0bed 12bd 9a43 073d 7ff9 00bc
00000280: 2ecc 8dbc a820 ff3b c8c8 05bd 2025 9a3c
00000290: 2571 65bd 71ee 163d 2143 cb3c 9f73 c23c
000002a0: 743f 76bc be98 0d3d 52d2 28bd aa4a 15bd
000002b0: 4d91 c2bc 76cd 9bbc 9199 42bd 8556 0c3d
000002c0: 93db 3c3d af8c 29bd 2c0d 09bd a49e 2e3d
000002d0: c8b6 363c 2b7a ef3c 65c9 0d3d c573 c03b
000002e0: 27ff 9fbc 171c 61bc 56a0 d73c 2fe4 a83c
000002f0: 64fe 4b3d 374e d13b 9636 3c3d 78e3 2c3c
00000300: e0ed 0d3d c246 23bd 6173 eb3c 75e6 723c
00000310: 835f 3bbd 7d72 353d 7631 0fbd 68e9 2d3d
00000320: 6ea7 34bc 6430 ca3c 1dae 513c 48ea 8bbc
00000330: c593 bc3b d4fe bdbc 6b98 d93c 8bc0 69bc
00000340: d854 0e3c cff2 a0bc fca3 bd3b ecca 413b
00000350: e026 bd3c a8d8 ee3c 7321 fa3c a4c9 23bd
00000360: 614e d03b 433b 663c 1e5e 163b 087c 593c
00000370: 1676 963c b54d 77bd 0589 023b 0b95 353c
00000380: 632e f53c 3ff3 debc b0da 2cbd 5a4a 233b
00000390: 93c9 1d3d 8e09 adbc a3ad 813d 0328 43bd
000003a0: 6793 fcbb 562d 333c 319a 2c3d 49ca 40bd
000003b0: 62e4 cbbc 97d4 65bd 118f 783c d483 87bb
000003c0: ffa8 47bd 96e9 893c 196b 393c c9c2 f63b
000003d0: 586d cb3a 5d25 3a3d 32be 003d a177 3cbc
000003e0: 50b4 1a3d 64da 30bd d99b ec3b 4578 82bb
000003f0: 152b 49bd f7d4 a23c c15a 27bc 9446 04bd

layers.3.bias f4 [400]
0.049269933 0.034626056 0.0025954698 -0.0006566401 0.02957807 -0.05555192 -0.036247358 0.03430517
0.032957885 -0.04797796 0.011327931 0.04105002 0.073187724 0.003257633 0.0006226138 -0.04098342
0.033824008 -0.04079127 0.011938976 0.027757177 0.046790514 -0.0042086514 -0.0169387 0.00077786646
-0.0016048097 0.0025248167 0.050265193 0.038652252 -0.019042552 0.035717197 0.01187345 0.010672135
0.056162223 0.023339419 0.04457611 0.007477165 0.04470281 0.015536567 -0.006144733 0.072609074
-0.00618434 -0.014326112 0.020794109 -0.009188412 0.0061460854 0.02624334 0.06855506 0.024975762
0.020327976 0.0053062965 0.04326221 0.007107359 -0.023884779 0.015585312 -0.013917774 -0.03764547
-0.025613314 -0.017502654 0.0122742215 0.06283964 0.043234263 -0.038499728 0.029077727 -0.056806073
0.036949232 0.059356492 -0.016356144 -0.045189086 0.027978424 0.033589326 0.06012378 0.051524557
-0.049970075 0.01584266 -0.0032521372 0.03814786 0.011985487 -0.04034237 0.020767182 -0.0095167905
0.018135438 -0.046397567 -0.0012344611 -0.0077943495 0.0047506243 -0.0521859 0.0054625715 0.041733436
0.014586685 -0.00010479358 -0.036942307 0.00046753092 0.03346537 0.03969179 -0.046239585 -0.02586281
0.010699549 0.046213128 0.006836434 0.03694875 0.03870656 0.007155 -0.008653894 0.008177225
0.011981292 -0.011878021 0.07224869 -0.03037174 -0.0063458276 0.056880165 0.02838444 0.04123728
0.0008578464 0.021681432 -0.031340674 -0.009077808 0.048392147 0.041909147 0.008786092 -0.021306569
-0.056094036 -0.037790466 0.03556778 -0.016778246 0.062536225 -0.04131328 0.025247771 0.058956195
0.05506032 0.023123836 0.028875353 0.0026111298 -0.04913556 0.023282556 0.07565044 0.08048469
0.062333167 0.06419926 0.06250032 -0.026037723 -0.046202507 0.043189995 -0.0080936495 0.04983454
0.0093728015 -0.041190106 0.05513829 0.03710291 -0.04392376 -0.052704442 -0.02821422 0.049616795
0.024510456 0.016725356 -0.033247296 0.051082063 0.007270537 -0.009308463 0.0579226 -0.025257997
0.04342177 0.05611346 -0.030800005 -0.03057317 0.04449174 0.006240523 0.059996367 0.008730063
-0.031266287 0.035921056 -0.003419249 0.037902046 -0.0029488618 -0.0028984959 0.029134724 0.046842907
0.020851621 -0.02187802 0.052216176 -0.043408047 0.05544441 -0.008129269 0.017371468 -0.05290711
0.0069769546 0.022467151 0.04240462 0.06406613 -0.025566047 0.049694177 -0.026346104 -0.053221993
0.06554284 0.02423815 -0.015683763 0.014636142 0.05646249 0.04649973 -0.013292963 -0.05106922
-0.04698116 -0.012947855 -0.01710551 -0.008572701 -0.050255902 0.028450377 0.001391993 -0.019245889
-0.005269109 0.021140585 -0.031913668 0.040684704 -0.022708379 -0.06739894 0.03219661 -0.048373546
-0.03142822 0.02435337 -0.021184323 0.03421772 0.0036560928 -0.008213399 -0.035812892 0.0011995479
0.07970526 -0.021791069 0.032807477 -0.007036456 0.0038052802 -0.04452076 0.05761644 0.01796264
0.011798075 -0.01828383 0.037749074 0.067063496 0.03252302 -0.01046308 -0.015054797 -0.03752803
0.050600108 0.03399598 0.0037895201 -0.0352047 -0.0069307345 0.00642528 -0.044488158 -0.045413367
0.024932552 0.037344217 0.04928984 -0.01192512 -0.021903405 -0.017733822 0.027754862 -0.017961847
00000000: 45cf 493d 0dd4 0d3d c218 2a3b 5f22 2cba
00000010: b54d f23c 698a 63bd 1c78 14bd 9483 0c3d
00000020: d9fe 063d 8a84 44bd c998 393c 1124 283d
00000030: 72e3 953d 037e 553b e836 233a 3bde 27bd
00000040: 0b8b 0a3d bf14 27bd b29b 433c 0563 e33c
00000050: 69a7 3f3d bae8 89bb 07c3 8abc bce9 4b3a
00000060: 7a58 d2ba 6577 253b e0e2 4d3d d351 1e3d
00000070: 20ff 9bbc 324c 123d dc88 423c 2eda 2e3c
00000080: 5c0a 663d 4f32 bf3c 7095 363d 0203 f53b
00000090: 4b1a 373d 168d 7e3c c259 c9bb 11b4 943d
000000a0: 01a6 cabb 12b8 6abc 6858 aa3c fe8a 16bc
000000b0: 1a65 c93b 46fc d63c 9866 8c3d f899 cc3c
000000c0: db86 a63c 71e0 ad3b b733 313d d9e4 e83b
000000d0: 03aa c3bc 8959 7f3c 6007 64bc 2332 1abd
000000e0: 03d3 d1bc ba61 8fbc d119 493c 12b2 803d
000000f0: 6916 313d e4b1 1dbd 6a34 ee3c 7cad 68bd
00000100: 1458 173d cb1f 733d 52fd 85bc 3118 39bd
00000110: 0233 e53c f694 093d 5a44 763d 6a0b 533d
00000120: 6cad 4cbd 77c8 813c cf21 55bb ee40 1c3d
00000130: c75e 443c 0a3e 25bd f01f aa3c 50ec 1bbc
00000140: c590 943c 600b 3ebd a4cd a1ba be67 ffbb
00000150: 20ab 9b3b e2c0 55bd 5fff b23b aef0 2a3d
00000160: fefc 6e3c a0c4 dbb8 d150 17bd f01e f539
00000170: fc12 093d dc93 223d b865 3dbd 3ede d3bc
00000180: 294d 2f3c fa49 3d3d 2a04 e03b 9357 173d
00000190: c58a 1e3d 7e74 ea3b 10c9 0dbc c4f9 053c
000001a0: 2e4d 443c 089c 42bc 1ff7 933d 28ce f8bc
000001b0: a9f0 cfbb 2dfb 683d 7c86 e83c 6ce8 283d
000001c0: 19e1 603a 429d b13c 145f 00bd 16bb 14bc
000001d0: d836 463d eda8 2b3d 8af3 0f3c 1d8b aebc
000001e0: dcc2 65bd 2dca 1abd 85af 113d 8872 89bc
000001f0: fe12 803d 1d38 29bd 6ad4 ce3c 0d7c 713d
00000200: ee86 613d 336e bd3c 018c ec3c 7d1f 2b3b
00000210: 5e42 49bd 0fbb be3c 9eee 9a3d 28d5 a43d
00000220: 1051 7f3d e77a 833d 2b00 803d 104d d5bc
00000230: d73e 3dbd fee7 303d 3a9b 04bc 4d1f 4c3d
00000240: 6190 193c f5b6 28bd b0d8 613d 39f9 173d
00000250: 67e9 33bd 9de0 57bd 8221 e7bc fb3a 4b3d
00000260: 27ca c83c 9d03 893c 512e 08bd 6d3b 513d
00000270: af3d ee3b 8682 18bc 4040 6d3d dce9 cebc
00000280: 07db 313d 3ad7 653d 4b50 fcbc 9674 fabc
00000290: f93c 363d 4d7d cc3b c0be 753d 8a08 0f3c
000002a0: 1411 00bd f521 133d 7b15 60bb 2d3f 1b3d
000002b0: b141 41bb b1f4 3dbb f2ab ee3c 59de 3f3d
000002c0: 05d1 aa3c 8939 b3bc a1e0 553d a3cc 31bd
000002d0: ad19 633d a030 05bc 9c4e 8e3c 20b5 58bd
000002e0: f09e e43b 080d b83c 78b0 2d3d 1a35 833d
000002f0: e36f d1bc 1f8c 4b3d c9d3 d7bc 4eff 59bd
00000300: 533b 863d 168f c63c 3c7b 80bc 6ecc 6f3c
00000310: 3645 673d 8076 3e3d baca 59bc f52d 51bd
00000320: 516f 40bd 3d23 54bc db20 8cbc 8474 0cbc
00000330: 22d9 4dbd c410 e93c 8973 b63a 8ea9 9dbc
00000340: 7da8 acbb 052f ad3c e8b7 02bd 01a5 263d
00000350: ec06 babc 7508 8abd 98e0 033d 5723 46bd
00000360: e1ba 00bd b880 c73c bf8a adbc e127 0c3d
00000370: 0f9b 6f3b 7e91 06bc 8ab0 12bd 263a 9d3a
00000380: 833c a33d 2f83 b2bc 2261 063d 1292 e6bb
00000390: 0262 793b 675b 36bd 37ff 6b3d 6326 933c
000003a0: b74c 413c f8c7 95bc c69e 1a3d 9658 893d
000003b0: dc36 053d 576d 2bbc 65a8 76bc feb6 19bd
000003c0: 0f42 4f3d 5e3f 0b3d 9959 783b ce32 10bd
000003d0: 371b e3bb 288b d23b 3739 36bd 5e03 3abd
000003e0: 5a3f cc3c 40f6 183d 25e4 493d 9461 43bc
000003f0: c56e b3bc 8546 91bc 2a5e e33c b924 93bc

out.0.models.model_0.0.weight f4 [100, 1]
-0.8250985 -0.7989875 0.85935044 0.20755018 0.42223537 0.6904801 -0.5305606 -0.10235286
-0.95389366 -0.36825097 -0.005776167 -0.5223376 0.4341362 -0.7105088 0.6351525 0.10284267
0.96279216 -0.5802375 0.89824754 -0.15007679 0.1863788 -0.5714464 0.20608927 0.6228786
0.76700723 0.26751918 0.64760554 0.34493896 -0.96556854 -0.7890141 -0.2946986 0.60904825
-0.50885713 -0.7640282 -0.93514186 -0.27141595 0.8468507 0.12920016 -0.04695274 0.8524108
-0.54213214 -0.16178805 0.8079081 1.0752012 0.83766514 0.8446426 -0.87520087 -0.80497634
0.7785731 -0.78477776 -0.23237576 0.86965364 0.49202675 -0.059728503 -0.08610654 0.4955573
-0.5336871 0.45942387 0.77700573 0.96119475 0.5943553 0.73437494 0.15625568 -0.99462616
0.3333416 -0.6085823 -0.3933909 -0.8674364 -0.07980791 -0.90805614 0.4243244 0.617744
0.47847432 -0.82804644 0.85207444 -0.5762608 0.18654849 0.54640746 -0.049640417 0.9386949
-0.2617874 -0.26773286 -0.021244278 -0.63685596 -0.6135789 -0.13193025 0.90665853 -0.6734654
0.14976393 -0.5738797 -0.34629846 -0.5216159 -0.81913036 -0.2312213 0.8243448 0.77704257
0.5880419 -0.7933054 0.9983902 -0.22561562
00000000: a839 53bf 728a 4cbf 64fe 5b3f 0988 543e
00000010: 3c2f d83e 4ec3 303f d2d2 07bf 609e d1bd
00000020: 6032 74bf 648b bcbe 0046 bdbb ebb7 05bf
00000030: 1a47 de3e e8e3 35bf 5b99 223f 2e9f d23d
00000040: 8c79 763f 728a 14bf 8df3 653f bbad 19be
00000050: 16da 3e3e 504a 12bf 1109 533e f974 1f3f
00000060: 965a 443f 46f8 883e 7ac9 253f d79b b03e
00000070: 802f 77bf d4fc 49bf bce2 96be 96ea 1b3f
00000080: 7644 02bf 5a97 43bf 7565 6fbf 08f7 8abe
00000090: 35cb 583f 0c4d 043e 8451 40bd 9837 5a3f
000000a0: 2cc9 0abf c4ab 25be 11d3 4e3f 31a0 893f
000000b0: 3971 563f 7f3a 583f 2a0d 60bf ee12 4ebf
000000c0: 9150 473f 32e7 48bf e9f3 6dbe 9fa1 5e3f
000000d0: eeea fb3e e0a5 74bd a058 b0bd b0b9 fd3e
000000e0: b89f 08bf 9b39 eb3e d9e9 463f dc10 763f
000000f0: ab27 183f ffff 3b3f 7d01 203e d29f 7ebf
00000100: c0ab aa3e 0dcc 1bbf 886a c9be 5010 5ebf
00000110: 5472 a3bd 5e76 68bf 0c41 d93e 7924 1e3f
00000120: 96fa f43e dafa 53bf 8d21 5a3f d485 13bf
00000130: 9106 3f3e 5ce1 0b3f c053 4bbd 4f4e 703f
00000140: 0009 86be 4814 89be 7b08 aebc fe08 23bf
00000150: 8213 1dbf b918 07be c61a 683f 3a68 2cbf
00000160: b75b 193e c8e9 12bf 084e b1be 9f88 05bf
00000170: 87b2 51bf 47c5 6cbe 4308 533f 43ec 463f
00000180: ea89 163f 1016 4bbf 8096 7f3f c807 67be

out.0.models.model_0.0.bias f4 [100]
-0.48048878 -0.3153057 0.07302142 -0.8044877 0.9317808 0.012177086 -0.49161398 -0.5313451
-0.080715895 -0.10247338 -0.45604682 0.44902027 -0.35878122 -0.79689944 0.23050797 0.65733474
0.06651374 -0.20988345 0.7299818 0.18017772 0.62455696 0.18150353 0.32785657 0.5711926
-0.98159724 0.7317506 -0.8485199 0.5833609 -0.44633937 0.67825997 -0.8846481 0.00017393987
0.69271415 0.017084852 0.8530019 -0.5011705 0.8975696 2.0731226e-05 0.8094784 -0.2597674
-0.39184284 0.5359045 -0.41266203 -0.1302926 0.6885546 -0.20241687 0.6840185 -0.37405586
0.71923846 0.52108175 0.36002395 -0.4899558 0.5820559 -0.48131776 -0.28754187 0.5942046
-0.4120505 0.7147401 0.96820295 0.12471483 0.36595294 0.8909635 0.3931014 0.67983633
-0.8578724 0.07398263 -0.10499501 -0.07551634 0.8001686 -0.7402626 0.54632574 0.37215286
-0.04026074 -0.24741828 0.1307963 -0.2742759 -0.02216036 0.61832595 -0.9757682 -0.68260807
-0.36159885 -0.23800945 0.31590828 -0.14616764 -0.3533702 0.72491217 0.78751403 -0.0637337
-0.52383256 0.078495465 -0.1857959 0.053771242 0.06362327 0.36775154 0.058124453 -0.79155236
-0.7069017 0.44765633 -0.4580269 -0.4962449
00000000: a002 f6be c06f a1be 418c 953d e8f2 4dbf
00000010: 3089 6e3f 6782 473c d4b4 fbbe 3c06 08bf
00000020: 604e a5bd 90dd d1bd f87e e9be fce5 e53e
00000030: 2cb2 b7be 9a01 4cbf 480a 6c3e 1747 283f
00000040: 5b38 883d b0eb 56be 16e0 3a3f 8280 383e
00000050: f7e2 1f3f 10dc 393e d1dc a73e ae39 123f
00000060: f549 7bbf 0254 3b3f 9a38 59bf 2457 153f
00000070: 9886 e4be 72a2 2d3f 4c78 62bf a163 3639
00000080: b755 313f 88f5 8b3c 555e 5a3f b64c 00bf
00000090: 1fc7 653f f8e7 ad37 fa39 4f3f 3c00 85be
000000a0: a09f c8be 0a31 093f 7048 d3be 6c6b 05be
000000b0: 1d45 303f 5e46 4fbe d61b 2f3f 4084 bfbe
000000c0: 0320 383f 9d65 053f 0f55 b83e 7ddb fabe
000000d0: 9e01 153f 486f f6be b038 93be cb1d 183f
000000e0: 48f8 d2be 35f9 363f 26dc 773f 7d6a ff3d
000000f0: 2f5e bb3e 2f16 643f 9644 c93e c109 2e3f
00000100: 879d 5bbf 3584 973d a007 d7bd 50a8 9abd
00000110: d9d7 4c3f da81 3dbf 01dc 0b3f d28a be3e
00000120: 72e8 24bd 385b 7dbe 77ef 053e e46d 8cbe
00000130: a589 b5bc 9c4a 1e3f f2cb 79bf 67bf 2ebf
00000140: 7c23 b9be c0b8 73be bbbe a13e f8ac 15be
00000150: f0ec b4be d893 393f 859a 493f d086 82bd
00000160: e419 06bf 3bc2 a03d 4841 3ebe 3c3f 5c3d
00000170: eb4c 823d ee49 bc3e e813 6e3d 2da3 4abf
00000180: 83f7 34bf 3633 e53e 8082 eabe d013 febe

out.0.models.model_0.2.weight f4 [1, 100]
-0.041707624 -0.072496116 0.011016675 -0.07086236 -0.1034295 -0.062398985 -0.07743921 -0.00022710561
-0.05347979 -0.07927426 -0.08089967 0.086716264 -0.00058734894 0.07458122 -0.03273687 0.06207929
-0.11139907 0.033341754 -0.05801247 -0.021437949 -0.10002933 0.112469435 0.023312755 0.034281086
-0.014723276 0.025634186 -0.073560655 -0.015689379 -0.08704013 -0.049289763 -0.031817805 -0.1705867
-0.053855628 0.00075341255 0.064623594 -0.030851722 -0.009675234 -0.18674885 0.07972037 -0.1614292
0.0570271 -0.08654503 0.0045867027 -0.1530391 -0.008701225 -0.12656651 -0.023212347 0.021561503
0.0020470566 0.087640114 -0.080181845 -0.1318614 0.03446846 -0.04902445 0.066249564 -0.06897418
-0.04399247 0.052526094 0.07496607 -0.13134126 0.060174063 -0.026625685 -0.10179971 0.028140584
0.03455079 -0.0023746039 0.07535082 0.0022576214 -0.030318059 -0.02014879 -0.03420986 -0.081189565
-0.110780776 0.02851807 -0.1303627 0.065140605 -0.13498764 -0.003192267 0.041289818 -0.00031111797
0.03792424 -0.046373904 0.028443841 0.08754653 0.039263047 -0.025613958 -0.09355877 -0.05653112
-0.025332473 0.055504803 0.03930223 0.10856429 -0.015403461 -0.014713459 -0.10685576 -0.08899692
-0.06984089 -0.061110705 -0.09540285 -0.08797779
00000000: 9dd5 2abd d878 94bd 497f 343c 4920 91bd
00000010: d8d2 d3bd 1496 7fbd 7398 9ebd 3323 6eb9
00000020: a00d 5bbd 8b5a a2bd baae a5bd 4c98 b13d
00000030: 52f8 19ba 0abe 983d 1917 06bd db46 7e3d
00000040: 3225 e4bd 5d91 083d 7c9e 6dbd a39e afbc
00000050: 2ddc ccbd 6056 e63d 64fa be3c 536a 0c3d
00000060: e539 71bc c9fe d13c f8a6 96bd 0387 80bc
00000070: 1842 b2bd 10e4 49bd 6353 02bd 48ae 2ebe
00000080: b897 5cbd a980 453a 6059 843d c0bc fcbc
00000090: df84 1ebc 173b 3fbe 6f44 a33d b24d 25be
000000a0: 4095 693d 853e b1bd 0d4c 963b 48b6 1cbe
000000b0: 958f 0ebc a79a 01be d227 bebc c0a1 b03c
000000c0: e927 063b a97c b33d 6136 a4bd ad06 07be
000000d0: cd2e 0d3d ddcd 48bd daad 873d 5642 8dbd
000000e0: 7331 34bd 9a25 573d d087 993d 537e 06be
000000f0: 1479 763d 1c1e dabc 5e7c d0bd 1587 e63c
00000100: 2185 0d3d 3e9f 1bbb 8851 9a3d 9af4 133b
00000110: 945d f8bc 130f a5bc a31f 0cbd b746 a6bd
00000120: 08e1 e2bd ba9e e93c cd7d 05be 7068 853d
00000130: 333a 0abe 5a35 51bb 831f 293d 8c1d a3b9
00000140: 7356 1b3d 90f2 3dbd 0f03 e93c 984b b33d
00000150: 4ad2 203d 5dd4 d1bc be9b bfbd 2d8d 67bd
00000160: 0c86 cfbc 0159 633d 60fb 203d f456 de3d
00000170: cc5e 7cbc b810 71bc 31d7 dabd 0444 b6bd
00000180: be08 8fbd 384f 7abd 9262 c3bd b32d b4bd

out.0.models.model_1.0.weight f4 [100, 1]
-0.3440833 -0.6431771 0.84717643 0.32467878 -0.4694146 0.8608214 -0.29471302 0.8851553
0.06317409 -0.16326725 0.08645762 0.67038757 -0.3959577 -0.35503846 -0.9041654 -0.68994945
1.0575554 -0.21421063 0.20821396 0.12573841 -0.79129434 -0.6430337 1.0535507 -0.5082394
-0.7522501 -0.73931515 0.32343137 0.23906226 0.58158106 -0.32621533 0.016106721 -0.037657145
0.6999269 -0.046853185 0.08479629 0.33900437 -0.2664131 -0.9517826 0.1276855 -0.9299817
0.32733053 -0.947117 -0.14756978 0.6725917 0.51355267 0.61034256 0.5786669 -0.32335103
-0.6325731 -0.8949288 -0.06979787 0.3541686 -0.4902619 -0.30525562 -0.7060163 0.40955606
0.6451206 0.8314061 -0.74040323 0.3128497 -0.14793897 0.42297366 0.84449947 -0.44234663
0.33799082 -0.22955337 0.49042726 0.06700843 0.3401241 0.42541134 -0.9295896 -0.095646024
-0.18727365 -0.4991145 -0.6867985 -0.44748572 0.65524065 0.7882563 -0.54479563 0.39539155
-0.2873596 0.3985877 1.005021 0.28939047 -0.90252286 0.018824115 0.24617048 -0.82591426
0.18049447 0.40254074 0.5585673 0.64233804 -0.4603944 -0.9091158 -0.33508563 -0.17792428
0.085356355 0.3120291 -0.25555003 -0.9643506
00000000: b02b b0be 41a7 24bf 8ee0 583f 4c3c a63e
00000010: 1c57 f0be cb5e 5c3f a0e4 96be 8a99 623f
00000020: 6b61 813d 882f 27be b110 b13d 859e 2b3f
00000030: f8ba cabe 9ac7 b5be 6277 67bf 87a0 30bf
00000040: fa5d 873f 085a 5bbe 0a36 553e 92c1 003e
00000050: 4492 4abf db9d 24bf c0da 863f fa1b 02bf
00000060: 7693 40bf c243 3dbf cc98 a53e bdcc 743e
00000070: 7fe2 143f b205 a7be 3ef2 833c 613e 1abd
00000080: 692e 333f 20e9 3fbd ada9 ad3d fb91 ad3e
00000090: 4c67 88be 06a8 73bf fdbf 023e 4813 6ebf
000000a0: de97 a73e 4276 72bf 881c 17be f82e 2c3f
000000b0: 3078 033f 693f 1c3f 8423 143f 448e a5be
000000c0: 50f0 21bf 0e1a 65bf 30f2 8ebd 9655 b53e
000000d0: 9c03 fbbe 774a 9cbe 7cbd 34bf 55b1 d13e
000000e0: a026 253f 08d7 543f 118b 3dbf d62d a03e
000000f0: 507d 17be 0190 d83e 1e31 583f 427b e2be
00000100: 220d ad3e 0a10 6bbe 4819 fb3e b73b 893d
00000110: bf24 ae3e 84cf d93e 96f9 6dbf 10e2 c3bd
00000120: aac4 3fbe f08b ffbe 07d2 2fbf d91c e5be
00000130: dabd 273f 2acb 493f ba77 0bbf c370 ca3e
00000140: cc20 93be b013 cc3e 87a4 803f fd2a 943e
00000150: bd0b 67bf 0835 9a3c 1d14 7c3e 1e6f 53bf
00000160: 8bd3 383e d219 ce3e 44fe 0e3f 4470 243f
00000170: d1b8 ebbe d0bb 68bf 5890 abbe c831 36be
00000180: 50cf ae3d 47c2 9f3e 74d7 82be aedf 76bf
