checkpoints/for_ontario_nbs/metabolic_health_index/checkpointed_model.pt (torch, 839028 bytes, 19 tensors)

weight f4 [1, 400]
0	0xbdaa0d4e	-0.08303319
1	0x3c84d1d7	0.01621334
2	0xbd685403	-0.056720745
3	0x3ce5740b	0.028009435
4	0xbd3a2426	-0.04544463
5	0xbd3b491f	-0.04572403
6	0x3cc33844	0.02383054
7	0xbd48984c	-0.048973367
8	0x3c696026	0.014244115
9	0x3c95b1ce	0.01827326
10	0xbd04de5d	-0.032438625
11	0xbd2c1c2b	-0.04201905
12	0x3cfbd375	0.030740479
13	0x3c8b3d95	0.016997138
14	0x3b71f42e	0.0036919224
15	0xbcf897a2	-0.030345742
16	0x3c41a63a	0.011819417
17	0x3bb53239	0.0055296686
18	0x3cffd548	0.03122963
19	0xbc00e26e	-0.007866485
20	0x3cf8d0a1	0.03037292
21	0xbc2dce86	-0.010608321
22	0xbd4b405e	-0.049621932
23	0x3cf17a3f	0.029477237
24	0x3c299b81	0.010352016
25	0x3c174188	0.009231932
26	0xbd5f6672	-0.05454106
27	0xbdcc3caf	-0.09972512
28	0xbce9dca8	-0.0285476
29	0x3d366c02	0.044536598
30	0x3c815b31	0.015790554
31	0x3d183f62	0.03716982
32	0xbcea3cc3	-0.028593427
33	0xbc41a243	-0.011818471
34	0xbc8bdbf5	-0.017072657
35	0xbd3c22a0	-0.04593146
36	0x3be17c9c	0.0068813097
37	0x3cdc4820	0.02688986
38	0xba964b60	-0.0011466555
39	0xbbcee5b8	-0.0063140057
40	0xbc2ae623	-0.010430845
41	0x3c769c65	0.015051936
42	0xba25d087	-0.00063253235
43	0x3c6b0675	0.014344801
44	0xb9efab7d	-0.000457134
45	0x3ca96727	0.02067907
46	0xbbb66d85	-0.005567255
47	0x3d25205e	0.04031407
48	0x3cf98cea	0.0304627
49	0xbd9eb9ce	-0.07750283
50	0xbcfb32c9	-0.030663865
51	0xbcb13f1a	-0.021636534
52	0xbcccf271	-0.025017949
53	0xbc741fa3	-0.014900121
54	0xbd85382b	-0.06504854
55	0xbd744084	-0.05963184
56	0xbd1fb8d1	-0.038994614
57	0x3d4e42fe	0.050356857
58	0x3c9734c8	0.018457785
59	0xbcbd16b6	-0.023082118
60	0x3d31a8de	0.043373935
61	0xbcd84e03	-0.026404386
62	0x3d34e275	0.04416128
63	0xbd4bbbb6	-0.049739562
64	0xbd6e6a2b	-0.05820672
65	0xbba92cc7	-0.0051628086
66	0xbc5b16fc	-0.013372179
67	0xbd28af72	-0.041182943
68	0x3c70cb3f	0.014696895
69	0xbceadb28	-0.028668955
70	0x3d7299a5	0.059228558
71	0xbaa1a24f	-0.0012331697
72	0x3cda4fcc	0.026649378
73	0x3d29f93e	0.04149746
74	0xbb7d235f	-0.003862582
75	0x3d5fca83	0.05463649
76	0x3bbe58fe	0.0058089485
77	0x3d2f04f2	0.042729326
78	0xbcdbc6d9	-0.026828216
79	0x3d0e0495	0.03467234
80	0x3d6a8aa7	0.057261135
81	0xbd5a1d6d	-0.05325072
82	0xbca28430	-0.019838423
83	0x3d417772	0.047233053
84	0x3c8e2ef3	0.017356372
85	0x3c3f9710	0.011693731
86	0x3d489352	0.04896862
87	0xbd499575	-0.0492148
88	0x3ca7b97c	0.020474188
89	0x3d19b439	0.03752539
90	0x3bfa912f	0.0076467018
91	0xbcf39551	-0.029734286
92	0xbd50e155	-0.050996143
93	0xb9b826e2	-0.00035124185
94	0xbcfea2ea	-0.031083543
95	0xbd98ba7f	-0.07457446
96	0x3c5847d1	0.013200716
97	0x3d25b31f	0.040454026
98	0x3cda54ba	0.026651729
99	0xbd53481f	-0.051582452
100	0xbca572aa	-0.020196278
101	0x3ceeaab0	0.029134125
102	0xbc9872e4	-0.018609472
103	0x3d1ca45b	0.03824268
104	0xbd1bb3fe	-0.03801345
105	0x3cccd565	0.025004098
106	0xbcb02f05	-0.021506796
107	0xbcb2c0f6	-0.021820527
108	0xbccdb141	-0.025108935
109	0x3d5a8046	0.053344987
110	0x3cfebd42	0.031096105
111	0x3ce3e449	0.027818816
112	0xbd528881	-0.05139971
113	0x3c1da789	0.009622463
114	0xbca60fdf	-0.02027124
115	0xbb13fb9d	-0.0022580393
116	0xbca1a786	-0.019733202
117	0xbdd1e1ab	-0.10248121
118	0x3d29627f	0.0413537
119	0xbb9c0e63	-0.004762457
120	0xbcee493a	-0.029087652
121	0xbd85f4d8	-0.06540841
122	0xba40e58e	-0.0007358425
123	0xbcbcc65c	-0.023043804
124	0xbd26a918	-0.040688604
125	0xbdb6dc7c	-0.08928773
126	0xba790e9d	-0.0009500774
127	0x3d296a6a	0.04136125
128	0xbd580e3d	-0.052747954
129	0xbd3a8184	-0.045533672
130	0xbd40aa34	-0.04703732
131	0xbc92c8a8	-0.017917946
132	0xbd368e89	-0.044569526
133	0x3d517825	0.05113997
134	0xbd2bc7f8	-0.041938752
135	0xbd273c63	-0.040829074
136	0xbd7c3dae	-0.06158226
137	0xbaa88675	-0.0012857454
138	0xbd70d08d	-0.05879264
139	0x3be0ffb2	0.0068664188
140	0x3d17083b	0.036873084
141	0xbcb972a6	-0.022637676
142	0x3c3c1845	0.011480396
143	0xbcb86c86	-0.022512686
144	0x3cc36e5b	0.023856333
145	0xbd4c842c	-0.049930736
146	0x3d7b428f	0.061342772
147	0x3d17fa23	0.037103783
148	0xbd51c058	-0.051208824
149	0xbbd69942	-0.0065490315
150	0x3bab463b	0.005226878
151	0x3ba4a829	0.005024929
152	0x3cd66299	0.026170062
153	0x3bf8eb3d	0.007596402
154	0x3991e84d	0.00027829633
155	0x3d5505e8	0.052007586
156	0x3d1030e5	0.03520288
157	0xbd3dcc22	-0.046337254
158	0xbd7344bb	-0.05939172
159	0x3ce9e1e1	0.02855009
160	0x3cac3e83	0.021025902
161	0xbdaf1f06	-0.08550839
162	0x3d3ff02e	0.046859913
163	0x3ceb3e5d	0.02871626
164	0x3d331e80	0.04373026
165	0xbcaa220f	-0.020768194
166	0xbd14e0df	-0.036347266
167	0xbd4d137c	-0.05006741
168	0x3c78750a	0.015164623
169	0xbd4be3a0	-0.049777627
170	0xbd908f1a	-0.070585445
171	0xbd47faea	-0.048823275
172	0xb9370f51	-0.00017457946
173	0xbda4c346	-0.08045058
174	0xbd1ad329	-0.037799034
175	0xbc78cf95	-0.01518621
176	0xbcbc69d6	-0.022999685
177	0xbc297374	-0.010342468
178	0xbbae1da7	-0.0053135934
179	0xbd4169dd	-0.0472201
180	0xbc7da53c	-0.0154812895
181	0xbd4bda19	-0.04976854
182	0xbc1573be	-0.009121833
183	0xbb9cbd0f	-0.0047832797
184	0x3b97349f	0.004614427
185	0xbd6b7442	-0.05748392
186	0x3d4c197a	0.049828984
187	0xbd2627f7	-0.040565457
188	0xbcb54830	-0.022129148
189	0x3d586eac	0.05283992
190	0x3b8da493	0.0043225973
191	0x3cae9cf8	0.021315083
192	0xbc54e83f	-0.012994825
193	0x3c6ec33e	0.014572917
194	0xbd8404f3	-0.064462565
195	0x3c1a2915	0.009409209
196	0x3d089323	0.033343446
197	0xbd34719a	-0.04405365
198	0x3d39c83c	0.045356974
199	0xbd321930	-0.043481052
200	0x3c84de7e	0.016219374
201	0xbcd73014	-0.026268043
202	0x3cb3bacf	0.021939663
203	0xbd55fe77	-0.05224463
204	0x3bb3ecc4	0.005490871
205	0xbd19d939	-0.037560675
206	0xbb353e5e	-0.0027655582
207	0x3d9fdb62	0.07805516
208	0xbd135132	-0.035966106
209	0xbc5d0542	-0.013490023
210	0x3c70a28b	0.014687191
211	0x3cdcfe4d	0.026976729
212	0x3c4cc0e4	0.012497161
213	0x3d1c5120	0.038163304
214	0xbcd1ee59	-0.025626348
215	0x3c191511	0.0093434015
216	0x3d4f6f95	0.050643522
217	0x3d0ee24a	0.034883775
218	0x3c8a9860	0.016918361
219	0xbd5288b6	-0.05139991
220	0x39106c2b	0.00013773206
221	0xbb1ad39a	-0.002362466
222	0x3d912d0e	0.070886716
223	0x3d4e42c3	0.050356638
224	0xbc9fd81a	-0.019512225
225	0xbbf4bf11	-0.007469066
226	0xbbd8ceb2	-0.006616437
227	0xbcc6fd09	-0.024290578
228	0xbd9bd888	-0.076096594
229	0x3d435129	0.047684822
230	0xbc5a6654	-0.013330061
231	0x3ce637da	0.028102804
232	0xbd3d7154	-0.046250656
233	0xba9ad30f	-0.0011812168
234	0x3c214eb3	0.0098454235
235	0x3c7cb28d	0.015423429
236	0x3ca05299	0.019570636
237	0xba86a10f	-0.0010271388
238	0xbd2fed13	-0.0429507
239	0xbcbb6413	-0.022874868
240	0xbd06b1e2	-0.032884486
241	0x3a706643	0.00091705116
242	0x3c370f18	0.011173032
243	0xbcfc0d33	-0.030768013
244	0xbca6140e	-0.020273235
245	0x3d0d9b6f	0.03457206
246	0xbd46b6bd	-0.048514117
247	0xbcb5eed7	-0.022208614
248	0x3cc52ca4	0.024069138
249	0xbd325eb6	-0.043547355
250	0xbcf99fa5	-0.030471632
251	0x3cbee0ab	0.02330049
252	0xbc03970d	-0.008031619
253	0x3d1138e6	0.035454653
254	0xbcea6aa0	-0.028615296
255	0x3d4ee716	0.05051335

weight f4 [100, 38]
0	0xbe1a47f2	-0.15066507
1	0xbd0ac5fa	-0.03388021
2	0xbd1cdff8	-0.03829953
3	0x3d334fc5	0.043777246
4	0x3d3dbf32	0.046324916
5	0x3cb78444	0.022401936
6	0x3dadf7ad	0.08494506
7	0x3cd8604b	0.026413104
8	0xbdd74d74	-0.1051282
9	0x3c7f487e	0.015581248
10	0xba3b594e	-0.00071467913
11	0x3e2305ef	0.15920232
12	0xbe038a18	-0.12845647
13	0x3e2d0f82	0.16900447
14	0xbd2113e8	-0.039325625
15	0x3e0bb43d	0.13642974
16	0xbe11e66b	-0.14248054
17	0xbd70dde3	-0.058805358
18	0xbcd27131	-0.02568874
19	0x3cf136c2	0.029445056
20	0xbc3d9e82	-0.011573436
21	0x3cbdd0cd	0.023170853
22	0xbdc6ad41	-0.09701014
23	0xbcbcf520	-0.023066103
24	0x3df91820	0.121628046
25	0xbcc68289	-0.024232166
26	0x3d8bb0d3	0.06820836
27	0xbd230e61	-0.039808635
28	0xbe0c06d4	-0.1367448
29	0xbbc65f07	-0.0060538086
30	0x3dac6bb0	0.08418977
31	0xbde34c2b	-0.11098512
32	0xbd34e887	-0.044167068
33	0xbd35366d	-0.044241358
34	0x3daf5173	0.08560457
35	0xbd6cc286	-0.0578027
36	0xbca0f099	-0.019645976
37	0x3bcd6e28	0.006269235
38	0xbda8ac41	-0.0823598
39	0xbd88da75	-0.06682292
40	0xbe2297b3	-0.15878181
41	0x3e07affa	0.13250723
42	0x3d75de65	0.060026545
43	0x3dff26d3	0.12458577
44	0xbcdc8818	-0.026920363
45	0x3e3b1750	0.18270612
46	0xbe0ca9f0	-0.13736701
47	0x3dc0cc98	0.09414023
48	0x3de95d82	0.11394788
49	0xbe13d065	-0.14434965
50	0xbdd40147	-0.10351806
51	0x3e10f0bc	0.14154333
52	0xbd82d935	-0.06389085
53	0x3d1c93ff	0.038227078
54	0x3c552bd1	0.013010935
55	0xbe0e5872	-0.13900927
56	0xbd190532	-0.03735847
57	0x3dfe3ccb	0.12413939
58	0xbc81ca2d	-0.015843475
59	0x3bac0554	0.0052496586
60	0xbd01c2bc	-0.031679854
61	0xbdb2cd63	-0.08730581
62	0x3dd32ed8	0.10311669
63	0x3e1b18e5	0.15146215
64	0x3d6da314	0.05801685
65	0x3cae4530	0.021273226
66	0x3d8112bb	0.06302401
67	0xbda40f19	-0.08010692
68	0x3dbea3c2	0.09308578
69	0x3d4be293	0.049776625
70	0xbd6890e1	-0.056778792
71	0xbde21ac7	-0.110402636
72	0xbdafa913	-0.0857717
73	0x3ce8f2fa	0.028436173
74	0xbdf113e1	-0.1177137
75	0x3d6f53e3	0.05842961
76	0x3dc45e8c	0.09588346
77	0xbd1b0438	-0.03784582
78	0xbd2feda5	-0.042951245
79	0x3d2d0eb6	0.042250358
80	0x3e4db374	0.20087987
81	0x3de451e6	0.111484334
82	0xbe177e23	-0.14794211
83	0xbe066ed1	-0.1312821
84	0xbe1632ed	-0.14667864
85	0xbd95b376	-0.0730962
86	0x3d89cd7b	0.067286454
87	0xbc05b088	-0.008159764
88	0xbcd8e4b3	-0.02647624
89	0xbcf872b3	-0.03032813
90	0x3d94c7f8	0.072647035
91	0x3ce8e496	0.02842931
92	0xbd61b9f3	-0.055108976
93	0x3de6ca24	0.11269024
94	0x3c2ce31a	0.010552192
95	0xbc1477f5	-0.009061803
96	0x3b43840a	0.002983334
97	0xbd77d594	-0.06050642
98	0xbca06bcf	-0.019582657
99	0x3e059549	0.13045229
100	0x3d00dc6f	0.03146022
101	0x3c7141e7	0.014725185
102	0xbe1e0fe0	-0.15435743
103	0xbde564ad	-0.11200843
104	0x3d345f5e	0.04403626
105	0xbe093901	-0.13400652
106	0x3c8a8e26	0.016913485
107	0xbdfddae3	-0.12395265
108	0x3e1fbc7c	0.15599245
109	0x3dd5616e	0.10418974
110	0xbcc9e768	-0.024646476
111	0x3bcf07ab	0.0063180528
112	0xbce8757d	-0.028376335
113	0x3e0ec406	0.13941965
114	0x3c9c193f	0.019055007
115	0x3b2f7061	0.0026769864
116	0x3bd4d0f1	0.0064946343
117	0x3e18bd85	0.14916046
118	0xba7cb5b2	-0.0009640112
119	0xbe00ff81	-0.12597467
120	0xbbf57465	-0.007490682
121	0xbd7422b3	-0.059603404
122	0xbe28d662	-0.1648803
123	0x3d280578	0.04102084
124	0xbd88ab3f	-0.066732876
125	0xbc508d3c	-0.012728985
126	0x3cba3996	0.022732537
127	0xbd5d9c62	-0.054104216
128	0x3db254d5	0.08707587
129	0xbcb0708e	-0.021538045
130	0x3e25f40a	0.16206375
131	0xbe057384	-0.13032347
132	0x3cb0d437	0.021585567
133	0x3cc0dc4e	0.02354255
134	0xbdc8b1c7	-0.09799533
135	0xbdbd0e2b	-0.09231218
136	0x3de37f38	0.111082494
137	0xbdc0e462	-0.094185606
138	0x3d0cef6d	0.03440802
139	0x3d20b41b	0.039234262
140	0xbbe3e10c	-0.006954318
141	0xbdd2e8dd	-0.102983214
142	0xbded037b	-0.115729295
143	0xbd893c79	-0.06700987
144	0x3df125df	0.117748015
145	0xbd7ab563	-0.06120814
146	0x3dd443c6	0.10364489
147	0xbdb0d88f	-0.08635055
148	0x3e134a15	0.14383729
149	0xbd786934	-0.060647205
150	0xbd03c700	-0.032172203
151	0xbe0dda6a	-0.1385285
152	0xbd46c071	-0.04852337
153	0x3df47ff0	0.11938465
154	0x3e24ab23	0.16080908
155	0xbdc5eb54	-0.09664026
156	0x3db8871e	0.090101466
157	0x3dd93a16	0.10606782
158	0xbd667358	-0.056262344
159	0xbe0d30a4	-0.13788086
160	0x3cec335c	0.028833084
161	0xbdb3e4d1	-0.08783878
162	0x3e0edd45	0.13951595
163	0xbdb67886	-0.08909707
164	0x3db340a7	0.08752566
165	0xbcc74446	-0.024324547
166	0x3dbc75d8	0.092021644
167	0xbc128de5	-0.008944963
168	0x3c0e575b	0.008687819
169	0xbe003e0c	-0.12523669
170	0xbd9c1d0a	-0.07622726
171	0xbcb4d468	-0.02207394
172	0x3d1ae665	0.037817378
173	0x3d3890c9	0.045059953
174	0xbdc0befa	-0.09411426
175	0xbdd7a19f	-0.10528874
176	0xbe066f72	-0.1312845
177	0xbccaf196	-0.0247734
178	0xbdf74191	-0.12073053
179	0x3e2b9826	0.16757259
180	0xbdc28d01	-0.094995506
181	0x3dc7c5dc	0.097545356
182	0x3db59cf0	0.08867824
183	0xbbe7919a	-0.0070669176
184	0xbdb0d98a	-0.08635242
185	0xbd5f0fb5	-0.05445834
186	0xbd9ac723	-0.075575136
187	0x3befb70b	0.0073155216
188	0x3d09f364	0.03367938
189	0x3d390e58	0.045179695
190	0x3cce4b8c	0.025182508
191	0x3bb349fa	0.005471465
192	0x3d46aaea	0.04850284
193	0xbd8cbfa1	-0.06872488
194	0x3c80ed1c	0.015738063
195	0xbc656394	-0.014000792
196	0x3ded2537	0.11579364
197	0xbd815fc9	-0.06317098
198	0xbe35f82b	-0.1777045
199	0x3c04a0c2	0.008094968
200	0xbe2f3cc3	-0.17113023
201	0x3d2fb4f0	0.042897165
202	0xbe143b3b	-0.1447572
203	0x3cd695fa	0.026194561
204	0xbdbd9cf1	-0.0925845
205	0xbddb6565	-0.10712699
206	0x3dfea485	0.12433723
207	0x3db11130	0.086458564
208	0x3e04d3a6	0.12971362
209	0x3e251794	0.16122276
210	0x3d3aec29	0.045635376
211	0xbdddf01c	-0.10836813
212	0xbde53473	-0.111916445
213	0x3d54f8f7	0.051995244
214	0xbe25f17d	-0.16205402
215	0x3e056392	0.13026264
216	0xbe010830	-0.1260078
217	0xbdda4493	-0.10657611
218	0xbdf14ff9	-0.11782832
219	0x3dc84e58	0.09780568
220	0xbd4378bb	-0.04772256
221	0xbcd7a7da	-0.026325155
222	0xbe053fc8	-0.13012612
223	0xbe1b029c	-0.15137714
224	0x3d3e69db	0.04648767
225	0xbe066f30	-0.13128352
226	0xbd074e22	-0.033033498
227	0x3e0a3ad6	0.13499007
228	0xbd1d583f	-0.038414236
229	0xbdf674ea	-0.12034018
230	0xbdf47f31	-0.11938322
231	0x3d24dc2f	0.040249046
232	0xbd8b62b3	-0.06805935
233	0x3df1818e	0.11792289
234	0xbbe01160	-0.0068380088
235	0xbbb3c12a	-0.0054856734
236	0x3e16c6fa	0.14724341
237	0x3d0b5b3d	0.03402256
238	0x3d3e3b05	0.046443004
239	0x3db47c1b	0.08812734
240	0x3e24d16b	0.16095512
241	0x3dab90df	0.08377241
242	0x3d2214f0	0.03957075
243	0xbcfda7d1	-0.03096381
244	0xbd84fa7c	-0.064930886
245	0x3d80149d	0.06253932
246	0xbd22242f	-0.03958529
247	0x3ad42ef1	0.0016188306
248	0xbe2a4db5	-0.16631205
249	0x3d88ac85	0.066735305
250	0x3d9b05eb	0.07569488
251	0xbccd5a27	-0.025067402
252	0x3c7f6ed4	0.015590388
253	0x3e01ec64	0.12687832
254	0x3d40545f	0.046955463
255	0xbda037bd	-0.07823131

bias f4 [100]
0	0x3e36d900	0.17856216
1	0x3c0bd094	0.008533616
2	0x3dea2958	0.11433667
3	0xbd8a970c	-0.06767091
4	0xbc6bb303	-0.014385941
5	0x3d3c7b3a	0.046015956
6	0x3dbe75bf	0.09299802
7	0xbdac012c	-0.08398661
8	0x3e195a8c	0.14975947
9	0x3ddf2b4e	0.108969316
10	0xbe0a7045	-0.1351939
11	0xbe159208	-0.14606488
12	0x3d961ee9	0.073301144
13	0x3e13d00a	0.1443483
14	0xbe2d4061	-0.1691909
15	0x3d5bcb42	0.05366064
16	0x3ce46320	0.027879298
17	0xbc989787	-0.018626941
18	0xbda1a774	-0.07893267
19	0xbdb7a31d	-0.08966658
20	0x3a0a02f8	0.00052647246
21	0x3de10845	0.109879054
22	0x3e077731	0.13229062
23	0x3ddb8375	0.10718433
24	0x3e052a60	0.13004446
25	0x3dc0af5f	0.094084494
26	0xbd826013	-0.06365981
27	0xbdf2c024	-0.11853054
28	0x3bfe884c	0.0077677127
29	0xbddfb619	-0.10923404
30	0xbe1c5159	-0.15265407
31	0xbca52476	-0.020158987
32	0xbd4df9d1	-0.05028707
33	0xbd9b8a61	-0.07594753
34	0x3e095391	0.13410784
35	0xbdda7974	-0.106676966
36	0x3d0bb4c2	0.03410793
37	0xbe181ccc	-0.14854735
38	0xbd8d6040	-0.06903124
39	0x3d55c4cd	0.052189637
40	0xbdeb599b	-0.114917
41	0xbde01c15	-0.10942856
42	0xbe0697ad	-0.13143797
43	0xbe01da7e	-0.12681004
44	0xbd9af731	-0.07566679
45	0xbcf8915a	-0.030342747
46	0xbdf6bc74	-0.12047663
47	0xbdff2517	-0.12458246
48	0xbdb45219	-0.088047214
49	0x3c92809e	0.017883595
50	0xbd6c4fff	-0.057693478
51	0x3d378f52	0.044814415
52	0xbd37b6bd	-0.044852007
53	0xbdd011da	-0.10159655
54	0xbd35db73	-0.044398736
55	0xbe203bb6	-0.15647778
56	0xbe0cf4c3	-0.13765244
57	0xbdc1ae7d	-0.09457109
58	0xbe0aa7f1	-0.13540627
59	0xbc1aff3d	-0.009460268
60	0x3d11c903	0.03559209
61	0x3e07c071	0.13257004
62	0x3e09c95d	0.1345572
63	0x3d3074a5	0.04307999
64	0xbd55b929	-0.052178536
65	0x3bf91299	0.007601094
66	0xbe003a03	-0.1252213
67	0xbbc9c14d	-0.0061570765
68	0xbdc2215f	-0.09479021
69	0x3dd3482f	0.10316502
70	0x3e1e9ad4	0.1548875
71	0x3ba110f4	0.004915351
72	0xbe1bc3b1	-0.15211369
73	0x3ddb0cb3	0.106957816
74	0xbdefc6c5	-0.11707834
75	0xbde946d6	-0.11390464
76	0xbde3ef37	-0.11129611
77	0xbc73b5fb	-0.0148749305
78	0x3de988fa	0.11403079
79	0xbdf07be2	-0.11742379
80	0xbe068f93	-0.13140707
81	0x3cd10867	0.025516702
82	0x3d8507e1	0.064956434
83	0x3c1392d8	0.009007178
84	0xbc222793	-0.009897131
85	0x3d4e80ec	0.05041592
86	0x3d838055	0.06420962
87	0x3cf7b4b5	0.030237535
88	0x3e3ed7eb	0.18637054
89	0x3d0c3c2e	0.03423708
90	0x3ded7f9a	0.11596604
91	0x3d7ebd84	0.062192455
92	0x3d3c5640	0.045980692
93	0x3dce77ba	0.1008143
94	0x3e11adee	0.14226505
95	0x3d13bf57	0.036071148
96	0x3e224c29	0.15849365
97	0xbd34c710	-0.044135153
98	0xbe41c082	-0.18921092
99	0x3b911930	0.0044280514

weight f4 [400, 100]
0	0x3cbf2a2d	0.02333554
1	0x3dc3de27	0.095638566
2	0xbd8ff1e5	-0.070285596
3	0x3dcabeab	0.09899648
4	0x3d96ed27	0.07369452
5	0xbd686690	-0.056738436
6	0x3dda8a35	0.10670892
7	0x3c6df418	0.0145235285
8	0xbdf6891c	-0.1203787
9	0x3ca3f50e	0.020014312
10	0xbd26a946	-0.040688775
11	0x3cd812c2	0.026376132
12	0x3ceaea50	0.028676182
13	0xbd2f8a52	-0.042856522
14	0x3db3cdee	0.08779512
15	0xbdbf37fa	-0.093368486
16	0x3d712b52	0.058879204
17	0x3dbce0e4	0.09222582
18	0x3d2645ea	0.04059402
19	0x3b830a3b	0.0039990223
20	0x3d4004ef	0.046879705
21	0x3db52332	0.088446036
22	0xbde42c61	-0.11141277
23	0xbc9f9706	-0.019481193
24	0x3b4f6d48	0.003165083
25	0xbc8641a9	-0.016388731
26	0xbd799298	-0.06093082
27	0xbde0bf9e	-0.10974048
28	0xbb0c1510	-0.002137486
29	0xbceee12d	-0.029160107
30	0x3c0d1ac8	0.008612342
31	0xbd7b0f4d	-0.06129389
32	0x3dd95ddf	0.106136076
33	0xbc976f7a	-0.018485773
34	0xbd205010	-0.039138854
35	0x3d6e973c	0.058249697
36	0xbd21b364	-0.03947772
37	0xbc77249b	-0.015084411
38	0x3c4ff2bf	0.0126921525
39	0x3d8a4a3e	0.06752442
40	0xbd473230	-0.048631847
41	0xbd94042c	-0.07227358
42	0xbd755543	-0.059895765
43	0xbd8640be	-0.06555317
44	0x3d367af4	0.04455085
45	0xbd7f16cc	-0.0622776
46	0x3c355b2b	0.011069099
47	0x3cbb0ec1	0.022834184
48	0x3cd5f46f	0.026117532
49	0xbd3fbf23	-0.04681314
50	0xbdbbbf78	-0.09167379
51	0x3d8001c2	0.06250335
52	0x3e03a343	0.12855248
53	0xbdc5f9e5	-0.09666804
54	0x3bc97e66	0.006149101
55	0x3cb2685a	0.021778274
56	0xbc0f4962	-0.008745523
57	0x3994336e	0.00028267078
58	0x3d6910a6	0.056900643
59	0xbdaafe69	-0.08349306
60	0xbccac59f	-0.024752436
61	0xbd5ee023	-0.054412972
62	0x3c7692a2	0.015049608
63	0x3d5006ae	0.05078762
64	0xbd701449	-0.058613095
65	0x3d66fa0f	0.05639082
66	0xbd40bf21	-0.047057275
67	0xbc14f3cd	-0.00909133
68	0x3da911d0	0.082553506
69	0xbdbb37c6	-0.09141497
70	0xbdc1ad09	-0.09456832
71	0xbd6561a5	-0.056001324
72	0xbce1ec4f	-0.027578501
73	0x3db4d890	0.088303685
74	0x3dcf3cfc	0.10119054
75	0x3c99bef3	0.01876781
76	0x3d62002b	0.05517594
77	0xbce8a62b	-0.028399548
78	0xbdd4bad1	-0.10387195
79	0x3c86b143	0.016441947
80	0x3d0453f6	0.032306634
81	0x3cb9c5f8	0.022677407
82	0x3db85e9c	0.0900242
83	0xbd1194e2	-0.035542376
84	0x3d940f06	0.07229428
85	0xbc153985	-0.009107952
86	0x3c1baf28	0.00950221
87	0x3cda9ce6	0.026686143
88	0xbd1ddc36	-0.038540088
89	0x3c445139	0.011982256
90	0x3d8a7586	0.06760697
91	0xbd0acb1f	-0.033885118
92	0x3d5a7a81	0.053339485
93	0xbb4c965a	-0.0031217546
94	0x3dcec2ca	0.10095747
95	0xba285928	-0.0006421977
96	0xbd9d7eda	-0.07690211
97	0x3cd8051b	0.026369622
98	0xbab74649	-0.0013982739
99	0x3cc7cb65	0.024388978
100	0x39876c43	0.00025829868
101	0xbd9ecff6	-0.07754509
102	0xbbadf836	-0.00530913
103	0x3d7d10e5	0.06178369
104	0x3de8d060	0.113678694
105	0xbd85e2d6	-0.06537406
106	0x3d283aca	0.04107169
107	0x3d5f9b37	0.054591384
108	0x3c838734	0.01605568
109	0xbaff636d	-0.0019484587
110	0x3dab0451	0.08350433
111	0xbd27108c	-0.040787265
112	0x3d959d71	0.0730542
113	0xbcc8cd5f	-0.024511991
114	0x3bc43a0e	0.005988366
115	0x3d8662f2	0.06561841
116	0xbca5d1b4	-0.020241596
117	0x3d8c2e2d	0.06844745
118	0xbdc09b3a	-0.09404607
119	0x3d3eb381	0.046557907
120	0x3d2e0dc3	0.042493593
121	0x3bfa3b3f	0.007636457
122	0xbda2cbb8	-0.079490125
123	0x3db823f4	0.089912325
124	0x3d430709	0.04761413
125	0x3dbd2a0e	0.09236537
126	0x3c771019	0.015079522
127	0xbab7dda2	-0.0014027844
128	0xbd4601bf	-0.04834151
129	0x3db0f9c2	0.086413875
130	0x3da74252	0.081669465
131	0xbcf1fe40	-0.029540181
132	0xbc7205a3	-0.014771852
133	0x3b569f28	0.0032748673
134	0xbd93e8db	-0.07222148
135	0x3d616dab	0.05503623
136	0x3d76ffbb	0.060302477
137	0x3bcb9c5a	0.006213707
138	0xbd15c03b	-0.03656028
139	0x3dad54a5	0.0846341
140	0x3bde9141	0.006792218
141	0x3c3bd9ae	0.011465473
142	0x3d4a9111	0.049454752
143	0x3d0fefae	0.035140686
144	0x3da25646	0.079266116
145	0xbd20c0e5	-0.03924646
146	0xbd18889e	-0.037239663
147	0x3dc216dd	0.09477017
148	0xbdb5455a	-0.088511184
149	0xbc93be2b	-0.018035015
150	0x3d9938e4	0.07481554
151	0xbca1e824	-0.019764014
152	0x3c8e7ddc	0.017393999
153	0xbdb6e97f	-0.089312546
154	0x3d09d973	0.03365464
155	0xbd03521e	-0.032060735
156	0x3d8bad55	0.0682017
157	0xbd9bb156	-0.076021835
158	0xbd4f6681	-0.050634865
159	0x3dc413ae	0.09574066
160	0x3ddb5a83	0.10710623
161	0x3d34771a	0.044058897
162	0xbdeae2fa	-0.114690736
163	0x3c059384	0.008152846
164	0xbd4c9cbc	-0.04995416
165	0x3da734fe	0.08164404
166	0xbd195157	-0.037431087
167	0xbd4ffc4c	-0.05077772
168	0xbcba0ca9	-0.022711115
169	0x3dada497	0.08478659
170	0x3bd11eb3	0.0063818335
171	0xbd9bf670	-0.076153636
172	0x3d9275b0	0.07151353
173	0x3c55e487	0.013054973
174	0xbb76cf7d	-0.0037660294
175	0x3da80c30	0.082054496
176	0x39d6f5fc	0.00041000533
177	0xbd89b71b	-0.06724378
178	0x3d6ca1f8	0.057771653
179	0x3d09f714	0.033682898
180	0x3d762e2c	0.060102627
181	0xbd33d699	-0.04390583
182	0xbd4fc19d	-0.050721753
183	0xbddbcee7	-0.10732823
184	0x3c875cf0	0.016523808
185	0xbdd816f0	-0.1055125
186	0xbd9cba45	-0.076527156
187	0x3cf415a4	0.029795475
188	0xbc4dd420	-0.012562782
189	0x3d5e2ab7	0.054239955
190	0xbd05bca3	-0.0326506
191	0xbd181b85	-0.03713562
192	0xbd9422ea	-0.07233222
193	0x3dc13388	0.09433657
194	0xbd399705	-0.04531004
195	0x3c64d7c8	0.013967462
196	0x3d5044b2	0.050846763
197	0xbda006e4	-0.07813814
198	0x3d8abe79	0.06774611
199	0x3da9940c	0.08280191
200	0xbdab5ec1	-0.08367682
201	0x3cf38ed1	0.029731186
202	0x3d81cc53	0.063378
203	0xbdbde73f	-0.09272622
204	0x3cb17a6b	0.021664819
205	0xbaa74fe4	-0.0012764898
206	0x3d822fd3	0.06356778
207	0x3c091bb4	0.008368421
208	0xbd6b2e30	-0.057417095
209	0xbd1fa18b	-0.03897242
210	0xbd150764	-0.036384
211	0x3ce4c42e	0.027925577
212	0xbd28d366	-0.04121723
213	0xbd4fbcb6	-0.05071708
214	0xbd441ef6	-0.04788109
215	0x3d4524f0	0.04813093
216	0xbdc1b6e8	-0.09458715
217	0x3cdad19c	0.026711278
218	0xbd365a8e	-0.044519953
219	0x3cb301a5	0.02185137
220	0x3d9c3d04	0.07628825
221	0x3d8bb54c	0.06821689
222	0x3bd0a891	0.006367751
223	0x3db1e91f	0.086870424
224	0x3d0b2a19	0.033975694
225	0x3c2f5190	0.010700598
226	0x3d7a7cb1	0.06115407
227	0x3d0e195b	0.03469215
228	0xbd638d4b	-0.05555467
229	0xbda03b4e	-0.078238115
230	0x3dbc076c	0.09181103
231	0xbda93d61	-0.0826366
232	0xbc35d562	-0.011098238
233	0xbdc88408	-0.09790808
234	0x3cc83ac1	0.024442079
235	0x3c2b28ec	0.010446768
236	0x3c3e3cd3	0.011611181
237	0x3db3d4c9	0.0878082
238	0xbc5aa63e	-0.013345299
239	0x3db03121	0.086031206
240	0x3c99dbe7	0.018781615
241	0x3d30c651	0.04315788
242	0x3c32d056	0.010913929
243	0xbdac7315	-0.08420388
244	0xbd7e2019	-0.06204233
245	0x3d46ec6f	0.048565324
246	0xbc494d6b	-0.012286524
247	0xbca26c0c	-0.019826911
248	0x3d4a107c	0.049332127
249	0x3d8aa2cb	0.067693315
250	0x3c485f74	0.012229789
251	0x3cd4a994	0.025959767
252	0xbd98472e	-0.074354514
253	0xbd2b08cc	-0.041756436
254	0x3d6d35ee	0.05791276
255	0xbd8835ac	-0.06650862

bias f4 [400]
0	0x3b8d2068	0.0043068416
1	0x3d280fc3	0.041030657
2	0xbd32d215	-0.04365738
3	0xbcd67eed	-0.02618357
4	0xbd490633	-0.049078178
5	0xbd5804c8	-0.052738935
6	0xbc29e26c	-0.010368925
7	0x3c79cd4f	0.015246703
8	0x3d2cc6b1	0.042181674
9	0x3da3d6bf	0.07999944
10	0xbdbacd92	-0.09121241
11	0xbdb4728a	-0.08810909
12	0xbdcd9de1	-0.10039879
13	0xbda64a47	-0.08119636
14	0x3d363bf5	0.044490773
15	0xbc07e163	-0.0082934825
16	0xbc81e149	-0.015854495
17	0xbd8c17a4	-0.068404466
18	0x3ccdca79	0.02512096
19	0xbc4aeb0f	-0.012385144
20	0x3c89bdfd	0.016814226
21	0x3c84a3a6	0.016191315
22	0xbdc24724	-0.09486225
23	0xbd94b808	-0.07261664
24	0x3b6bc955	0.0035978158
25	0xbca505a7	-0.020144297
26	0x3d5c709f	0.05381834
27	0x3b8c8d37	0.004289295
28	0x3d73cf94	0.059524134
29	0x3d7c58a9	0.06160799
30	0xbbd96c9e	-0.0066352626
31	0x3c2aade8	0.010417439
32	0x3bcbfe94	0.0062254164
33	0x3db2c814	0.08729568
34	0x3cd8f6e8	0.026484922
35	0xbdb5f85b	-0.08885261
36	0xbdba7bf1	-0.09105671
37	0x3d784b32	0.060618587
38	0x3d58cbd1	0.05292875
39	0x3d5a5b01	0.053309444
40	0xbd58a35f	-0.052890178
41	0xbd13b428	-0.036060482
42	0x3d82c3e0	0.063850164
43	0x3d03a6e0	0.032141566
44	0x3d1997f0	0.037498415
45	0xbc856b16	-0.016286414
46	0x3d489e76	0.048979245
47	0x3da2e9d4	0.079547554
48	0x3dde498a	0.1085387
49	0xbd507ce7	-0.050900366
50	0xbda15d54	-0.07879129
51	0x3cbd27fb	0.023090353
52	0x3da08895	0.07838551
53	0xbb8a7c64	-0.0042262543
54	0xbb370d70	-0.0027931593
55	0xbd7d567e	-0.061850064
56	0x3d93ff2e	0.07226406
57	0xbcbeb699	-0.023280429
58	0xbdcb9c49	-0.099419184
59	0x3ca036dc	0.019557409
60	0xbc5c6f16	-0.013454219
61	0x3d7be5f1	0.061498586
62	0x3d73f693	0.059561323
63	0x3da6e9bd	0.08150051
64	0xbd728279	-0.05920646
65	0xbdc9e202	-0.09857561
66	0xbc2986a2	-0.01034704
67	0xbd2624aa	-0.04056231
68	0xbd652eb8	-0.055952758
69	0x3d11a29a	0.03555546
70	0xbd425d90	-0.04745251
71	0x3d57f363	0.052722346
72	0xbd227958	-0.039666504
73	0xbdc1fc55	-0.09471957
74	0x3d81d6ea	0.0633982
75	0x3d0b388e	0.03398948
76	0xbc989e73	-0.018630242
77	0xbdbf7347	-0.09348159
78	0xbdc2c053	-0.09509339
79	0x3daad7fc	0.08341977
80	0x3dc0e0f0	0.094179034
81	0xbc41e160	-0.011833519
82	0x3d4cdcc2	0.05001522
83	0xbd40b37a	-0.047046162
84	0x3dc7b8e7	0.09752064
85	0xbdcd6914	-0.10029808
86	0xbd0ed0d4	-0.034867123
87	0xbde685d4	-0.112559944
88	0x3d9fac9c	0.077965945
89	0xbdb12a17	-0.08650606
90	0x3ccc75e0	0.02495855
91	0x3d946400	0.07245636
92	0x3cc61ea3	0.02418453
93	0xbd862fb1	-0.06552065
94	0xbd4358b2	-0.04769201
95	0x3d88c191	0.06677545
96	0xbdc39e97	-0.09551733
97	0xbc9a7cf9	-0.01885842
98	0xbcfbf963	-0.030758565
99	0x3c9e9904	0.019360073
100	0xbd52b279	-0.051439736
101	0x3daab233	0.0833477
102	0xbca8fdbf	-0.020628808
103	0x3bde9668	0.006792832
104	0xbc7e260a	-0.015511999
105	0x3ddcf579	0.10789008
106	0xbbb8c475	-0.005638654
107	0xbd4c4cb5	-0.04987784
108	0xbdd4de73	-0.10393991
109	0x3d7f84eb	0.06238262
110	0x3dae6950	0.085161805
111	0x3d9a048c	0.075203985
112	0xbd0b8f07	-0.03407195
113	0x3d66754e	0.056264214
114	0x3cdab50b	0.026697656
115	0xbdb6d9a0	-0.089282274
116	0x3ccee563	0.025255864
117	0xbd7fbe40	-0.062437296
118	0x3cf6f356	0.030145328
119	0xbd7292ef	-0.059222158
120	0xbc468601	-0.01211691
121	0x3c8e9619	0.017405557
122	0x3d27ab82	0.040935047
123	0xbd81d3f1	-0.06339253
124	0x3cb83bd3	0.022489464
125	0xbd24beef	-0.04022115
126	0xbcbd52bf	-0.023110745
127	0x3dded8d7	0.10881203
128	0xbc224b2f	-0.0099056205
129	0xbd99a8b0	-0.07502878
130	0x3b508ba0	0.0031821504
131	0x3c9fded9	0.019515442
132	0x3d6a480d	0.05719762
133	0x3d6d63bb	0.05795644
134	0xbc252fd8	-0.010082208
135	0xbda2dc36	-0.07952158
136	0x3d8b1d4d	0.06792698
137	0x3d9564a4	0.07294586
138	0x3c3098bb	0.010778601
139	0xbd9257ef	-0.07145678
140	0xbc964dae	-0.018347587
141	0x3d9d570a	0.07682617
142	0x3cd35f79	0.02580236
143	0xbce0505f	-0.027382074
144	0x3d9d8f2a	0.07693322
145	0xbd07fa11	-0.033197466
146	0xbda15ea5	-0.0787938
147	0xbc100185	-0.008789425
148	0xbdccd461	-0.100014456
149	0x3d2f1b9e	0.042750947
150	0x3d037b8e	0.032100253
151	0xbc4d5bf4	-0.01253413
152	0xbd268b4b	-0.040660184
153	0x3cc367e4	0.02385325
154	0xbd857a6c	-0.06517491
155	0xbd0fe365	-0.03512897
156	0x3b770f01	0.0037698152
157	0x3da8d215	0.08243195
158	0xbdd99e98	-0.106259525
159	0xbd1df4f3	-0.03856368
160	0xbdc71880	-0.0972147
161	0xbde11622	-0.109905496
162	0xbca4eefd	-0.02013349
163	0x3d76dcb3	0.06026907
164	0xbde41108	-0.11136061
165	0x3d731ba4	0.059352532
166	0x3d98bc32	0.074577704
167	0x3ca38015	0.019958535
168	0x3d76377c	0.060111508
169	0x3cf20583	0.029543644
170	0xbc9058c1	-0.017620446
171	0x3da84205	0.08215717
172	0xba640340	-0.0008697994
173	0xbd3250c2	-0.043534048
174	0xbd8bda37	-0.068287306
175	0xbd6976ba	-0.056997992
176	0xbd9a1386	-0.07523255
177	0xbdad83de	-0.08472417
178	0xbdb63813	-0.08897414
179	0xbdd568a6	-0.10420351
180	0xbcec42bf	-0.02884042
181	0xbda4bb7f	-0.080435745
182	0x3d7689c9	0.060189996
183	0xbd43fb0b	-0.047846835
184	0xbd35f6f1	-0.044424955
185	0x3ae2f29a	0.0017314733
186	0x3d42734f	0.047473248
187	0x3c9e34ee	0.019312348
188	0x3c73a854	0.0148716755
189	0x3d9cd43c	0.07657668
190	0x3d96612c	0.07342753
191	0x3c64687e	0.0139409285
192	0xbcdb6c24	-0.026784964
193	0x3c6711ed	0.014103395
194	0xbda8b548	-0.08237702
195	0xbce6a41b	-0.028154423
196	0x3c6b058e	0.014344586
197	0xbd4232a8	-0.04741159
198	0x3d6b57a4	0.057456627
199	0x3d2db9dd	0.04241358
200	0xbd329245	-0.043596525
201	0xbc0e6fba	-0.00869363
202	0xbde78164	-0.11303976
203	0x3deeab1a	0.11653729
204	0xbdb830bc	-0.0899367
205	0xbd742c0c	-0.05961232
206	0x3da1797c	0.078844994
207	0xbd120650	-0.03565055
208	0xbbb00a59	-0.0053723273
209	0xbd997853	-0.07493653
210	0xbd92f4f3	-0.071756266
211	0x3d2ccef6	0.04218956
212	0xbd7af2a6	-0.061266564
213	0xbcd18249	-0.02557482
214	0x3db8984b	0.090134226
215	0xbd0fd83a	-0.03511832
216	0xbd347345	-0.044055242
217	0x3dbaa0dd	0.091127135
218	0xbd608f72	-0.0548243
219	0x3cae2ae3	0.021260684
220	0xbd05ab8d	-0.032634307
221	0xbdae1432	-0.08499946
222	0x3d76ae93	0.06022508
223	0xbcf6a71f	-0.030108986
224	0x3d7996d8	0.06093487
225	0xbd8b6398	-0.068061054
226	0xbd8d5477	-0.06900876
227	0xbbb097de	-0.0053891977
228	0xbdb10e19	-0.08645267
229	0xbce89de1	-0.028395595
230	0xbce02d7c	-0.027365439
231	0xbd2c4810	-0.04206091
232	0x3dbdaeb0	0.092618346
233	0x3dc3d65c	0.0956237
234	0x3dc9fd93	0.098628186
235	0xbce1aa1b	-0.027546933
236	0xbc96c412	-0.01840404
237	0xbc511bb3	-0.012762952
238	0x3d91c367	0.07117348
239	0xbd1fc5a0	-0.03900683
240	0xbd1cf724	-0.03832163
241	0xbe02d906	-0.127781
242	0xbcb05056	-0.021522682
243	0xbdd88a9e	-0.10573314
244	0xbd693010	-0.0569306
245	0xbd46d4e5	-0.048542876
246	0xbb0eef02	-0.002180994
247	0x3d4c15f8	0.04982564
248	0xbd9806b6	-0.07423155
249	0xbdabce7f	-0.083889954
250	0xbd9fe585	-0.07807449
251	0xbdaafbdb	-0.08348819
252	0xbdebec40	-0.115196705
253	0xbc105ca9	-0.008811154
254	0x3c7b6222	0.015343221
255	0xbdbfc153	-0.093630455

weight f4 [400, 400]
0	0x3aa90702	0.0012895765
1	0x3d405fad	0.046966244
2	0x3d3ae54d	0.045628835
3	0xbcda2e4a	-0.0266334
4	0xbc2f9ce5	-0.010718559
5	0x3d7d1c00	0.06179428
6	0xbb22f7dc	-0.0024866974
7	0xbd9fc867	-0.078018956
8	0x3d4ab5d6	0.04948982
9	0x3cfd7899	0.030941295
10	0xbd468413	-0.0484658
11	0xbd70096e	-0.058602743
12	0xbd7c7728	-0.061637074
13	0xbd1964f0	-0.037449777
14	0xbd6882dc	-0.056765422
15	0x3c02a636	0.007974198
16	0x3c8f7234	0.017510511
17	0x3af00a7f	0.0018313675
18	0xbd26c19f	-0.040711995
19	0xbc9d2c20	-0.01918608
20	0xbd1712aa	-0.036883034
21	0x3d13a661	0.036047343
22	0xbd3953df	-0.045246
23	0xbd033f39	-0.032042716
24	0x3cf6760f	0.030085592
25	0xbd56e660	-0.052465796
26	0x3bd83eb6	0.0065992726
27	0xbd85e94b	-0.06538638
28	0x3bd8d15f	0.006616756
29	0x3ad89aa7	0.0016525582
30	0x3d1b6d83	0.037946235
31	0xbd2ca73b	-0.04215167
32	0xbc17e48b	-0.0092707975
33	0xbc3b25fd	-0.011422631
34	0xbcf98074	-0.030456759
35	0x3c7dbf9d	0.015487579
36	0x3cf20b9d	0.029546553
37	0x3c213109	0.009838351
38	0x3bce9ee1	0.006305561
39	0xbd2b45ca	-0.041814603
40	0xbc67f4d4	-0.014157493
41	0x3d3c7531	0.0460102
42	0xbd330582	-0.043706425
43	0xbcb7e658	-0.022448704
44	0xbd364dac	-0.044507667
45	0x3cd39d92	0.025831971
46	0x3cb75a21	0.022381844
47	0xbdb30a31	-0.08742178
48	0x3c845d62	0.01615781
49	0xbd1e277f	-0.038611885
50	0x3aa72215	0.0012751246
51	0x3d4c4051	0.049866024
52	0x3ca6401a	0.020294238
53	0xbcb8b44c	-0.02254691
54	0xbd4f3482	-0.050587185
55	0x3d1e49cc	0.038644597
56	0xba737554	-0.00092871976
57	0x3c0bde1b	0.008536841
58	0xbdd7cb15	-0.10536782
59	0xbc74e9cf	-0.014948322
60	0x3d0692b5	0.032854754
61	0xbdc7d801	-0.09757996
62	0x3c0fc3b9	0.008774691
63	0x3d1f7a5b	0.038935047
64	0x3ccba4af	0.0248588
65	0xbde84dbd	-0.113429524
66	0xbd01b142	-0.031663187
67	0x3d2c9ce0	0.042141795
68	0xbd0de06c	-0.034637854
69	0xbb8cab9c	-0.0042929184
70	0x3c243981	0.010023476
71	0xbd038725	-0.032111306
72	0xbd21e330	-0.039523304
73	0xbcbe3f85	-0.023223648
74	0x3d1e4697	0.03864154
75	0x3d07d047	0.033157613
76	0x3d0b1f45	0.033965368
77	0xbd2cb7fc	-0.04216765
78	0x3c96af77	0.018394215
79	0x3b16e2a4	0.0023023272
80	0x3da64472	0.08118524
81	0xbd817cf0	-0.06322658
82	0x3d86e40a	0.06586464
83	0xbd3877af	-0.045036014
84	0xbbf59f67	-0.007495809
85	0xbd312ee2	-0.0432576
86	0x3b9fcfec	0.004877081
87	0xbc9d7a2f	-0.0192233
88	0xbd8bac8e	-0.068200216
89	0x3cbe9376	0.023263674
90	0xbd609730	-0.054831684
91	0xbc2404de	-0.010010926
92	0x3d022f7f	0.031783577
93	0xbd7604e2	-0.06006325
94	0xbc22f0d8	-0.009945117
95	0x3d5fdd03	0.054654133
96	0xbc97c084	-0.018524416
97	0x3b825480	0.0039773583
98	0x3d161963	0.036645304
99	0xbd019fcc	-0.031646535
100	0xbd4c5ff4	-0.049896196
101	0x3bbc1ef7	0.005740996
102	0x3d7273be	0.05919241
103	0x3d317c0d	0.043331195
104	0xbd1302e4	-0.03589143
105	0xbd92c52d	-0.071665145
106	0xbc933232	-0.01796827
107	0x3d323fe7	0.043517973
108	0x3cf665b7	0.030077798
109	0x3a3dad93	0.00072356424
110	0x3c6e282a	0.014535943
111	0x3cd1c5fd	0.025607103
112	0xbbc48f28	-0.005998511
113	0xbca68ad2	-0.020329867
114	0x3afcb034	0.0019278587
115	0x3d2a3e83	0.041563522
116	0x3c16f941	0.0092147
117	0xbca3c9f5	-0.019993762
118	0xbd058d03	-0.032605182
119	0x3bb810fd	0.0056172595
120	0x3d80586a	0.06266864
121	0x3d0aae30	0.033857524
122	0xbca64d26	-0.02030046
123	0xbc1e0de0	-0.009646863
124	0xbc517328	-0.012783803
125	0xbc8ce507	-0.017199052
126	0x3d4ad351	0.049517933
127	0xbbc1673b	-0.0059021986
128	0xbd25724e	-0.040392213
129	0xbd9bca34	-0.076069266
130	0x3d633a3e	0.055475466
131	0x3c3b1cbc	0.011420425
132	0xbccfa407	-0.025346769
133	0xbd1ce75a	-0.03830657
134	0xbd0a1541	-0.033711676
135	0xbcf6748f	-0.030084876
136	0xbbf92490	-0.0076032355
137	0xbd1faad5	-0.038981277
138	0x3ce428d3	0.027851498
139	0xbd1dadd1	-0.038495842
140	0x3ca60ce8	0.020269826
141	0xbc4d35f8	-0.012525074
142	0xbcf02ec1	-0.029319169
143	0x3cc18e8d	0.023627544
144	0xbcec3ace	-0.028836634
145	0xbd3cbed0	-0.04608041
146	0x3cb37d5b	0.02191036
147	0xbcb10dae	-0.021612968
148	0x3d2c5520	0.04207337
149	0x3d0bf4e6	0.0341691
150	0xbc5a105b	-0.0133095635
151	0xbd6089e9	-0.05481902
152	0xbcdfbe0d	-0.027312303
153	0x3d44b818	0.048027128
154	0x3c996370	0.018724173
155	0xbd17f0c2	-0.03709484
156	0x3c6efa8c	0.014586102
157	0xbce587d3	-0.028018868
158	0xbd3e510c	-0.04646401
159	0x3d0f64dc	0.035008296
160	0xbbf45594	-0.007456491
161	0xbd1a8cab	-0.037731808
162	0xbbb37c72	-0.0054774815
163	0x3c562f2e	0.013072772
164	0x3ce07023	0.027397221
165	0xbd9faaad	-0.07796226
166	0xbd24923e	-0.04017853
167	0xbb532798	-0.0032219645
168	0x3d0d8e02	0.034559257
169	0x3d01f047	0.031723287
170	0x3b0c91e6	0.0021449267
171	0xbca814c1	-0.020517709
172	0xbd1c2c0a	-0.038127936
173	0xbd974170	-0.07385528
174	0x3cf4b966	0.029873561
175	0xbc3bec1e	-0.011469869
176	0x3d3af3b6	0.045642577
177	0xbc9c20df	-0.019058643
178	0xbd592041	-0.053009275
179	0x3c8932c2	0.016747836
180	0xbcdaa836	-0.026691537
181	0x3cc2b934	0.023769952
182	0xbc89660a	-0.016772289
183	0x3d8a436b	0.0675114
184	0xbcc76531	-0.024340244
185	0xbd62445d	-0.055240978
186	0xbc874a9c	-0.016515069
187	0xbcb9955f	-0.022654234
188	0x3d016fd1	0.031600777
189	0x3c8fc349	0.017549174
190	0x3d201ab3	0.039087962
191	0xbd3505b2	-0.044194885
192	0xbc9caef3	-0.019126391
193	0x3bae26e8	0.0053146966
194	0xbd7b6213	-0.061372828
195	0xbd3c24a4	-0.04593338
196	0xbc27fa9e	-0.010252623
197	0xbc068bc1	-0.008212031
198	0x3c172d9a	0.009227181
199	0xbc0dc36a	-0.008652547
200	0x3cedb4a8	0.029016808
201	0x3d4aa0ff	0.049469944
202	0x39a4ca96	0.00031431456
203	0xbd81fb7f	-0.06346797
204	0xbdd6a5ef	-0.10480868
205	0xbcc82d33	-0.024435615
206	0xbc9910bb	-0.018684736
207	0xbd1d24dd	-0.038365234
208	0xbda05a5d	-0.078297354
209	0x3c8a64e1	0.016893806
210	0x3d21c624	0.039495602
211	0xbc17b2c5	-0.009258931
212	0xbd85da95	-0.06535832
213	0x3d34a927	0.04410663
214	0x3cc5dcfa	0.024153221
215	0x3c94691e	0.01811653
216	0xbc1f2d66	-0.009715414
217	0x3b8c05b8	0.0042731427
218	0x3cfad0e1	0.03061718
219	0x3c06a7f3	0.008218753
220	0xbcfdf0f4	-0.030998684
221	0xbc8461bd	-0.016159886
222	0xbd13b011	-0.036056582
223	0xbd0da9ba	-0.034585692
224	0xbd93b115	-0.0721151
225	0xbc9d6acf	-0.01921597
226	0x3d2667c8	0.040626317
227	0xbd234a65	-0.03986587
228	0xbd15de0f	-0.036588725
229	0x3abd2c9f	0.0014432854
230	0xbc99e877	-0.018787606
231	0x3c8b915e	0.01703709
232	0xbcbe0fc8	-0.023200884
233	0x3c0e20fa	0.008674854
234	0xbc222c25	-0.00989822
235	0xbd53c4a2	-0.051701196
236	0xbc9e3439	-0.019312011
237	0x3c2c585e	0.010519115
238	0x3c83f20c	0.016106628
239	0xbc0c1050	-0.008548811
240	0x3cec1596	0.028818887
241	0x3c443ead	0.011977834
242	0x3d585ac1	0.052820925
243	0x3cf90302	0.030396942
244	0xbcafc9e8	-0.021458581
245	0xbd809128	-0.06277686
246	0x3cf0d91d	0.029400403
247	0xbd75cb73	-0.060008477
248	0x3cae1360	0.021249473
249	0x3b76744f	0.0037605946
250	0xbcef7ef6	-0.029235344
251	0x3d733ebc	0.059386
252	0x3a32244d	0.00067955704
253	0x3c8c4102	0.017120842
254	0xb7d6d000	-2.5607646e-05
255	0xbc403a3f	-0.011732637

bias f4 [400]
0	0xbd642fb4	-0.055709556
1	0xbd50be19	-0.05096254
2	0xbccd0b1e	-0.025029715
3	0x3d6e9089	0.05824331
4	0x3cbe09d7	0.023198051
5	0x3d6ec526	0.058293484
6	0x3d8237d4	0.063583046
7	0x3ca6ab7f	0.020345448
8	0x3c6b9a62	0.014380069
9	0x3d48c5b0	0.049016654
10	0x3d238f1e	0.03993141
11	0x3d4ad70c	0.04952149
12	0xbc86c268	-0.016450122
13	0x3d82e6d8	0.06391686
14	0x3d2e40d3	0.04254229
15	0xbc6043b2	-0.013688015
16	0x3cba7e62	0.022765342
17	0x3a793ac3	0.00095073524
18	0x3d04155f	0.032246944
19	0x3c4a1922	0.012335094
20	0x3d19c3be	0.03754019
21	0x3c9c1b3f	0.01905596
22	0x3caa465a	0.0207855
23	0xbcd019de	-0.02540296
24	0x3d1134f4	0.03545089
25	0x3d8a4fc2	0.06753494
26	0x3d7248f3	0.0591516
27	0x3d1a354e	0.03764849
28	0x3d7c991b	0.06166945
29	0x3ba85b46	0.0051378338
30	0xbc375c17	-0.0111913895
31	0xbd1b1bea	-0.037868418
32	0x3d1347c7	0.035957124
33	0x3ce86885	0.028370151
34	0xbcaf5412	-0.021402393
35	0x3d377a1f	0.044794198
36	0xbca85b8f	-0.020551471
37	0xbd062a3e	-0.03275513
38	0xbcf3ec53	-0.029775774
39	0xbce980f4	-0.028503872
40	0xbd4a5d93	-0.049405646
41	0x3c932f4f	0.017966894
42	0x3d99caf1	0.07509411
43	0xbd4926fd	-0.049109448
44	0xbd27d3d1	-0.04097349
45	0x3d7bc5f8	0.061468095
46	0x3d43a685	0.047766227
47	0xbcfb3f48	-0.030669823
48	0xbc295f2b	-0.010337631
49	0xbc397c17	-0.011321089
50	0xbd380b86	-0.044932865
51	0x3d177778	0.03697917
52	0x3cf394c9	0.029734032
53	0xbd317770	-0.043326795
54	0x3d79544f	0.06087142
55	0xbc78a01a	-0.01517489
56	0xbc3ac16b	-0.0113986535
57	0x3ada9433	0.0016676247
58	0x3c659013	0.014011401
59	0x3d47f398	0.048816293
60	0xbd3a63bd	-0.045505274
61	0xbd259680	-0.04042673
62	0x3ccbcc03	0.024877554
63	0xbd1163a1	-0.035495404
64	0xbcfc7ba9	-0.030820685
65	0xbce62cb7	-0.028097494
66	0xbc936de7	-0.017996741
67	0xbcae5931	-0.021282764
68	0x3d2ac352	0.04169018
69	0xbd04938b	-0.03236727
70	0x3ce2156e	0.02759811
71	0xbc4b8bea	-0.012423495
72	0xbd3139fe	-0.043268196
73	0xbbef4e25	-0.0073030167
74	0x3bc271ec	0.0059339907
75	0xbd0f6736	-0.03501054
76	0x3c05cf51	0.008167104
77	0x3d10ded9	0.035368774
78	0xbcaeb25c	-0.021325283
79	0xbc15b9bb	-0.00913852
80	0x3d7da2d1	0.061922852
81	0xbd189f00	-0.03726101
82	0x3cc5d33b	0.024148574
83	0x3d91eabc	0.0712485
84	0xbceba813	-0.028766667
85	0xbd5fc0eb	-0.05462734
86	0xbb5ba52f	-0.0033515205
87	0xbd147685	-0.03624584
88	0x3dac7f39	0.08422703
89	0x3da2c393	0.07947459
90	0x3b7c40fa	0.0038490877
91	0x3d38872e	0.045050792
92	0x3d5c3d85	0.053769607
93	0x3c226ab3	0.009913134
94	0x3cb5f4f2	0.022211526
95	0x3d5331ac	0.051561043
96	0x3cae8976	0.02130578
97	0xba086773	-0.00052034034
98	0xbbfc44cd	-0.0076986314
99	0xbc9f37bf	-0.019435761
100	0xbcf24405	-0.02957345
101	0xbd7855e7	-0.060628798
102	0x3d0459e4	0.03231229
103	0x3cba17d3	0.022716438
104	0x3d19c686	0.037542842
105	0x3d372261	0.04471052
106	0xbc0ef383	-0.00872505
107	0x3c6b2ded	0.014354211
108	0xbb71c795	-0.0036892642
109	0xba933ff3	-0.0011234268
110	0xbd2a2397	-0.041537847
111	0x3d36066a	0.04443971
112	0x3aa94cd8	0.0012916578
113	0x3c9c15c5	0.01905335
114	0xbc51fe79	-0.012817019
115	0x3b982fee	0.0046443855
116	0xbc50d997	-0.01274719
117	0x3d377e3e	0.04479813
118	0x3d8c00b9	0.06836075
119	0xbcee1d25	-0.029066632
120	0xbbaf6909	-0.0053530973
121	0xbc045a37	-0.0080781495
122	0x3d82916f	0.063753955
123	0x3c4df878	0.012571447
124	0x3b577f2e	0.0032882201
125	0x3cd4a88b	0.025959274
126	0xbd41d86c	-0.047325537
127	0xbc562dbe	-0.013072429
128	0x3cf6be63	0.03012008
129	0xbccad247	-0.024758471
130	0xbd006bad	-0.031352688
131	0xbcf31820	-0.02967459
132	0x3ca3744b	0.019952914
133	0xbcfa1a3e	-0.030530091
134	0x3d521fac	0.051299736
135	0xbc84eec1	-0.016227128
136	0xbc2680d6	-0.010162553
137	0x3d724766	0.059150122
138	0x3ccafcc8	0.024778739
139	0x3c4c3713	0.012464303
140	0x3c22ff9b	0.009948636
141	0xbd564055	-0.052307446
142	0x3cf2e2ac	0.029649101
143	0x3d06a881	0.03287554
144	0x3ce5edf8	0.028067574
145	0x3d6c2d07	0.05766013
146	0xba9660dc	-0.0011472958
147	0xbd76dd9e	-0.060269944
148	0xbb66037c	-0.0035097292
149	0x3cefb19e	0.0292595
150	0x3d6aedb6	0.057355605
151	0x3da28b43	0.07936718
152	0x3ceca850	0.028888851
153	0xbbb1bff1	-0.0054244925
154	0xbd17b1f8	-0.03703496
155	0x3d58b90a	0.052910842
156	0x3d01e97a	0.0317168
157	0xbd2ec0e6	-0.04266443
158	0x3d7dc1ff	0.061952587
159	0xbd07502c	-0.033035442
160	0x3a87fdf8	0.0010375371
161	0x3d30cb4c	0.04316263
162	0x3cd3bbf0	0.025846452
163	0xbc8cd076	-0.017189246
164	0xbd329713	-0.043601107
165	0x3ca1711e	0.019707259
166	0x3d4f40e7	0.050599005
167	0xbce6b5e6	-0.028162908
168	0x3d91e7e6	0.07124309
169	0x3d3fe47c	0.04684876
170	0x3d32ea7c	0.043680653
171	0x3d017296	0.03160342
172	0x3cf09022	0.029365603
173	0x3d6066b3	0.05478544
174	0x3c81254e	0.015764859
175	0xbbfa3b7e	-0.0076364866
176	0xbbd65661	-0.006541059
177	0xbd3dc632	-0.046331592
178	0x3b9d045c	0.0047917794
179	0xbcd45134	-0.025917627
180	0x3d2287bf	0.03968024
181	0x3cf81efb	0.03028821
182	0xbc153489	-0.009106764
183	0x3cc62b99	0.02419071
184	0xbcca57a9	-0.024700003
185	0xbcbcbb82	-0.02303863
186	0x3c839ccc	0.016065978
187	0x3d7ace5a	0.06123195
188	0x3cb11f88	0.02162148
189	0xbb0a82a6	-0.0021135001
190	0x3c0f0885	0.008730059
191	0x3b7ef2b0	0.0038901977
192	0xbd560f7c	-0.05226086
193	0x3d423ead	0.047423054
194	0x3b005c0a	0.001958611
195	0x3ce89393	0.028390681
196	0x3d15f7b8	0.036613196
197	0x3d51cf62	0.051223166
198	0x3d330fdd	0.0437163
199	0xbc424eca	-0.011859605
200	0x3d59612f	0.053071197
201	0x3cb80a0f	0.022465734
202	0x3c92bbad	0.017911756
203	0x3d358dbc	0.04432462
204	0x3d8ac0e6	0.06775074
205	0xbc725984	-0.01479185
206	0xbc234416	-0.009964963
207	0x3c1bd73a	0.009511763
208	0x3c75d97b	0.015005465
209	0xbcda167b	-0.026622048
210	0x3d1b4c3a	0.037914492
211	0xbcac3920	-0.021023333
212	0x3d9ee97d	0.07759378
213	0x3d58a5cf	0.052892502
214	0x3b1da796	0.0024056188
215	0x3c81ebdb	0.015859535
216	0x3d0abfec	0.033874437
217	0x3d0f493a	0.034981944
218	0x3d336d29	0.043805275
219	0x3b2c29c2	0.0026270007
220	0x3d21c679	0.03949592
221	0xbcb5c503	-0.02218867
222	0x3c061afd	0.008185145
223	0x3ca59671	0.020213338
224	0xb9425bc7	-0.00018535471
225	0x3d3313a8	0.043719918
226	0x3cd4384b	0.025905749
227	0x3d1c6d49	0.03819016
228	0xbb6be4a2	-0.003599443
229	0x3d892adc	0.06697628
230	0x3ad3719c	0.0016131881
231	0xbd6fd411	-0.05855185
232	0x3d30e6ce	0.043188863
233	0x3d2f3c7f	0.042782303
234	0x3d513b13	0.05108173
235	0x3c36ffc6	0.01116938
236	0xbcaf2fbc	-0.021385066
237	0x3ba5ec86	0.005063596
238	0xbc82dca6	-0.015974354
239	0xbc64a6dd	-0.013955799
240	0xbd30bc55	-0.043148357
241	0x3d3a0e27	0.045423653
242	0x3bbd6be6	0.0057806848
243	0x3c997ef8	0.018737301
244	0x3cc8c181	0.024506332
245	0xbc945c54	-0.018110432
246	0x3a2c3b5d	0.0006570125
247	0xbc0a40bd	-0.008438286
248	0x3c8a1c0c	0.016859077
249	0xbbbe9e07	-0.005817178
250	0x3cecd3ec	0.028909646
251	0xbcc3d596	-0.023905557
252	0xbd26dcc9	-0.0407379
253	0x3c406c6c	0.0117446
254	0xbc4c4d29	-0.012469568
255	0x3ced16b3	0.028941488

weight f4 [100, 1]
0	0xbf613194	-0.87966275
1	0x3f17a69c	0.592386
2	0x3f4bd2e4	0.7961867
3	0xbf4197ec	-0.7562244
4	0x3f5837c4	0.8446009
5	0xbefe1a66	-0.49629515
6	0x3f5d3e7c	0.8642347
7	0xbf40064c	-0.7500961
8	0xbf6d469e	-0.9268588
9	0xbf5ec6a0	-0.8702183
10	0x3edbe593	0.4294859
11	0xbe1157e8	-0.1419369
12	0x3f39245d	0.7232111
13	0x3f383521	0.7195607
14	0xbe92d9d6	-0.2868182
15	0x3f400090	0.7500086
16	0x3f20dbcd	0.6283539
17	0x3de83f86	0.11340241
18	0x3ee62d5d	0.44956484
19	0x3f626cde	0.8844737
20	0xbf1a54e3	-0.60285777
21	0x3f1e0d91	0.6173945
22	0xbe884904	-0.26618207
23	0xbe8a4b64	-0.27010643
24	0xbf06868e	-0.52549064
25	0xbeb175fc	-0.34660327
26	0xbeb71b46	-0.35762995
27	0xbf41943a	-0.756168
28	0xbebd12ec	-0.369285
29	0xbf0ddb8d	-0.5541313
30	0x3f1d2cd4	0.6139653
31	0xbf39498b	-0.7237784
32	0x3f63eb6b	0.89031094
33	0xbf5732c3	-0.8406183
34	0xbf1ebc1e	-0.62005794
35	0xbed1631c	-0.40895927
36	0x3f3b7343	0.7322275
37	0xbf81028c	-1.0078902
38	0x3f1732ec	0.59062076
39	0xbf5f0dfe	-0.87130725
40	0x3f6721d5	0.90286
41	0xbf0ad106	-0.54225194
42	0xbf0e238f	-0.5552301
43	0x3f0bb7e7	0.5457749
44	0xbf0e6b25	-0.5563224
45	0xbcf3801c	-0.029724173
46	0xbf2c2d6c	-0.6725681
47	0x3ca9b5a2	0.020716492
48	0xbd1a11a6	-0.037614487
49	0xbf5b98e8	-0.8578019
50	0xbdfb65e5	-0.12275294
51	0xbe657a9a	-0.2241005
52	0x3f5a3f62	0.85252964
53	0x3e88845c	0.26663482
54	0xbd8dbc50	-0.069206834
55	0xbf117154	-0.5681355
56	0x3f25cefa	0.64768946
57	0x3cc13a04	0.023587234
58	0xbeef01bb	-0.46681008
59	0x3f5fc5cd	0.87411195
60	0x3e830ca4	0.25595582
61	0x3f3c5921	0.735735
62	0xbccade80	-0.0247643
63	0xbec67bcc	-0.38766325
64	0xbe641942	-0.2227526
65	0x3ed81fca	0.42211753
66	0xbf26ed12	-0.6520549
67	0xbe6ec500	-0.23317337
68	0xbef03054	-0.4691187
69	0xbf79ef90	-0.9763117
70	0xbe368ded	-0.17827578
71	0xbf60dc75	-0.8783639
72	0x3f4f6901	0.810196
73	0x3f03f8cc	0.5155151
74	0xbf3aca55	-0.72964984
75	0xbf19a6a8	-0.6001992
76	0x3db891a4	0.09012154
77	0xbed17848	-0.4091208
78	0xbef6a1ad	-0.48170224
79	0x3f4fd859	0.81189495
80	0x3f38314f	0.7195024
81	0xbf1068de	-0.56410015
82	0xbf7117a5	-0.94176704
83	0xbe281460	-0.16414022
84	0xbe9b7ded	-0.3036951
85	0x3ea27949	0.31733158
86	0x3e875cce	0.26437992
87	0x3f139e44	0.5766337
88	0xbec36dae	-0.38169616
89	0xbf011e60	-0.50436974
90	0xbec85244	-0.39125264
91	0xbebfc1fc	-0.37452686
92	0xbe5c810d	-0.21533604
93	0x3f54986f	0.83045095
94	0xbf7006c2	-0.9376031
95	0x3e932d2d	0.28745404
96	0xbf23da5c	-0.64005065
97	0x3f1d3b25	0.6141837
98	0xbe8ebb84	-0.27877438
99	0x3f42a5a6	0.7603401

bias f4 [100]
0	0xbe1431f0	-0.14472175
1	0xbb13853e	-0.0022509838
2	0x3f168246	0.5879253
3	0xbf1289a2	-0.5724126
4	0x3f078e83	0.5295183
5	0x3ed900eb	0.42383513
6	0xbed3b754	-0.41350806
7	0x3f453f94	0.7705014
8	0x3f45aceb	0.77216977
9	0x3e844823	0.25836286
10	0xbf218588	-0.6309438
11	0xbe9113e0	-0.28335476
12	0x3ea6887b	0.32526
13	0x3d7738b4	0.06035681
14	0x3f837fb1	1.0273343
15	0x3f6f998d	0.93593675
16	0xbf59ff36	-0.85155046
17	0x3f0dcaf9	0.55387837
18	0x3f2b0b6a	0.6681429
19	0x3e237edd	0.15966363
20	0x3f884a26	1.0647628
21	0xbe6c2e61	-0.23064567
22	0xbefea90c	-0.49738348
23	0xbf174a54	-0.5909779
24	0xbd219a80	-0.039453983
25	0xbe9a0698	-0.30083156
26	0x3f380084	0.71875787
27	0xbf18f97e	-0.59755695
28	0x3e5e5182	0.2171078
29	0x3f090388	0.53521013
30	0xbf16011d	-0.5859545
31	0x3f57c0e5	0.8427871
32	0xbecb4a61	-0.39705184
33	0x3ea32172	0.31861454
34	0xbef46864	-0.47735894
35	0xbf587868	-0.84558725
36	0x3e50ee2f	0.2040336
37	0x3f5cf43c	0.8631017
38	0xbe958aa3	-0.29207334
39	0xbf225e0a	-0.6342474
40	0x3f6061d8	0.876493
41	0xbf0b68e8	-0.5445695
42	0x3f66d93d	0.9017523
43	0xbea142bd	-0.3149623
44	0x3e0eaa03	0.13932042
45	0x3f288a5e	0.6583613
46	0x3e5dc734	0.21658021
47	0x3e3ffbda	0.18748417
48	0x3f146472	0.5796577
49	0xbf336c7c	-0.7008741
50	0x3f176ca1	0.5915013
51	0x3f850ec5	1.0395132
52	0xbeeb8076	-0.45996445
53	0x3e2bffa9	0.16796745
54	0xbf67179a	-0.9027039
55	0xbf1c55b0	-0.6106825
56	0xbe5cb2e9	-0.21552624
57	0x3f547c6f	0.8300237
58	0x3e816f96	0.25280446
59	0x3f366fbf	0.7126426
60	0x3f66358a	0.89925444
61	0xbf2d2cb3	-0.6764633
62	0xbf0bc192	-0.5459224
63	0xbf4011fa	-0.7502743
64	0x3de3f73d	0.11131141
65	0x3dfdc8a9	0.123917885
66	0xbf23fc76	-0.640571
67	0xbf47b5dc	-0.7801187
68	0xbc3ce280	-0.011528611
69	0x3f6e1396	0.92998636
70	0x3e697c91	0.22801425
71	0x3eac46ec	0.3364786
72	0x3f1df8b6	0.6170763
73	0x3ebbd308	0.36684442
74	0x3f3e1101	0.74244696
75	0xbec35820	-0.38153172
76	0x3f3b9d3a	0.73286784
77	0xbe881a8c	-0.26582754
78	0x3ddc0233	0.10742607
79	0xbf230939	-0.6368595
80	0xbe2070ad	-0.15667982
81	0xbf7bdfb6	-0.9838823
82	0x3ed40f7b	0.4141806
83	0xbf1be13e	-0.6089057
84	0x3efbe23a	0.49196035
85	0xbf2252e7	-0.6340775
86	0x3f10fb81	0.56633765
87	0x3f12f6ab	0.57407635
88	0x3f166d33	0.58760375
89	0x3f181ab1	0.5941573
90	0xbea15714	-0.31511748
91	0xbec30684	-0.3809091
92	0x3f464715	0.7745221
93	0xbeffe7b0	-0.4998145
94	0xbf5252a0	-0.82157326
95	0xbee13250	-0.43983698
96	0xbee82d14	-0.45346892
97	0x3ecffe45	0.4062368
98	0x3f70e97b	0.9410626
99	0xbf021a06	-0.5082096
