checkpoints/metabolic_health_index_1unit_bottleneck/checkpointed_model.pt (torch, 842228 bytes, 19 tensors)

weight f4 [1, 400]
0	0xbd0bbfe0	-0.034118533
1	0xbc7a37ef	-0.015272125
2	0xbd06a621	-0.032873277
3	0x3d2e4f0e	0.04255586
4	0xbd5988db	-0.05310903
5	0xbe033432	-0.1281288
6	0x3da77d65	0.08178214
7	0xb9b9ab49	-0.00035413567
8	0x3afd316f	0.00193171
9	0x3c52237d	0.012825844
10	0x3ce17acd	0.027524376
11	0xbd54f480	-0.051990986
12	0xbc4b504e	-0.012409283
13	0x3bfbe9ca	0.007687782
14	0x3d228a73	0.039682817
15	0xbd26b582	-0.040700443
16	0x3d1b5750	0.037925065
17	0x3c231f37	0.009956173
18	0x3b33e1dc	0.0027447855
19	0x3ca26713	0.01982454
20	0x3cdd2300	0.026994228
21	0xbd89c424	-0.06726864
22	0xbcf0e40b	-0.029405614
23	0xbd87224d	-0.06598339
24	0x3b2d0612	0.0026401323
25	0xbd55a920	-0.052163243
26	0xbcf7e4eb	-0.030260524
27	0xbd2991a1	-0.04139865
28	0xbca07d95	-0.019591132
29	0x3d8761ce	0.06610452
30	0xbcb69631	-0.022288414
31	0x3d843e3a	0.06457181
32	0xbc547d13	-0.012969273
33	0xbd5b78c8	-0.053581983
34	0xbdf72429	-0.12067444
35	0xbc8db074	-0.017296053
36	0x3b392120	0.0028248504
37	0x3bda5fa6	0.006664234
38	0x3d607b94	0.054805353
39	0xbd9a03d7	-0.07520264
40	0xbd863f59	-0.06555051
41	0x3d3d369a	0.04619465
42	0x3c3effe6	0.011657691
43	0x3c6ca250	0.014442995
44	0xbcb80744	-0.022464402
45	0x3d0bd7e6	0.034141444
46	0x3d4ef40e	0.050525717
47	0x3be15bdb	0.006877405
48	0x3d51cb34	0.05121918
49	0xbbd74ae7	-0.0065702084
50	0x3d8793ed	0.066200115
51	0xbc8c39e6	-0.017117452
52	0xbd8ff93d	-0.0702996
53	0xbd137748	-0.036002427
54	0xbce097dd	-0.027416164
55	0xbd317d8e	-0.04333263
56	0xbc8c437b	-0.017122021
57	0x3d028d9e	0.031873338
58	0x3d025e0c	0.03182797
59	0xbd49017a	-0.049073674
60	0x3d8ebad1	0.06969226
61	0xbcdce074	-0.026962496
62	0x3bc3647b	0.005962906
63	0xbdbd84be	-0.09253834
64	0xbd051549	-0.032491002
65	0xbbd78882	-0.0065775523
66	0xbcc08ea4	-0.023505516
67	0xbcdf2d7b	-0.027243366
68	0x3d4f5776	0.05062052
69	0xbc232ed4	-0.009959895
70	0x3d155fd5	0.036468346
71	0xbc6cacfa	-0.014445538
72	0xbc140cbd	-0.00903624
73	0x3d437b33	0.047724914
74	0xbb908483	-0.004410328
75	0x3d7a1132	0.061051555
76	0x3dc7273c	0.0972428
77	0x3d02000a	0.03173832
78	0xbd342a6e	-0.043985777
79	0x3d1a847d	0.037724007
80	0x3c4a3799	0.012342357
81	0xbcdcba55	-0.026944319
82	0xbc95026f	-0.018189637
83	0x3d02fe12	0.03198058
84	0xbbcdab83	-0.0062765493
85	0xbbb81621	-0.0056178723
86	0x3cd18bfe	0.025579449
87	0xbc9625f2	-0.01832864
88	0x3d75ae69	0.059980784
89	0x3c0e1ec4	0.008674327
90	0xbbf84151	-0.0075761457
91	0xbd57dad8	-0.05269894
92	0xbcae83af	-0.021303026
93	0x3ceb0bcf	0.028692154
94	0xbcd42dbd	-0.025900716
95	0xbab3d76e	-0.0013720819
96	0xbd08d664	-0.033407584
97	0x3c38d5a7	0.011281407
98	0x3d483ab6	0.048884116
99	0xbd9e8b0a	-0.07741363
100	0xbc48973b	-0.012243087
101	0xbba0b401	-0.0049042706
102	0x3cabe116	0.020981353
103	0xbda17cf9	-0.07885165
104	0xbda6e263	-0.081486486
105	0x3d522f3c	0.051314577
106	0xbc13e5c7	-0.009026951
107	0xbd2e6824	-0.042579785
108	0xbdaf3d9d	-0.08556674
109	0x3c810ec5	0.015754113
110	0x3c4c428b	0.012467037
111	0x3c7cad59	0.015422189
112	0xbd6b26c9	-0.057410035
113	0x3bf2426c	0.007393172
114	0x3d36cae7	0.044627097
115	0x3c4136ef	0.011792882
116	0xbb7933cc	-0.0038025258
117	0xbdc5bf5f	-0.09655642
118	0x3a6c72b2	0.00090197765
119	0xbd6bd32c	-0.057574436
120	0xbcbb51dd	-0.022866184
121	0xbd2dc063	-0.042419802
122	0x3b6d46df	0.0036205573
123	0xbdc61c33	-0.09673347
124	0xbdd5154c	-0.10404453
125	0xbdb2639a	-0.08710404
126	0xbd357228	-0.04429832
127	0x3db33a79	0.08751387
128	0xbdab86c7	-0.08375316
129	0x3d2275ab	0.039663
130	0xbd4e1678	-0.050314397
131	0x39563284	0.00020427449
132	0xbd80ccac	-0.06289038
133	0x3b972728	0.004612822
134	0xbd89fae5	-0.067373075
135	0xbd2aaa47	-0.041666295
136	0xbd259e46	-0.040434144
137	0xbb29c065	-0.002590203
138	0xbce75d28	-0.028242663
139	0x3cae3439	0.021265136
140	0x3d200ab1	0.039072696
141	0xbc0cc35a	-0.008591497
142	0x3d58e0f0	0.052948892
143	0xbcfd983a	-0.030956376
144	0x3d25e5a9	0.040502224
145	0xbd089eed	-0.03335469
146	0x3c0701ce	0.008240176
147	0x3d1c5089	0.03816274
148	0xbd3aa9e8	-0.04557219
149	0xbd048525	-0.03235354
150	0x3cd355d9	0.025797771
151	0x3a047edc	0.0005054304
152	0x3d19e381	0.03757048
153	0x3d3ed2ae	0.04658764
154	0x3c9d69df	0.019215522
155	0x3d064e7f	0.032789703
156	0x3a4d5f75	0.00078343536
157	0xbccf22eb	-0.025285205
158	0xbd253b1d	-0.040339578
159	0x3dabb681	0.08384419
160	0x3d283bfe	0.041072838
161	0xbcd667ba	-0.026172508
162	0x3ceb23de	0.028703626
163	0x3cad1c75	0.021131733
164	0x3ca79094	0.020454682
165	0xbcb4e689	-0.022082584
166	0xbd3ff8c7	-0.046868112
167	0xbdba3ad0	-0.09093249
168	0xbb9ecd29	-0.0048462343
169	0xbd887b74	-0.06664172
170	0xbcfa6c2e	-0.030569162
171	0xbb6a42cc	-0.003574538
172	0x38f32b74	0.00011595237
173	0x38532335	5.033911e-05
174	0xbd9ac550	-0.075571656
175	0xbd44fee1	-0.048094634
176	0xbd7cb3f8	-0.06169507
177	0xbd0f28a0	-0.034950852
178	0xbcd8bc2e	-0.026456919
179	0xbc8cf3c8	-0.017206088
180	0xb90579cd	-0.00012729243
181	0xbcec1de9	-0.028822856
182	0xbb7bf85f	-0.0038447601
183	0xbd990608	-0.074718535
184	0xba780d64	-0.00094624446
185	0xbddcef2a	-0.107878044
186	0x3c08943d	0.008336124
187	0xbce67317	-0.028131051
188	0xbce37947	-0.02776779
189	0x3d8b2efc	0.06796071
190	0x3b6fcb28	0.0036589596
191	0x3c047f8a	0.008087048
192	0x3c0c3fef	0.008560165
193	0x3c8cc026	0.017181467
194	0xbcfcc31f	-0.03085476
195	0xbc0e3437	-0.008679441
196	0x3d256c29	0.040386353
197	0xbd0dda6f	-0.034632143
198	0x3cd89155	0.026436487
199	0xbd25e95e	-0.04050576
200	0x3d6fdb29	0.058558617
201	0xbd004905	-0.031319637
202	0x3cf86f4a	0.030326504
203	0xbd7ae921	-0.061257485
204	0x3cd3889f	0.025821982
205	0xbcab4c0c	-0.020910285
206	0x3b17f67b	0.0023187685
207	0x3de16777	0.110060625
208	0xbd93de91	-0.072201855
209	0x3c8912cd	0.016732598
210	0x3cd99d99	0.026564406
211	0x3d4d6ba7	0.050151493
212	0x3c093be8	0.008376099
213	0xbc982b8c	-0.018575452
214	0xbd07d3e3	-0.033161055
215	0x3ca1ff78	0.019775137
216	0xb9789afa	-0.00023708856
217	0x3c5bf280	0.013424516
218	0x3d607e95	0.054808218
219	0xbd16e10d	-0.03683572
220	0x3d09a45e	0.03360402
221	0x3c554997	0.0130180335
222	0x3cc9c103	0.024628168
223	0x3d709c3f	0.058742758
224	0xbce9506f	-0.028480737
225	0xbbbb762b	-0.005720874
226	0xbd909a64	-0.07060698
227	0xbc978844	-0.018497594
228	0xbd89699b	-0.06709596
229	0x3d212fb4	0.039352134
230	0xbcc9f77b	-0.02465414
231	0x3d05500f	0.032547053
232	0xbd0bf188	-0.03416589
233	0x3ca63f60	0.020293891
234	0x3d7cf84d	0.061760236
235	0x3d059a8c	0.03261809
236	0x3c045102	0.008075954
237	0x3d523890	0.051323473
238	0xbc9b76c3	-0.018977528
239	0xbc4a91be	-0.012363849
240	0xbd5b2687	-0.05350354
241	0x3ca8dc11	0.020612748
242	0xbd291220	-0.04127705
243	0xbcb0999c	-0.021557622
244	0xbc5a84a3	-0.013337287
245	0x3d023c1f	0.031795617
246	0x3ba72925	0.0051013404
247	0xbda139e8	-0.07872373
248	0x3d0064fc	0.031346306
249	0xbd0dfbad	-0.034663845
250	0xbda1bef0	-0.078977466
251	0x3d900c30	0.070335746
252	0xbc370e01	-0.011172772
253	0x3d7552ac	0.059893295
254	0xbd89404e	-0.06701718
255	0x3d92827c	0.07153794

weight f4 [100, 46]
0	0xbdfb273d	-0.122633435
1	0xbd580119	-0.05273542
2	0xbd933698	-0.07188147
3	0x3cbd9283	0.023141151
4	0x3d15ba63	0.036554705
5	0x3d993e46	0.07482581
6	0x3e05d2ef	0.13068746
7	0x3d1a6bc2	0.037700422
8	0xbdb16d1f	-0.08663391
9	0xbc953272	-0.01821253
10	0x3c2191d8	0.009861432
11	0x3df0ce8a	0.11758144
12	0xbdd9ba50	-0.106312394
13	0x3e205259	0.15656413
14	0xbb83c0f7	-0.004020806
15	0x3e0a823f	0.13526247
16	0xbdf09b24	-0.11748341
17	0xbd1c5b75	-0.038173158
18	0xbb957152	-0.004560628
19	0x3cc51c40	0.024061322
20	0x3d002eb8	0.031294554
21	0x3d1b7684	0.037954822
22	0xbdd9efda	-0.10641451
23	0xbd21d95d	-0.039513934
24	0x3de73d94	0.11291042
25	0xbd8ebca8	-0.06969577
26	0x3cc700c7	0.024292363
27	0xbd9bc010	-0.076049924
28	0xbe0fe66f	-0.14052747
29	0x3c17c821	0.009264023
30	0x3d374837	0.044746604
31	0xbd89f2c6	-0.067357585
32	0xbd339898	-0.043846697
33	0xbca34d06	-0.019934189
34	0x3d489085	0.04896595
35	0xbdc5c989	-0.096575804
36	0xbb5f62a2	-0.003408589
37	0x3c15756e	0.009122236
38	0xbd47adb7	-0.04874965
39	0xbd18e054	-0.03732331
40	0xbde9c145	-0.11413816
41	0x3e1e1e5a	0.15441266
42	0x3c0d2529	0.008614817
43	0x3da7ce38	0.0819363
44	0xbcaca87e	-0.021076437
45	0x3e1bbdd0	0.15209126
46	0xbe10cbbd	-0.1414022
47	0x3d4edbfa	0.050502755
48	0x3dad9cc5	0.08477167
49	0xbdecc54f	-0.11561071
50	0xbddb5970	-0.10710418
51	0x3e141d31	0.1446426
52	0xbcda82df	-0.026673732
53	0x3d09e12e	0.033662014
54	0x3b0e4b97	0.0021712536
55	0xbe02df85	-0.12780578
56	0xbd646e92	-0.05576951
57	0x3e007e97	0.1254829
58	0xbd3e7de9	-0.046506796
59	0x3c66c7b9	0.0140857035
60	0x3c81629f	0.015794097
61	0xbdc231f1	-0.09482182
62	0x3de60fb1	0.11233462
63	0x3e0962dc	0.13416618
64	0x3dd42b22	0.103597894
65	0xbc4dc3e8	-0.012558915
66	0x3ceac63f	0.028658984
67	0xbdd75baa	-0.105155304
68	0x3da12767	0.078688435
69	0x3d6e808d	0.058228064
70	0xbdca4df5	-0.098781504
71	0xbdcc7ef9	-0.099851556
72	0xbd8f0645	-0.06983618
73	0x3ce8e8c9	0.028431313
74	0xbdf76a0e	-0.12080775
75	0x3cf13589	0.029444473
76	0x3db635d8	0.08896989
77	0xbd4b9b49	-0.04970864
78	0xba9a2804	-0.0011761193
79	0x3cccac8c	0.02498462
80	0x3dfe5cc5	0.12420038
81	0x3d83fb38	0.064444005
82	0xbe0afbcf	-0.1357262
83	0xbe22b509	-0.15889372
84	0xbdce57ab	-0.10075315
85	0xbd09ba5a	-0.033624984
86	0x3d741a56	0.05959543
87	0x3d1bcc48	0.038036615
88	0xbcf9aeca	-0.030478854
89	0xbc31ecd9	-0.010859692
90	0x3d264d0d	0.040600825
91	0x3c8f0ee5	0.017463157
92	0xbd6847a6	-0.056708954
93	0x3e033cdf	0.12816189
94	0x3cf0c51d	0.029390866
95	0x3bc4c868	0.0060053356
96	0xbcfa1f43	-0.030532485
97	0xbda1cbfb	-0.07900234
98	0xb9ff3cdc	-0.00048682734
99	0x3e133d17	0.14378773
100	0x3c9035cb	0.017603775
101	0x3b9706e5	0.004608976
102	0xbe267145	-0.16254146
103	0xbd6db342	-0.05803228
104	0x3c50e984	0.012750987
105	0xbdb7fd28	-0.089838326
106	0x3c922a11	0.017842324
107	0xbe05d1bf	-0.13068293
108	0x3e1da3e0	0.15394545
109	0x3d9b0028	0.07568389
110	0xbb5abd76	-0.0033377088
111	0x3b113829	0.0022158718
112	0xbcee6c03	-0.029104238
113	0x3df4f902	0.11961557
114	0x3ceb8092	0.02874783
115	0xbd497a26	-0.049188755
116	0x3d055f0b	0.032561343
117	0x3da86f62	0.082243696
118	0x3d002661	0.0312866
119	0xbde63dfe	-0.11242293
120	0xbbbdfd08	-0.005797986
121	0xbd719974	-0.058984235
122	0xbe0d6842	-0.13809302
123	0x3cc1a903	0.023640161
124	0xbd70bf27	-0.058776047
125	0xbd4247e5	-0.047431845
126	0x3cc50787	0.02405144
127	0xbd1feefe	-0.03904628
128	0x3d2002b3	0.039065074
129	0xbb54093d	-0.003235414
130	0x3e1015ba	0.14070788
131	0xbe092fd3	-0.1339715
132	0x3c1a4a3d	0.009417114
133	0xbcb09535	-0.021555522
134	0xbdd83872	-0.10557641
135	0xbd6ee93f	-0.05832791
136	0x3dd300b7	0.10302871
137	0xbdaeb6c5	-0.08530954
138	0x3d060405	0.032718677
139	0x3d34dfb3	0.04415865
140	0xbc937202	-0.0179987
141	0xbdbbbaf2	-0.09166516
142	0xbddc8767	-0.107680134
143	0xbdbef311	-0.09323705
144	0x3dc98f74	0.09841815
145	0xbd61a0ac	-0.05508487
146	0x3dcccf1e	0.10000442
147	0xbd9b470c	-0.075819105
148	0x3e078f5a	0.13238278
149	0xbcf97ae1	-0.030454101
150	0xbcbcd8ef	-0.02305266
151	0xbdd1052a	-0.10206063
152	0xbd10b16a	-0.035325445
153	0x3db0976e	0.08622633
154	0x3e2a2190	0.16614366
155	0xbdf30b21	-0.11867357
156	0x3e096e2b	0.13420932
157	0x3df49a0b	0.11943444
158	0xbd62d47a	-0.055378415
159	0xbdf18f2b	-0.11794885
160	0x3cc36a58	0.02385442
161	0xbd910ae1	-0.07082153
162	0x3e20ecb1	0.1571529
163	0xbd867597	-0.06565397
164	0x3da52212	0.08063139
165	0x36b73c10	5.460817e-06
166	0x3d9a9c46	0.07549338
167	0x3c16419c	0.009170916
168	0x3d191cb1	0.037380878
169	0xbda973cb	-0.08274039
170	0xbd39d184	-0.045365825
171	0xbd13a427	-0.03604522
172	0x3d076e74	0.03306432
173	0x3d681843	0.056663763
174	0xbda3e4d5	-0.080026306
175	0xbdd60c2e	-0.10451542
176	0xbdc80cf4	-0.097680956
177	0xbce53255	-0.027978102
178	0xbdf4fd52	-0.119623795
179	0x3e11ca55	0.1423734
180	0xbd8e32bd	-0.06943271
181	0x3dad43ea	0.08460219
182	0x3dc11f09	0.094297476
183	0x3cf7325e	0.030175384
184	0xbd61bfb0	-0.055114448
185	0x3c8c2322	0.017106596
186	0xbd19de6f	-0.037565645
187	0x3d3dd2fe	0.046343796
188	0x3d79e08a	0.061005153
189	0x3c90910d	0.01764729
190	0x3c0366e4	0.0080201365
191	0x3c778fea	0.015109995
192	0x3d6e28d5	0.05814441
193	0xbd745317	-0.059649553
194	0x3d2c14d0	0.042012036
195	0x3cdfc13b	0.02731382
196	0x3e1246b9	0.14284791
197	0xbd8b31d9	-0.06796617
198	0xbe1e18dd	-0.15439172
199	0xbc3ba646	-0.011453217
200	0xbe00d91d	-0.12582822
201	0x3c8af16f	0.016960828
202	0xbe0d021d	-0.13770337
203	0x3d2ae872	0.041725583
204	0xbdbe55ec	-0.09293732
205	0xbdeb2f27	-0.11483603
206	0x3e0daa14	0.13834411
207	0x3dae1ee6	0.08501987
208	0x3e1769fb	0.14786522
209	0x3e2449da	0.16043797
210	0x3d067c57	0.032833423
211	0xbd8d8791	-0.06910623
212	0xbddd844b	-0.108162485
213	0x3dd3fdc0	0.10351133
214	0xbde45076	-0.11148159
215	0x3e1818b1	0.14853169
216	0xbe019365	-0.12653883
217	0xbd8d23a3	-0.06891563
218	0xbdfbbb75	-0.12291614
219	0x3e065a18	0.13120306
220	0xbd6518fa	-0.055932023
221	0xbba219ed	-0.0049469383
222	0xbdef45cb	-0.11683234
223	0xbe13a2d9	-0.1441759
224	0x3d976714	0.073927075
225	0xbe24b973	-0.16086368
226	0xbc853fc0	-0.01626575
227	0x3ddbf86e	0.107407436
228	0xbd5949ea	-0.053049006
229	0xbdb3d6ff	-0.087812416
230	0xbde16d14	-0.11007133
231	0x3cc772b0	0.02434668
232	0xbdb0ce7f	-0.08633136
233	0x3e066a60	0.13126516
234	0xbca32b4d	-0.019918108
235	0x3c2c2152	0.010505991
236	0x3dfe3200	0.124118805
237	0x3ba62902	0.0050708065
238	0x3d47caec	0.048777506
239	0x3c93ba5a	0.018033195
240	0x3e0f89ec	0.14017457
241	0x3db53b92	0.08849253
242	0x3d49f5db	0.04930673
243	0xbd823d8e	-0.06359397
244	0xbd7d9dab	-0.061917942
245	0x3d539591	0.05165631
246	0xbd312d28	-0.043255955
247	0xbb504dc8	-0.0031784642
248	0xbe000462	-0.12501672
249	0x3da31ec6	0.07964854
250	0x3d5bf964	0.053704634
251	0xbcba57ea	-0.022746999
252	0xbbf421ce	-0.007450319
253	0x3da54d1d	0.08071349
254	0x3d7416f2	0.059592195
255	0xbd989c69	-0.07451708

bias f4 [100]
0	0x3d84c362	0.06482579
1	0xbca46543	-0.020067817
2	0xbd1304a3	-0.035893094
3	0xbca2d96d	-0.019879067
4	0x3d89c9cb	0.06727942
5	0xbdfc6018	-0.12323016
6	0x3de1cc36	0.11025278
7	0x3d536f27	0.051619675
8	0x3d9686bd	0.07349918
9	0x3df4f679	0.119610734
10	0xbc4de71c	-0.012567308
11	0x3e0f7032	0.14007643
12	0x3de60978	0.11232275
13	0x3a1432a1	0.0005653296
14	0x3e1d59e2	0.15366319
15	0xbdb432fb	-0.08798786
16	0x3b07ffde	0.0020751874
17	0xbe077bb2	-0.1323078
18	0x3d44ce90	0.048048556
19	0x3dce6e40	0.10079622
20	0x3ddbe707	0.10737424
21	0xbdce4b03	-0.10072901
22	0xbd4a02ac	-0.049318954
23	0x3c713864	0.014722917
24	0x3dddf5ff	0.10837936
25	0x3deef202	0.11667253
26	0xbdf37a99	-0.11888618
27	0xbe0588ea	-0.1304051
28	0x3dfae552	0.12250771
29	0xbbb92ab1	-0.005650841
30	0xbdb42a10	-0.08797085
31	0xbd7d62f8	-0.061861962
32	0x3e1c4903	0.15262227
33	0x3cfd14bc	0.030893676
34	0x3c68cd03	0.014209035
35	0x3e00217e	0.12512776
36	0xbdacb354	-0.084326416
37	0xbc2ca380	-0.010537028
38	0x3da5b68e	0.0809146
39	0x3e0a0e58	0.13482034
40	0xbdeb2191	-0.11481012
41	0xbdc1405f	-0.09436106
42	0xbe24d68b	-0.16097467
43	0xbe08312c	-0.13300008
44	0xbdfda9b5	-0.12385885
45	0xbd01a1ed	-0.031648565
46	0x3d8a8f28	0.06765586
47	0xbda53c17	-0.08068102
48	0xbe11b1d1	-0.14227988
49	0x3d90e24b	0.07074412
50	0x3d53f303	0.051745426
51	0xbe2326a0	-0.15932703
52	0xbdc2ac66	-0.09505539
53	0xbd113c8a	-0.035458125
54	0x3da6cec4	0.08144906
55	0x3c780e51	0.015140132
56	0x3d96c3f1	0.073615916
57	0x3c904edf	0.017615734
58	0x3d178c77	0.036999192
59	0xbdab5b67	-0.08367043
60	0x3c8ba725	0.017047474
61	0xbd19f13e	-0.037583582
62	0x3deddbba	0.11614175
63	0xbda5a9be	-0.080890164
64	0xbdd19aa1	-0.10234571
65	0xbde2ae3e	-0.1106839
66	0x3d857773	0.06516924
67	0xbcd192de	-0.025582727
68	0xbc33702d	-0.010952038
69	0x3d8aab53	0.06770959
70	0x3d250ee5	0.040297408
71	0x3e06ba8e	0.13157102
72	0xbde7cdba	-0.11318536
73	0x3dcfe9b0	0.10151994
74	0xbd02795e	-0.031854026
75	0xbcf0a87d	-0.029377216
76	0xbc1ed385	-0.009693985
77	0x3d2a1776	0.04152628
78	0xbd830946	-0.06398253
79	0xbd9075c7	-0.07053714
80	0xbe0016c9	-0.12508692
81	0xbdd12eb4	-0.10213986
82	0x3e0a9a18	0.13535345
83	0xbdcebcf5	-0.100946344
84	0x3d34c686	0.04413464
85	0x3df99d30	0.12188184
86	0xbdcb2d42	-0.099207416
87	0x3d91a83c	0.07112166
88	0x3d8b5e3a	0.06805082
89	0x3c084087	0.008316166
90	0xbd7cce28	-0.061720043
91	0xbdb4652d	-0.0880836
92	0xbc971b61	-0.018445672
93	0xbcb0dc9f	-0.021589575
94	0xbdea19da	-0.11430712
95	0xbdb4886e	-0.088150844
96	0xbd50ffb0	-0.051025093
97	0xbdda00e5	-0.10644702
98	0xbe297402	-0.1654816
99	0x3db42c21	0.087974794

weight f4 [400, 100]
0	0xbd318d83	-0.043347847
1	0xbd030e1a	-0.03199587
2	0xbde126bb	-0.109937154
3	0xbcd08920	-0.025456011
4	0xbd1038ac	-0.035210297
5	0x3c984acf	0.018590359
6	0x3d936cfc	0.071985215
7	0x3ce339ae	0.027737465
8	0xbda9f41c	-0.08298513
9	0xbc5c5f2a	-0.013450423
10	0xbd01a3a3	-0.031650197
11	0xbd9c704d	-0.07638607
12	0xbd141a00	-0.036157608
13	0x3dc3077a	0.095229104
14	0x3d62367f	0.055227753
15	0xbd96890e	-0.0735036
16	0xbc4c179a	-0.012456799
17	0x3c90520b	0.017617246
18	0xbd4c1998	-0.049829096
19	0xbd568131	-0.0523693
20	0xbaa432df	-0.0012527368
21	0x3daefaff	0.085439675
22	0x3d73933e	0.059466593
23	0x3c00208c	0.00782026
24	0x3da58b28	0.080831826
25	0x3ceae229	0.028672295
26	0x3db3f269	0.087864704
27	0xbd23cf9f	-0.039992925
28	0xbcd9539c	-0.026529126
29	0xbd0ec0ed	-0.034851957
30	0xbda7fc29	-0.082023926
31	0x3d364c9c	0.044506654
32	0xbb72d7c2	-0.0037054871
33	0xbbd117fb	-0.0063810325
34	0x3c5e2a48	0.013559885
35	0x3d80b452	0.06284393
36	0xbddb140d	-0.10697184
37	0xbdd79ff5	-0.10528556
38	0x3d861a96	0.065480396
39	0x3d7021b1	0.05862588
40	0xbdcdc1b5	-0.10046712
41	0xbb4f88ea	-0.00316673
42	0xbd8d215a	-0.06891127
43	0x3d9fe539	0.078073926
44	0xbda0029f	-0.07813
45	0xbd9ee9cf	-0.07759439
46	0x3de0455e	0.10950731
47	0x3d1d95dc	0.038472995
48	0x3dff63f4	0.124702364
49	0xbdd0b683	-0.10191061
50	0x3d5653d0	0.052326024
51	0x3d801e2c	0.06255755
52	0xbd6b1bb8	-0.05739948
53	0xbdab481f	-0.083633654
54	0x3da92435	0.08258859
55	0xbd08c467	-0.03339043
56	0xbd39fcea	-0.045407213
57	0xbdb0cc6a	-0.08632739
58	0x3dec5462	0.11539532
59	0xbd7a4839	-0.061104033
60	0xbc9ac3ac	-0.018892132
61	0xbdb8573d	-0.090010144
62	0xbc8b0c39	-0.016973602
63	0xbdb49aa8	-0.08818561
64	0xbcaafd0f	-0.02087262
65	0x3d88387f	0.06651401
66	0x3d44e2d4	0.048067883
67	0xbdb91cc9	-0.090386935
68	0x3b65fda8	0.0035093818
69	0xbd8cd708	-0.068769515
70	0xbd6f866f	-0.058477815
71	0xbbaf98dd	-0.005358799
72	0x3d8c9782	0.06864835
73	0xbc84b5ae	-0.016199913
74	0xbdb99e10	-0.09063351
75	0x3c784309	0.015152701
76	0xbbf8b451	-0.0075898548
77	0x3d9df686	0.07713036
78	0xbb187df7	-0.002326844
79	0x3ca21526	0.019785475
80	0xbd291484	-0.04127933
81	0xbb2c21ba	-0.002626522
82	0xbcc0926e	-0.023507323
83	0x3d11abb9	0.035564158
84	0xbcc65649	-0.024211066
85	0x3c384439	0.011246734
86	0x3d4fa181	0.05069113
87	0x3d31a79b	0.04337273
88	0xbdc3021a	-0.09521885
89	0xbda944b6	-0.08265059
90	0xbd213f32	-0.03936691
91	0x3cc980e7	0.024597598
92	0x3d9d7f90	0.07690346
93	0x3d827e82	0.06371786
94	0xbcc221db	-0.023697784
95	0x3cd783f4	0.026308037
96	0x3db1b16d	0.086764194
97	0xbd86d58a	-0.06583698
98	0x3d11d13b	0.03559993
99	0x3af06702	0.0018341246
100	0x3d8422af	0.06451928
101	0x3ce7348a	0.028223295
102	0xbdccfaad	-0.1000875
103	0x3dc4a16d	0.09601102
104	0xbdd05296	-0.10172002
105	0xbd84f909	-0.06492812
106	0x3d6a369a	0.05718098
107	0x3d9d56d8	0.0768258
108	0xbdae19a2	-0.08500983
109	0x3dc3a514	0.095529705
110	0x3d777621	0.06041539
111	0x3d093059	0.033493374
112	0xbdcf46d3	-0.101209305
113	0xbd8f0d39	-0.06984944
114	0xbd6cae63	-0.057783496
115	0xbd775036	-0.06037923
116	0x3dbb9c9e	0.09160732
117	0x3d97eded	0.074184276
118	0x3dc01cfe	0.0938053
119	0x3d8b91d3	0.06814923
120	0xbdc2b842	-0.09507801
121	0xbd8d4759	-0.06898374
122	0x3d89faca	0.06737287
123	0x3cda5e90	0.026656419
124	0xbcf3e783	-0.02977348
125	0x3c8de996	0.017323297
126	0xbdc542c3	-0.096318744
127	0xbd892a4f	-0.06697523
128	0x3cab1035	0.020881752
129	0x3db22941	0.08699275
130	0x3d8d91ab	0.069125496
131	0xba814c80	-0.0009864718
132	0xbd29866d	-0.041387964
133	0xbd366832	-0.044532962
134	0xbd30b82e	-0.043144397
135	0x3d2869a1	0.04111636
136	0x3dc128f8	0.09431642
137	0xbc061d9b	-0.008185769
138	0x3d9b4379	0.07581229
139	0x3d3a9bff	0.045558926
140	0xbcb92c16	-0.02260403
141	0x3dd9d1cd	0.106357194
142	0x3d24ac84	0.040203586
143	0xbc90be22	-0.017668787
144	0x3ccaa7f0	0.024738282
145	0xbd26583b	-0.040611487
146	0xbd52f57c	-0.051503643
147	0x3dc14375	0.094366945
148	0x3d64c174	0.055848554
149	0xbdb15d83	-0.08660414
150	0xbd2370f9	-0.03990266
151	0xbd9f020b	-0.077640615
152	0x3d8cf9a6	0.06883554
153	0xbc9d8f33	-0.019233322
154	0xbd72c53f	-0.05927014
155	0x3d58a966	0.052895926
156	0x3d36f827	0.04467025
157	0x3dc35e9c	0.0953953
158	0x3de727a2	0.11286856
159	0x3d916e83	0.071011566
160	0xbdc3538c	-0.0953742
161	0xbaea3ba5	-0.0017870559
162	0x3db3c457	0.08777683
163	0x3c241a9c	0.01001611
164	0xbc905809	-0.017620103
165	0x3cc5d9c8	0.024151698
166	0x3da745e7	0.0816763
167	0xbe017c95	-0.1264518
168	0xbd2d18ce	-0.042259984
169	0x3d84c822	0.06483485
170	0xbcb24665	-0.021762082
171	0x3d229b4c	0.039698884
172	0x3d866335	0.06561891
173	0xbca87546	-0.020563733
174	0x3da6b2be	0.08139561
175	0xbdc6ce99	-0.09707374
176	0xbd9c8799	-0.07643051
177	0xbd52bb31	-0.05144805
178	0xbdd05560	-0.10172534
179	0xbd142900	-0.036171913
180	0xbcde2e07	-0.027121557
181	0x3b3a8240	0.0028458983
182	0x3d0c042c	0.034183666
183	0x3d8b3424	0.067970544
184	0x3d2e2836	0.042518817
185	0x3c80ceb8	0.015723571
186	0xbd9748b0	-0.07386911
187	0x3d1f3280	0.03886652
188	0x3d6e1cd2	0.058132954
189	0x3d47498f	0.048654135
190	0x3cc13776	0.023586016
191	0x3db2733b	0.08713385
192	0x3dcfb9cd	0.101428606
193	0xbc5c6ebe	-0.013454137
194	0x3c4febbc	0.012690481
195	0x3d376870	0.044777334
196	0xbc5176cd	-0.012784672
197	0x3c8b4006	0.016998302
198	0x3c828083	0.01593042
199	0x3d30a6de	0.043127887
200	0x3d96a1be	0.073550686
201	0xbdd88ce4	-0.10573748
202	0xbd8c730c	-0.06857881
203	0x3cce53a5	0.02518637
204	0x3dbe4c3d	0.09291885
205	0xbb9ccec8	-0.0047853924
206	0x3de52863	0.11189344
207	0xbd861313	-0.06546607
208	0x3d991e39	0.07476468
209	0x3d754335	0.059878547
210	0x3d9700f7	0.07373231
211	0x3c81a17c	0.015824072
212	0x3d8e7cb8	0.06957382
213	0xbdc4fca3	-0.09618499
214	0xbdb1c006	-0.08679204
215	0xbdac1ede	-0.08404325
216	0x3d152a81	0.036417488
217	0x3e004d25	0.12529428
218	0xbdae63ac	-0.08515105
219	0xbc940c7c	-0.01807236
220	0x3d858ba1	0.06520773
221	0xbdd1e28d	-0.10248289
222	0xbdabd136	-0.08389513
223	0x3dea4d97	0.1144058
224	0x3dc8c09f	0.098023646
225	0xbd81d274	-0.06338969
226	0x3d89dc8f	0.06731521
227	0xbb8b881d	-0.0042581693
228	0xbd50be1f	-0.050962564
229	0xbd2dae43	-0.042402517
230	0xbc5e4f01	-0.013568641
231	0xbcee5c2c	-0.029096685
232	0x3d1652d2	0.036700077
233	0xbe10bcff	-0.14134596
234	0xbdaca4ea	-0.08429892
235	0xbd606711	-0.05478579
236	0x3bec4fe2	0.007211671
237	0x3de30b8e	0.11086188
238	0xbc51e848	-0.012811728
239	0x3d858ab2	0.06520595
240	0x3d07a7ad	0.033118892
241	0xbbcd357c	-0.0062624793
242	0xbd237265	-0.039904017
243	0x3d7b8b5e	0.061412208
244	0xbd834eef	-0.0641154
245	0xba4763e5	-0.0007606133
246	0xbd3b6a2a	-0.045755543
247	0xbd7de55c	-0.061986312
248	0x3d866bd8	0.06563538
249	0x3dc129f4	0.0943183
250	0x3c185e54	0.009299833
251	0xbd0d4e9f	-0.034498807
252	0xbd9ca19e	-0.076480135
253	0xbcecc86c	-0.028904162
254	0x3bf5d60c	0.007502323
255	0xbda2bbd9	-0.07945985

bias f4 [400]
0	0xbc8e05f4	-0.017336823
1	0xbc508b1a	-0.012728477
2	0xbd9e2301	-0.0772152
3	0x3d032976	0.032021962
4	0xbd7aeca0	-0.06126082
5	0x3d84ff6b	0.064940296
6	0xbd4bb0df	-0.049729224
7	0xbd719cd4	-0.058987454
8	0x3be9dc5d	0.007136865
9	0x3c40ed45	0.011775319
10	0xbd3ee2d4	-0.04660304
11	0x3d88536d	0.06656537
12	0xbd95437f	-0.072882645
13	0xbdbf0f66	-0.09329109
14	0xbcc784d7	-0.024355335
15	0x3d822888	0.06355387
16	0x3d9d5d47	0.07683807
17	0xbcadcb64	-0.021215148
18	0xbc8930c9	-0.016746895
19	0x3d97c39b	0.07410356
20	0xbd93b64c	-0.07212505
21	0xbd59a13d	-0.053132284
22	0xbd50b679	-0.05095527
23	0xbc3a23f1	-0.011361108
24	0x3d093ace	0.033503346
25	0xbc18ddcb	-0.009330223
26	0xbd75e226	-0.060030125
27	0xbd532c5c	-0.051555976
28	0xbd9b4674	-0.07581797
29	0x3caa8087	0.02081324
30	0x3cbc1177	0.022957547
31	0x3d3fa69f	0.04678976
32	0x3d9435df	0.072368376
33	0xbce7deba	-0.028304446
34	0xbd899826	-0.06718473
35	0x3d3c977f	0.046042915
36	0xbcd68571	-0.026186677
37	0x3c8956c3	0.016765004
38	0xbd444fa8	-0.04792753
39	0x3d7af983	0.06127311
40	0xbc6a1575	-0.014287342
41	0xbd1b11b9	-0.0378587
42	0xbd446b28	-0.047953755
43	0xbc2389b5	-0.009981562
44	0x3daecef5	0.08535568
45	0xbdb7325e	-0.08945154
46	0x3d859edb	0.0652444
47	0x3c3e61f3	0.011620033
48	0x3d8e0fe2	0.06936623
49	0x3d4ad470	0.049519002
50	0x3ced6ef8	0.028983578
51	0xbd922d13	-0.071375035
52	0xbc0e02ee	-0.008667691
53	0x3c36b8b8	0.011152439
54	0x3d619aee	0.055079393
55	0xbde727fd	-0.11286924
56	0xbd0b904e	-0.034073167
57	0xbcac0686	-0.020999204
58	0xbd019b54	-0.031642273
59	0xbd35049c	-0.04419385
60	0x3d8893ec	0.06668839
61	0xbd137c12	-0.036006995
62	0x3d5da42f	0.054111656
63	0x3b0cff93	0.0021514639
64	0x3d0ab983	0.033868324
65	0x3da0fa37	0.07860225
66	0xbd939ff7	-0.07208245
67	0xbd5b2209	-0.053499255
68	0x3dc0a28d	0.09406004
69	0x3d22fad9	0.03979001
70	0xbda01502	-0.07816507
71	0x3cffe16c	0.03123542
72	0x3d2bf963	0.04198588
73	0xbdb9bceb	-0.09069236
74	0xbc9a9db4	-0.018874027
75	0xbca98fec	-0.02069851
76	0x3dcd1051	0.10012878
77	0xbd5d665c	-0.054052696
78	0xbd9e73b7	-0.077369146
79	0xbc9cad7c	-0.019125693
80	0x3d3511d8	0.04420647
81	0x3d5ad622	0.05342687
82	0x3cb1ff18	0.021728083
83	0x3c8675f3	0.016413664
84	0xbc9d313c	-0.019188516
85	0xbd8dc9ef	-0.069232814
86	0x3adcee5c	0.0016855705
87	0xbc4a329d	-0.012341169
88	0x3d6901f7	0.05688664
89	0xbce46610	-0.027880698
90	0x3cb8dcd2	0.022566233
91	0xbd82c7a4	-0.06385735
92	0xbd9b5429	-0.07584412
93	0x3da49f23	0.080381654
94	0x3c9bb5ac	0.019007526
95	0xbdf22af9	-0.11824603
96	0x3cc92000	0.024551392
97	0x3d18558d	0.037190963
98	0xbd5e2181	-0.05423117
99	0xbd8748b4	-0.06605664
100	0x3d504d28	0.050854832
101	0x3d44c37f	0.048038002
102	0xbd9f40bc	-0.07776019
103	0xbd86866a	-0.06568606
104	0x3cddd00b	0.027076742
105	0xbdbb0748	-0.09132248
106	0x3d9ec3ce	0.077521905
107	0xbdb8006e	-0.08984457
108	0xbd48652d	-0.048924614
109	0xbc70879a	-0.014680767
110	0xbd194462	-0.03741873
111	0xbdeccbb5	-0.115622915
112	0x3ccb83d6	0.024843138
113	0xbc40be5a	-0.011764133
114	0x3c43c9e6	0.011949992
115	0x3c852f96	0.016258042
116	0x3d21ca09	0.039499316
117	0xbd203ad0	-0.039118588
118	0xbcbf85ca	-0.023379225
119	0xbc3af046	-0.011409825
120	0xbc5e1396	-0.013554474
121	0x3d3c40a7	0.045960095
122	0xbdf26e0e	-0.118373975
123	0x3d0e7c5c	0.034786567
124	0x3da47896	0.080308124
125	0x3c7b8da7	0.015353597
126	0x3cfa0fd9	0.030525135
127	0x3a9213a6	0.0011144772
128	0xbd9bdb63	-0.07610204
129	0xbd66449c	-0.056217775
130	0x3d23d2bd	0.039995898
131	0x3d5e9b66	0.05434742
132	0xbdd33f93	-0.1031486
133	0xbcfa3214	-0.030541457
134	0xbc0eecb7	-0.008723429
135	0x3c0a1c34	0.008429576
136	0x3c98bbf8	0.018644318
137	0x3d029239	0.03187773
138	0x3d2745bd	0.040837992
139	0xbcd23039	-0.02565776
140	0xbd36f019	-0.04466257
141	0x3d26e803	0.040748607
142	0xbd9cd40b	-0.076576315
143	0x3cdb852b	0.026796898
144	0xbdc0466d	-0.09388433
145	0x3c19741f	0.009366064
146	0x3da69293	0.081334256
147	0xbc913063	-0.017723268
148	0x3c20e9e0	0.009821385
149	0x3d38ba20	0.045099378
150	0xbcae7c1c	-0.021299414
151	0xbdc262ef	-0.09491526
152	0x3db7b727	0.089704804
153	0xbd7226f4	-0.05911918
154	0xbdbd1510	-0.09232533
155	0x3d81814b	0.06323489
156	0xbda7aa5f	-0.081867926
157	0x3d51e43f	0.051243063
158	0x3d445957	0.047936764
159	0x3d509685	0.050924797
160	0xbd558e59	-0.052137706
161	0xbd0bc4aa	-0.0341231
162	0xbd006659	-0.031347606
163	0xbc4689d4	-0.012117822
164	0xbd999397	-0.07498854
165	0x3cb5f4ad	0.022211397
166	0xbd5d995b	-0.05410133
167	0xbdc96f6d	-0.09835706
168	0x3ce4a913	0.027912652
169	0xbd45400c	-0.048156783
170	0xbd8c7a06	-0.068592116
171	0xbd5f8847	-0.054573324
172	0xbc71c7e8	-0.014757134
173	0xbda82e01	-0.082118995
174	0x3d15f71f	0.036612626
175	0xbd4b658f	-0.0496574
176	0x3cda0cfc	0.02661752
177	0x3d868cb2	0.06569804
178	0x3c1ee460	0.0096980035
179	0x3b985eed	0.004649988
180	0xbcb338d9	-0.021877693
181	0xbdb5af32	-0.088713065
182	0xbc78958e	-0.015172375
183	0xbc370733	-0.01117115
184	0xbdd0fddf	-0.10204672
185	0xbdfe9270	-0.124302745
186	0x3bf5be1c	0.0074994694
187	0xbc057a59	-0.008146846
188	0xbdbf7afc	-0.09349629
189	0x3beefd69	0.0072933924
190	0x3ddc4fbb	0.10757395
191	0x39ca38f6	0.00038570882
192	0x3c36dbcd	0.011160803
193	0xbd9a5a7f	-0.07536792
194	0x3d475bb0	0.048671424
195	0xbbecadf9	-0.0072228876
196	0xbda88e1f	-0.082302324
197	0x3cc22c40	0.02370274
198	0x3d39925f	0.045305606
199	0x3d41e25e	0.04733502
200	0xbd04cac1	-0.032419924
201	0x3d4a63d5	0.049411613
202	0x3d891080	0.066926
203	0x3d867558	0.0656535
204	0x3da594ea	0.08085044
205	0x3d4bbdef	0.04974168
206	0xbd541025	-0.05177321
207	0xbd417c19	-0.04723749
208	0xbdc34a2a	-0.0953563
209	0xbdc0cd6e	-0.094141826
210	0x3daff346	0.085913226
211	0x3d40101d	0.046890367
212	0xbdb6ef01	-0.08932305
213	0xbcda1b4f	-0.02662435
214	0x3d6f9816	0.05849465
215	0xbdb6d4a9	-0.089272805
216	0xbdcae776	-0.09907429
217	0x3d303baf	0.04302567
218	0x3d93372f	0.0718826
219	0xbd7292a1	-0.059221867
220	0xbdc67ebe	-0.09692143
221	0x3d015edd	0.03158461
222	0xbd068e5b	-0.032850605
223	0xbc0e78be	-0.008695779
224	0x3b779be9	0.0037782139
225	0xbd573754	-0.052543
226	0xbb8e1ea0	-0.004337147
227	0xbd95c6db	-0.07313319
228	0xbd8debc4	-0.06929734
229	0xbd9423df	-0.07233404
230	0x3d86fc63	0.06591108
231	0xbdb2a823	-0.08723476
232	0x3d4a847d	0.049442757
233	0xbd92af93	-0.071623944
234	0xbda8b7fc	-0.08238217
235	0xbce8cec1	-0.0284189
236	0x3d8c89e8	0.06862241
237	0xbc0bd620	-0.008534938
238	0x3d82c074	0.06384364
239	0xbccaaf86	-0.0247419
240	0x3d59cee1	0.05317581
241	0x3d02aaba	0.0319011
242	0x3a635751	0.0008672374
243	0xbca22596	-0.019793313
244	0xbc953ce3	-0.01821751
245	0xbcd60e6c	-0.026129924
246	0x3d8c4a59	0.06850118
247	0xbd006ff9	-0.031356785
248	0xbdcc20a3	-0.099671625
249	0xbc667825	-0.014066731
250	0x3d564fe8	0.0523223
251	0xbce7a3bc	-0.028276317
252	0xbd93ec86	-0.07222848
253	0xbdf0859a	-0.117442325
254	0xbd900c49	-0.07033593
255	0xbdf8a626	-0.12141065

weight f4 [400, 400]
0	0x3ba294bb	0.0049615777
1	0xbac1ab89	-0.0014775853
2	0x3c84c9f5	0.016209582
3	0xbd240c77	-0.04005095
4	0x3d6d4e6c	0.057936117
5	0x3d14a600	0.036291122
6	0xbd61890b	-0.055062335
7	0xbd651227	-0.055925515
8	0x3d2f45e9	0.04279128
9	0x3d1e3ff0	0.038635194
10	0xbc9e261f	-0.019305287
11	0xbc9282b6	-0.017884593
12	0x3a4a4ba5	0.00077169604
13	0x3d388acc	0.045054242
14	0x3d0ca873	0.034340333
15	0x3ca0a19a	0.019608308
16	0xbd0bbb5b	-0.034114223
17	0xbd10a007	-0.035308864
18	0x3d065862	0.032799132
19	0x3ce74440	0.028230786
20	0xbd0c1bbb	-0.034206133
21	0x3ccac33b	0.024751296
22	0x3bd0a52c	0.0063673463
23	0xbc6f0e8d	-0.0145908715
24	0x3cb9e1e3	0.022690719
25	0xbb4f3b1f	-0.0031620932
26	0x3c800e18	0.01563172
27	0xbd035fc3	-0.032073747
28	0x3d31fe16	0.043455206
29	0xbd9877d5	-0.07444731
30	0x3aa9ca72	0.001295401
31	0x3ab42994	0.0013745301
32	0x3d21b33a	0.039477564
33	0x3cff94b4	0.031198837
34	0x3c56c3d9	0.013108217
35	0x3b7f0e74	0.0038918527
36	0x3ba78158	0.0051118545
37	0xbc00752d	-0.007840437
38	0x3d3d84c4	0.046269193
39	0x3ab5ae41	0.0013861136
40	0x3d014aff	0.031565662
41	0x3c2adaa6	0.010428106
42	0x3d1b58c9	0.03792647
43	0x3c9c1945	0.019055018
44	0x3c4a7ab2	0.012358354
45	0x3d0352ab	0.03206126
46	0xbd755281	-0.059893135
47	0x3c86a6fe	0.01643705
48	0xbc9110f2	-0.017708275
49	0xbd42d557	-0.047566738
50	0xbc8fd8b4	-0.017559387
51	0xbd2e5883	-0.04256488
52	0x3d4f68bd	0.050636996
53	0x3cfe2055	0.031021276
54	0xbc718708	-0.014741667
55	0xbc994c91	-0.018713268
56	0x3c2992d3	0.010349947
57	0x3c881423	0.016611164
58	0xbc242eae	-0.010020895
59	0xbd87933c	-0.066198796
60	0x3c6b8402	0.014374735
61	0x3cd21380	0.025644064
62	0x3d3473bf	0.044055697
63	0x3cd2cfed	0.025733912
64	0xbc30d76f	-0.010793551
65	0xbc7c64a0	-0.01540485
66	0xbcee21c2	-0.029068831
67	0xbc1118b5	-0.008855988
68	0xbddd72c8	-0.108129084
69	0xbce59fd7	-0.02803032
70	0x3c853d73	0.016264653
71	0x39220d2e	0.00015454434
72	0xbdb51dcf	-0.08843576
73	0x3d32ea04	0.043680206
74	0x3d558bda	0.052135326
75	0x3b80af35	0.0039271363
76	0x3d17edf5	0.037092168
77	0xbd0e21dc	-0.03470026
78	0x3d528575	0.051396806
79	0xbb8a2da0	-0.0042168647
80	0x3c5a9da3	0.013343248
81	0x3bdc5f8d	0.0067252577
82	0xbb9204aa	-0.0044561224
83	0x3c2daf49	0.010600873
84	0x3d9bb260	0.07602382
85	0xbcf5dfce	-0.030013945
86	0xbc9ea951	-0.019367846
87	0xbd6ce59c	-0.05783616
88	0x3cbe884f	0.023258356
89	0xbca3b9b3	-0.01998601
90	0xbccd802d	-0.025085533
91	0xbb4eebc1	-0.0031573626
92	0xbd162bc7	-0.036662843
93	0x3cb20dc5	0.021735081
94	0x3c8abe40	0.016936421
95	0x3bcd0dcd	0.0062577487
96	0xbd6e49fd	-0.05817603
97	0xbd261527	-0.040547516
98	0xbde9c9af	-0.11415421
99	0xbd163af0	-0.0366773
100	0xbd08f14b	-0.03343324
101	0x3d3ab564	0.045583144
102	0xbca2c778	-0.019870505
103	0xbcefffea	-0.029296834
104	0x3d1e023a	0.038576342
105	0xbd4dc74a	-0.050238885
106	0xbcc386da	-0.023868013
107	0x3d63e678	0.055639714
108	0xbcc619f6	-0.024182301
109	0xbcf852d1	-0.030312927
110	0xbd47b3c9	-0.04875544
111	0x3d433d54	0.04766591
112	0xbc138c56	-0.009005627
113	0x3d20d48c	0.0392652
114	0xbc6baeed	-0.014384967
115	0xbd0a314d	-0.033738423
116	0xbc1e7bf9	-0.009673112
117	0x3d27f8de	0.041008823
118	0xbc14e198	-0.009086989
119	0x3c15ab04	0.009135012
120	0x3d251302	0.04030133
121	0xbb4b3219	-0.0031005202
122	0xbdbcff26	-0.09228353
123	0x3bda791c	0.0066672694
124	0x3c4eb5fe	0.0126166325
125	0xbd22c222	-0.03973592
126	0x3ccb9e7f	0.02485585
127	0xbcb6e077	-0.02232383
128	0xbd505776	-0.05086466
129	0x3af386ad	0.0018579565
130	0x3c6db89f	0.014509349
131	0xbd00fcc4	-0.031491056
132	0xbd8948ca	-0.067033365
133	0xbcaa2f35	-0.020774463
134	0x3b2df43d	0.0026543282
135	0xbc6b7764	-0.014371727
136	0x3b503ba7	0.0031773837
137	0x3b0c2584	0.0021384666
138	0x3b9a3d50	0.004707016
139	0xbd328cad	-0.04359119
140	0x3d85fcad	0.06542335
141	0xbd6b6bf6	-0.057476006
142	0x3cb81b2d	0.022473896
143	0xbc45f60d	-0.012082589
144	0x3ca73290	0.020409852
145	0x3c0f78f2	0.008756863
146	0x3d5d3eca	0.05401496
147	0xbc9e937c	-0.019357435
148	0x3cc0b499	0.023523616
149	0xbb46a922	-0.0030313213
150	0xbc182701	-0.009286643
151	0xbbca7ca8	-0.006179411
152	0xbd1fcddd	-0.039014686
153	0xbcc85c8d	-0.024458194
154	0x3ca38fc8	0.019966021
155	0x3b81a741	0.003956706
156	0xbb52d480	-0.0032170117
157	0x3d2dc822	0.04242719
158	0xbcdbbf6d	-0.026824677
159	0xbd4151da	-0.0471972
160	0xbd2bf240	-0.041979074
161	0x3d3238e0	0.04351127
162	0xbbd8b849	-0.0066137654
163	0xbc7caf73	-0.01542269
164	0xbc62d441	-0.013844551
165	0xbd07c5b0	-0.033147514
166	0xbd1d4920	-0.038399816
167	0xbd02dd45	-0.0319493
168	0x3d4b699a	0.049661256
169	0x3beb88e1	0.007187948
170	0xbcc7caea	-0.02438875
171	0x3ca385b9	0.019961225
172	0x3bfb8347	0.0076755616
173	0x3d2f67c2	0.04282356
174	0x39772571	0.00023569704
175	0xbcfa0148	-0.03051819
176	0x3d533907	0.051568057
177	0x3d1fdadc	0.03902708
178	0xbd02ec4b	-0.031963628
179	0xbc030cbe	-0.007998643
180	0x3c1125d9	0.008859121
181	0xbd06d8e5	-0.03292169
182	0xbd552550	-0.052037537
183	0xbc287dd7	-0.010283909
184	0xbd7ca73a	-0.061682917
185	0xbce6017f	-0.028076885
186	0xbc29cf2b	-0.010364334
187	0xbb8f1caf	-0.004367433
188	0x3ccd502d	0.025062645
189	0x3d468c96	0.048473917
190	0xbd352d54	-0.04423268
191	0xbc0eb345	-0.008709733
192	0x3d3dc6f7	0.046332326
193	0x3d3f6145	0.046723623
194	0xbd2f5fda	-0.04281602
195	0x3c83a19b	0.01606827
196	0xbcffa511	-0.03120664
197	0xbd21a055	-0.039459545
198	0x3b0de9c5	0.002165423
199	0xbd4e61cc	-0.050386235
200	0xbd2b6190	-0.04184109
201	0xbd87f496	-0.06638448
202	0xbd85928c	-0.06522092
203	0xbd190667	-0.03735962
204	0xbc7fe713	-0.015619057
205	0xbd692854	-0.056923226
206	0x3d489231	0.048967544
207	0xbdc3ddef	-0.09563815
208	0xbce3777f	-0.027766941
209	0xbd6545d9	-0.055974815
210	0x3c933ee1	0.017974319
211	0xbd8f8e57	-0.07009571
212	0xbc37edfe	-0.011226175
213	0x3d565bd7	0.05233368
214	0xbad84872	-0.0016501083
215	0xbc8e80ea	-0.017395455
216	0xbccd797f	-0.025082348
217	0x3d5abce8	0.05340281
218	0x3c9f5cef	0.019453494
219	0x3d0a522e	0.03376978
220	0xbd0cda62	-0.034387954
221	0xbd1e8e40	-0.03870988
222	0xba9941b6	-0.0011692557
223	0xbc11ef1b	-0.008907105
224	0x3a8cbeb4	0.0010737986
225	0xbbd9b1e8	-0.0066435225
226	0x3bebf82c	0.0072012153
227	0x3cb88f63	0.02252931
228	0xbd9681b4	-0.07348958
229	0xbd14be80	-0.036314487
230	0xbcbe6e1c	-0.023245864
231	0x3ccbc8f7	0.024876101
232	0x3d59e1ed	0.053193975
233	0xbc11d095	-0.0088998275
234	0xbd5d11ad	-0.053971935
235	0xbd0460d8	-0.03231892
236	0xbcf9491c	-0.03043037
237	0x3cb1761d	0.021662766
238	0xbb53f24f	-0.0032340472
239	0x3d292773	0.041297387
240	0xbd8b0894	-0.067887455
241	0x3d1c182e	0.038108997
242	0xbd77d3a4	-0.06050457
243	0xbd06291a	-0.03275404
244	0x3babf384	0.005247535
245	0xbbf605a8	-0.0075079985
246	0xbd2fbca9	-0.04290453
247	0x3cb2d2b8	0.021828994
248	0xbd4add85	-0.049527664
249	0xbb274be2	-0.0025527407
250	0xbd5e5609	-0.05428127
251	0x3cd01746	0.025401723
252	0xbc96612a	-0.018356878
253	0xbd1ad00d	-0.03779607
254	0xbd3949fa	-0.045236565
255	0x3d742dae	0.059613876

bias f4 [400]
0	0x3ca88360	0.020570457
1	0xbcc11ca1	-0.023573222
2	0x3cebb4ff	0.02877283
3	0x3cbfe0d2	0.023422632
4	0xbade5922	-0.001696382
5	0xbb148448	-0.0022661854
6	0x3d282e1a	0.04105959
7	0x3d24d895	0.04024561
8	0xbcab100f	-0.02088168
9	0xbd13a549	-0.0360463
10	0x3b39c9ce	0.0028349045
11	0x3c51faf9	0.012816184
12	0x3c44f128	0.012020387
13	0xbd03327f	-0.03203058
14	0x3c14002b	0.009033243
15	0xbc55227e	-0.013008712
16	0x3d04a6b2	0.032385536
17	0x3ce73458	0.028223202
18	0xbd79e0b5	-0.061005313
19	0x3d04df2d	0.0324394
20	0xbd974387	-0.07385927
21	0xbcaee2b7	-0.02134834
22	0xbc9db9d1	-0.019253643
23	0x3d41264c	0.047155663
24	0x3c1a1d99	0.009406471
25	0xbd56fbba	-0.05248616
26	0x3c96c54d	0.018404627
27	0xbc9a185a	-0.01881044
28	0xbce4bfdd	-0.027923519
29	0x3cce647a	0.025194395
30	0x3c94f967	0.01818533
31	0xbd39b95a	-0.04534278
32	0x3c878626	0.01654346
33	0x3a2c4feb	0.0006573188
34	0xbc912058	-0.017715618
35	0xbc68c142	-0.0142062325
36	0x3d875ea2	0.06609847
37	0xbd241545	-0.040059347
38	0xbab1611e	-0.0013532971
39	0x3d6586d1	0.056036774
40	0x3cec9b33	0.028882599
41	0xbc39c269	-0.011337855
42	0xbcab512c	-0.02091273
43	0xb8d32034	-0.00010067262
44	0x3c22cc67	0.009936429
45	0xbc06a8fe	-0.008219002
46	0xbc8a4f36	-0.016883474
47	0xbd1b0466	-0.03784599
48	0x3d06ef6d	0.032943178
49	0x3cbd992d	0.023144329
50	0x3c3c6414	0.01149847
51	0x3cd69593	0.02619437
52	0xbcaa21e4	-0.020768113
53	0xbd11b61a	-0.035574056
54	0xbbe3c137	-0.0069505232
55	0x3aaef59b	0.0013348343
56	0xbcbcda9e	-0.023053464
57	0xbbf1765f	-0.0073688473
58	0x3d3aecd2	0.045636006
59	0xbb162d6c	-0.0022915257
60	0xbca8ce17	-0.020606084
61	0x3c817857	0.015804453
62	0x3d50290d	0.0508204
63	0xba61710c	-0.0008599914
64	0x3d3e1f8b	0.0464168
65	0x3d7874da	0.060658313
66	0xb9c096ac	-0.00036733353
67	0xbd818246	-0.06323676
68	0x3b6a57ae	0.0035757828
69	0xbd08c811	-0.033393923
70	0x3d70969f	0.058737393
71	0x3c74fb2f	0.014952465
72	0x3b589a54	0.003305097
73	0xbd1a2aa4	-0.03763832
74	0x3c8d47da	0.017246176
75	0xbc6d2641	-0.0144744525
76	0x3b9c880b	0.00477696
77	0xbd4f7651	-0.050649945
78	0x3ceea2a5	0.02913029
79	0xbccc4c32	-0.024938677
80	0xbc45d658	-0.012075029
81	0x3aea19f5	0.0017860519
82	0x3ce04fda	0.027381826
83	0xbca23da4	-0.019804783
84	0x3d4df372	0.050280996
85	0x3c5ee244	0.013603751
86	0x3ccfddc8	0.025374308
87	0x3c244562	0.010026308
88	0xbd133a95	-0.03594454
89	0xbb5a666d	-0.003332521
90	0xbcc9252b	-0.024553856
91	0xbc955ce1	-0.018232765
92	0xbcd0c4a2	-0.025484387
93	0x3ca99664	0.020701595
94	0xbd02ccfd	-0.031933773
95	0xbcc4f084	-0.024040468
96	0x3ca53174	0.020165183
97	0x3b80715a	0.0039197626
98	0x3c9fa301	0.019486906
99	0xbcc2fe84	-0.023803003
100	0x3d441234	0.047868922
101	0x3cec1f2b	0.028823456
102	0x3d9002d2	0.07031788
103	0xbc8de5bb	-0.017321458
104	0x3d47ad60	0.048749328
105	0xbccec3e5	-0.025239894
106	0xbd17c48a	-0.03705267
107	0x3d09d689	0.033651862
108	0x3cb624e3	0.022234386
109	0xbd5c3f04	-0.053771034
110	0x3ce81388	0.028329626
111	0x3ce69d21	0.028151097
112	0x3d134126	0.035950802
113	0x3c4b9a83	0.012426975
114	0x3bec3154	0.007208029
115	0x3c349588	0.011021979
116	0xbc5e520f	-0.013569369
117	0xbcdcf140	-0.026970506
118	0x3cb678ff	0.022274492
119	0x3d04bc5e	0.032406203
120	0x3d5ee8d1	0.05442125
121	0xbcf485d8	-0.029848978
122	0xbc72b972	-0.014814721
123	0xbc9f241e	-0.019426402
124	0xbca68fca	-0.020332236
125	0xbc297a17	-0.01034405
126	0x3cb07f2c	0.021545015
127	0x3ba19df7	0.004932161
128	0xbcbf49f9	-0.023350703
129	0x3d03225c	0.03201519
130	0xbca4713a	-0.020073522
131	0x3cea50d1	0.02860299
132	0x3cf90eba	0.03040253
133	0x3ce304d0	0.027712256
134	0x3c6eca27	0.014574564
135	0x3c676f3c	0.014125641
136	0x3d45763d	0.048208464
137	0x3d894486	0.06702523
138	0xbbe1f38a	-0.006895487
139	0x3d89f116	0.067354366
140	0x3c720422	0.014771493
141	0x3bb6a7be	0.0055741956
142	0x3d098670	0.033575475
143	0xbcbc1e28	-0.022963598
144	0xbc045b2d	-0.008078379
145	0x3cce6d83	0.025198704
146	0x3d8c4340	0.068487644
147	0x3c006fc5	0.007839148
148	0x3cd0db57	0.025495214
149	0x3bb864aa	0.0056272345
150	0x3d3a07c3	0.04541756
151	0x3cbfb133	0.023399925
152	0xbd123c13	-0.035701822
153	0xbc0685a9	-0.008210578
154	0xbd10c54b	-0.035344403
155	0xbd26dd3a	-0.04073832
156	0xbd2462e3	-0.04013337
157	0xbd0e1980	-0.034692287
158	0xbbeaee8d	-0.0071695508
159	0x3d15ab94	0.036540583
160	0x3d8d286f	0.06892478
161	0xbc699409	-0.014256486
162	0x3d316674	0.043310598
163	0xbd497e26	-0.04919257
164	0x3d4e7153	0.050401043
165	0x3c6a7efb	0.014312501
166	0xbce9fed6	-0.028563898
167	0xbd58ca7c	-0.05292748
168	0x3d53cd83	0.051709663
169	0x3c7ada4b	0.015310834
170	0x3cc6a5ea	0.024249036
171	0x3cc42f76	0.023948412
172	0xbd4beb31	-0.049784843
173	0xbc530d61	-0.012881608
174	0x3c659aa3	0.014013919
175	0xbc1b5bd2	-0.009482341
176	0x3c071a6b	0.008246045
177	0xbc7bb0e4	-0.015361998
178	0x3d190e7f	0.03736734
179	0x3bb47f92	0.0055083716
180	0x3c688c08	0.014193542
181	0xbd032c17	-0.03202447
182	0x3cc51d0a	0.024061698
183	0x3bf601c0	0.007507533
184	0x3d5b4765	0.053534884
185	0xbd1bc2c3	-0.038027536
186	0x3aa4be0f	0.0012568849
187	0x3ba7eccc	0.005124664
188	0xbc87898b	-0.016545078
189	0xbbbf67fc	-0.0058412533
190	0xbd01a2fc	-0.031649575
191	0x3cc35a62	0.023846809
192	0x3d8dc3e1	0.069221266
193	0x3d942ba2	0.07234885
194	0xbcecea4d	-0.028920317
195	0xbc6715fa	-0.014104361
196	0xbcd2e5c5	-0.025744328
197	0x3d2418ca	0.040062703
198	0x3c97aa0c	0.018513702
199	0x3d31c831	0.043403808
200	0x3c9f43a5	0.019441435
201	0x3cf38209	0.029725092
202	0xbcc1da03	-0.023663526
203	0x3c069954	0.008215267
204	0x3d0d1af1	0.03444952
205	0xbc479c0e	-0.012183202
206	0x3d110bb3	0.035411548
207	0xbd2701ae	-0.040773086
208	0xbbc55f99	-0.006023359
209	0x3d26ea7e	0.040750973
210	0x3cebd756	0.028789204
211	0x3d1c42d1	0.03814966
212	0xbc640bbe	-0.013918815
213	0x3d21b999	0.03948364
214	0xbd31b346	-0.04338386
215	0xbd5ea707	-0.05435851
216	0x3d05a455	0.032627422
217	0x3d6cc3c2	0.057803877
218	0x3c3ee7f1	0.011651979
219	0xbca1f7e2	-0.01977152
220	0xbd37bd7e	-0.04485845
221	0xbd5e19ab	-0.054223698
222	0x3d16b20e	0.0367909
223	0xbcf2354d	-0.029566431
224	0x3d4d3abd	0.050104845
225	0xbd2316f5	-0.039816815
226	0x3d45a14e	0.048249535
227	0x3d83194a	0.06401308
228	0x3c6dec5e	0.014521686
229	0x3b6cad95	0.0036114205
230	0x3c94cf16	0.018165153
231	0x3cac6809	0.021045702
232	0xbcf86ff2	-0.030326817
233	0x3d9d2830	0.07673681
234	0x3cf468a0	0.029835045
235	0x3d40166a	0.046896376
236	0x3d583a92	0.052790232
237	0x3cef7de1	0.029234828
238	0x3d5c71ca	0.053819455
239	0xbd3355d2	-0.043783017
240	0xbcbce696	-0.02305917
241	0x3d1fed7e	0.03904485
242	0xbc0e1143	-0.008671108
243	0x3ce6e402	0.028184894
244	0xba246e49	-0.0006272537
245	0xbd44f472	-0.048084684
246	0x3d291268	0.04127732
247	0x3d3a605c	0.04550205
248	0xbc7c21ac	-0.015388887
249	0xbd22d72b	-0.03975598
250	0xbd2e1724	-0.042502537
251	0x3cce6914	0.02519659
252	0x3d0c3a39	0.034235213
253	0x3d23c3b2	0.03998155
254	0xbb8d268c	-0.0043075737
255	0x3d65eac4	0.056132093

weight f4 [100, 1]
0	0xbed214f8	-0.41031623
1	0x3f6a8860	0.9161434
2	0x3e30b7e2	0.17257646
3	0xbde9a791	-0.11408914
4	0xbea93add	-0.33052722
5	0x3e4142a7	0.18873082
6	0xbe0ffe78	-0.14061916
7	0x3f85209c	1.0400577
8	0x3f80babe	1.0056989
9	0xbe87d7b4	-0.26531756
10	0xbf36fed0	-0.71482563
11	0xbf4b77e4	-0.79479814
12	0xbebc8adf	-0.368247
13	0x3f176245	0.5913432
14	0x3f00b13d	0.50270444
15	0xbf60d386	-0.8782276
16	0xbee9ff83	-0.45702752
17	0xbea58c74	-0.3233372
18	0x3e43d2b1	0.19123341
19	0xbe43ca68	-0.1912018
20	0xbf00da54	-0.5033314
21	0xbe7c0ec0	-0.24615002
22	0x3ed66a42	0.41877943
23	0x3f5cd8a8	0.8626809
24	0xbf300063	-0.6875059
25	0xbf778fc6	-0.96703756
26	0xbe3fdd7d	-0.18736835
27	0xbf48cd70	-0.7843847
28	0x3ebdaa6f	0.37044093
29	0x3f5fd6e1	0.87437254
30	0x3cfc2c38	0.030782804
31	0x3f460208	0.7734685
32	0x3f734029	0.95019776
33	0x3f44371c	0.7664659
34	0xbe65e6b0	-0.22451282
35	0x3f0f6d5d	0.5602625
36	0x3dc456be	0.09586857
37	0x3d3daec9	0.046309266
38	0x3e5f9f38	0.21838081
39	0x3e67dd0f	0.22642921
40	0xbf5efe50	-0.871068
41	0x3f22ba19	0.6356521
42	0x3f85a0a6	1.0439651
43	0xbee90cf0	-0.45517683
44	0xbf121647	-0.5706524
45	0x3f8370f9	1.0268852
46	0xbc122900	-0.008920908
47	0xbf044114	-0.516618
48	0xbf280b0a	-0.65641844
49	0x3e971622	0.29509073
50	0xbf6f2fca	-0.93432295
51	0xbf2c99eb	-0.6742236
52	0x3f138e67	0.57639164
53	0x3f61225c	0.87943053
54	0x3f873952	1.0564368
55	0x3eb8a3a2	0.36062342
56	0x3f8095ab	1.0045675
57	0xbef263e5	-0.47341838
58	0xbe804c65	-0.25058284
59	0x3f0d0aac	0.5509441
60	0xbf7a2626	-0.9771446
61	0xbf5ab3af	-0.85430425
62	0x3f775295	0.96610385
63	0x3f5710ce	0.84010017
64	0xbf2e736f	-0.6814489
65	0x3f2c1fda	0.672361
66	0xbf1eef3e	-0.62083805
67	0xbf1bf70e	-0.6092385
68	0xbe507450	-0.2035687
69	0xbd1d6ce0	-0.03843391
70	0x3db1ea13	0.08687224
71	0x3cd31d69	0.02577086
72	0x3f1383bc	0.57622886
73	0xbf7948a4	-0.97376466
74	0x3ef1b419	0.47207716
75	0x3f186e24	0.5954306
76	0xbe869fe4	-0.26293862
77	0xbed57ffd	-0.4169921
78	0x3f13d7e9	0.5775133
79	0x3f40ec4c	0.7536056
80	0x3ec97be5	0.39352337
81	0x3f08ee1b	0.5348832
82	0xbf8117ca	-1.0085385
83	0x3f886a1c	1.0657382
84	0xbf34255e	-0.7036952
85	0x3e507525	0.20357187
86	0x3ef88886	0.4854166
87	0xbc83d180	-0.016091108
88	0x3d7452fc	0.059649453
89	0xbef9a7f4	-0.4876095
90	0x3f48d14b	0.78444356
91	0x3f53d047	0.8273968
92	0x3eba9e48	0.36448884
93	0x3ec8b042	0.39196974
94	0x3ef9e068	0.4880402
95	0x3f2538f8	0.6454005
96	0x3f5fbed7	0.87400573
97	0x3ad4c400	0.0016232729
98	0xbf415b0a	-0.7552954
99	0x3f0da9a2	0.55336964

bias f4 [100]
0	0xbf5339a8	-0.8250985
1	0xbf2d2abb	-0.67643327
2	0x3f7bd455	0.9837087
3	0x3e972ee7	0.2952797
4	0x3e97c5fa	0.29643232
5	0x3f29e346	0.66362417
6	0xbf07d2d2	-0.5305606
7	0xbcf7ad42	-0.030233983
8	0xbf473ef0	-0.7783041
9	0xbebc8b64	-0.36825097
10	0xbbbd4600	-0.005776167
11	0xbef505e0	-0.47856045
12	0x3f10b2e2	0.56522954
13	0xbf0d60db	-0.55225915
14	0x3f095c71	0.5365668
15	0x3df5f926	0.12010412
16	0x3f755480	0.9583206
17	0xbf148a72	-0.5802375
18	0x3f441301	0.765915
19	0xbe614108	-0.21997464
20	0x3d869332	0.06571044
21	0xbf0a24e6	-0.5396255
22	0x3e717e95	0.23583443
23	0x3f23251b	0.63728493
24	0x3f5e7b1c	0.869066
25	0x3e8b7c36	0.27243203
26	0x3f289798	0.65856314
27	0x3e5bedb2	0.21477392
28	0xbf732847	-0.94983333
29	0xbf63ef1f	-0.89036745
30	0xbe96de85	-0.29466644
31	0x3f1ef59e	0.6209353
32	0xbf1f7316	-0.6228498
33	0xbf163e40	-0.58688736
34	0xbf63f088	-0.89038897
35	0xbe46b3bc	-0.194045
36	0x3f430ef7	0.7619471
37	0x3e2663a2	0.16248944
38	0xbcaf86fb	-0.021426668
39	0x3f566ed9	0.8376289
40	0xbf0ac92c	-0.54213214
41	0xbe8e1113	-0.27747402
42	0x3f701525	0.93782264
43	0x3f8914df	1.0709494
44	0x3f46faca	0.77726424
45	0x3f53062c	0.8243129
46	0xbf6d80ac	-0.9277446
47	0xbf4e12ee	-0.80497634
48	0x3f422f42	0.7585336
49	0xbf425c4b	-0.7592208
50	0xbe9b70dc	-0.30359542
51	0x3f5622f7	0.836471
52	0x3f0187e0	0.50597954
53	0x3c7c26d1	0.015390114
54	0xbbf8a420	-0.0075879246
55	0x3ebe7f70	0.37206602
56	0xbee986ce	-0.4561066
57	0x3ef2f2a2	0.4745074
58	0x3f4a2726	0.78965986
59	0x3f715665	0.9427245
60	0x3f211e29	0.62936646
61	0x3f15d87f	0.5853347
62	0x3d54cefa	0.0519552
63	0xbf821383	-1.0162205
64	0x3ec6b48b	0.38809618
65	0xbefa2851	-0.48858884
66	0xbec96a88	-0.3933909
67	0xbf5e1050	-0.8674364
68	0xbe27b310	-0.163769
69	0xbf68765e	-0.90805614
70	0x3e9576a1	0.2919207
71	0x3f02f21b	0.51150674
72	0x3ee810b1	0.45325235
73	0xbf53fada	-0.82804644
74	0x3f54e4b2	0.8316146
75	0xbed3fff8	-0.41406226
76	0x3e39a301	0.18128587
77	0x3f011ef8	0.5043788
78	0x3cdc06f6	0.026858788
79	0x3f885002	1.0649416
80	0xbe0c8583	-0.13722806
81	0xbe36d217	-0.1785358
82	0xbab7cca3	-0.0014022778
83	0xbf0a7f12	-0.54100144
84	0xbf1d1382	-0.6135789
85	0xbe85a290	-0.26100588
86	0x3f47879e	0.7794131
87	0xbf2c683a	-0.6734654
88	0x3e7549f7	0.23953997
89	0xbf0bddd6	-0.5463537
90	0xbe84fef8	-0.25975776
91	0xbeb9d996	-0.36298817
92	0xbf5d4914	-0.86439633
93	0xbeac9ca0	-0.33713245
94	0x3f51fdc1	0.8202782
95	0x3f4202e3	0.75785655
96	0x3f16d9d7	0.5892615
97	0xbf568a50	-0.838048
98	0x3f7229e8	0.94595194
99	0xbe18fc8b	-0.14940087
