results/interpretability/with_ga_bwt_sex/model_outputs/checkpointed_model.pt (torch, 843537 bytes, 19 tensors)

weight f4 [1, 400]
00000000: c7d0 bbbc 9b2e b93a 310e 18bd 99f3 3f3d
00000010: 1fa8 3cbd dad8 2dbd 222f 583d 4c2f c9bc
00000020: 34d3 513c 8c7e b13c 53e0 cdbc 076d 93bc
00000030: 3171 1c3d 4414 a43c 9b43 6d3c 6b1a 71bd
00000040: e99a a13c 330c 3cbc 6ffd 993b 6d41 a3bc
00000050: 0a2f 8a3d 7659 08bb 5b47 9ebd 3261 a4bc
00000060: 8896 94ba 5bba 073b e4ac 3dbd d497 22bd
00000070: 2a41 58bd de89 e13c 54b9 23bb 576a c23c
00000080: b059 a7bc e1ec 1bbd a0eb 02bd 4b31 0fbd
00000090: 67ed 5c3b 15b3 f13b 5f66 7e3c 7c02 4cbd
000000a0: cd6b 8ebc 6c8f 0e3d 830d 7e3c b502 183d
000000b0: b52d e0bc 2f44 003d c7b7 1dbd eef8 853c
000000c0: 5242 273d 7b63 07ba 2dfe 9f3c 146e 81bd
000000d0: 7e43 37bc cb18 c5bc 2883 f4bc fbf6 2ebd
000000e0: f456 e3bc d919 833d 95e6 f73b 738e 8abd
000000f0: 45aa 093d 4deb 013d a199 583d e203 0fbd
00000100: 6cce 1cbd 9207 04bc 1c30 463b f4ed 4abd
00000110: cc90 4f3d 2ab8 0f3b 442b 4b3d 2ae1 16bc
00000120: fecd bbba 4c66 203d 2c46 d93a dde4 943d
00000130: 98bc 343d 2202 4e3d b8f1 4dbd 399a 013d
00000140: 5c80 b53c 9319 debc d9f1 f7bc b653 7d3c
00000150: bf8b ee3b 895e 89bb 6976 1f3d d3f4 f5bc
00000160: 9750 2e3d 3291 2c3d cc2f 14bb a445 f7bc
00000170: 7fe0 1bbd 24b1 903c c65b 2bbd c431 b0bc
00000180: 0690 253c 31c0 fc3c 3a76 3c3d 9762 85bd
00000190: 8824 d9bc 2519 59bc ead8 12bd 5efe 113d
000001a0: ccdf 40bd 2f39 073d db00 4fbd 8205 5d39
000001b0: 6809 70bc 14d2 db3c 6e79 223d 6e02 fa3c
000001c0: 3c94 2cbd 451c c33c d5a1 a8bc be62 533d
000001d0: 9c9b 4bbc c58d 47bd ee15 843c 7573 e6bc
000001e0: 8906 dabc 63c5 1dbd 6cf5 d53b ee62 60bc
000001f0: 954c 29bd 315f a4bd 29ba 04bc 4b76 bc3d
00000200: 71df 1ebd 9546 75bc 0db7 17bd f194 003c
00000210: 3dbe 45bd 5880 8d3c ed26 77bd 17af c4bc
00000220: e3d6 47bd 58f4 8ebc e86f 99bc 7e83 133d
00000230: cb2f c73c 68b1 a5bc c568 cd3c ea86 24bd
00000240: eadc 603d d13f 13bd 1aca fe3c 51d2 4c3d
00000250: 9e9e 80bd e888 cebb 66a2 0dbd 085b 99bb
00000260: d17f 5f3d 9d0f 103d ee5f 8c3c a09d 1f3c
00000270: d8c6 203c c211 c1bc 57e4 50bd 8a47 443d
00000280: 2df1 053d 727c dbbc d14b 613d ac80 c83a
00000290: 7422 903d ce27 03bd cf5a 23bd 485d e7bc
000002a0: 7af4 f83c 587d acbc a34e 7cbd b40f af3c
000002b0: 7f11 38bb 2c03 3ebd 7c50 ecbc 76ed 34ba
000002c0: fc8e f8bc d1dd a0bc 1e23 febc defc 92bc
000002d0: 4bb6 7f3d 2d69 9bbc 78a8 fbbc 47e5 a8bc
000002e0: f53c 0b3d e297 41bd ac12 a13c 5de5 eabc
000002f0: 4c83 b0bc 78e8 ff3b 0b9e 333c 0628 bf3c
00000300: 4321 e2bc 4805 343c 634d 9abc 099c c8bc
00000310: 3426 153d fd0f 24bd 9b08 1a3d 5101 2bbd
00000320: f5ae 123d 4a94 7cbd 2627 303c 918f 32bd
00000330: 2f46 ec3c b6bc 21bd ac46 8b39 f5f8 5a3d
00000340: 36a6 2dbd fcf5 0dbc a4a4 183d 3116 003d
00000350: d413 463c 07a1 453d 5607 37bd 3e1a a43c
00000360: efe4 353c c7eb e3bb f6ec 0d3d 350b 3bbd
00000370: 9168 6e3d f1fe d93c 9354 993d 9461 303d
00000380: b725 bdbb 42ad 29bc b19c d8bc d1d5 97bc
00000390: efa6 0abd 0144 283d f41d fa3b 9016 433c
000003a0: bfee 00bd b34b 523b 4305 263d bb3a 283c
000003b0: b8ae f33c 62aa 083c 9136 40bd 0914 61bc
000003c0: 689d 6dbd 6c3c 4b3d c1c4 943a 7f7d 42bc
000003d0: 6d64 11bc 3bcc 213d 088c 1ebc 3eed 41bd
000003e0: 43b1 f93c fbff 6abd 47f1 1fbd f525 453d
000003f0: 9236 cabc ee25 8b3d a42e eebc 2a92 af3c
-0.022926701 0.0014128269 -0.03712291 0.046863172 -0.04605877 -0.042443134 0.052779324 -0.024558686
0.012806702 0.021666788 -0.02513138 -0.017996324 0.038193885 0.020029195 0.01448145 -0.058863085
0.019727187 -0.011477518 0.004699401 -0.019928658 0.06747253 -0.0020805276 -0.07728454 -0.020065878
-0.0011336366 0.0020710442 -0.04630746 -0.039695576 -0.05279652 0.02753156 -0.002498229 0.023732347
-0.020428509 -0.038067702 -0.03196299 -0.03495912 0.0033710839 0.0073760846 0.015527337 -0.049807057
-0.017385388 0.034804747 0.015506151 0.037111957 -0.027365545 0.031315025 -0.03850534 0.01635405
0.040834732 -0.0005164665 0.01953038 -0.06319824 -0.011185525 -0.024059674 -0.029847696 -0.042716008
-0.027751423 0.064014144 0.0075653293 -0.06765451 0.033609647 0.03171854 0.052880887 -0.034915812
-0.038282797 -0.0080584455 0.0030241078 -0.049543336 0.0506752 0.0021929839 0.04960181 -0.009208957
-0.0014328358 0.039160058 0.0016576699 0.07270215 0.04412517 0.050295003 -0.05027935 0.03164122
0.022155933 -0.027111804 -0.03026669 0.015461853 0.0072798426 -0.0041921777 0.038931284 -0.030023968
0.042557325 0.042130657 -0.0022611497 -0.030184574 -0.038055893 0.017662592 -0.04183557 -0.021508105
0.010105139 0.030853363 0.046011187 -0.06512945 -0.026506677 -0.013250624 -0.035851397 0.035642974
-0.04708843 0.03301352 -0.050537925 0.00021078254 -0.01465068 0.026833571 0.039666586 0.030518737
-0.042133555 0.02381719 -0.02058498 0.05160784 -0.012427237 -0.048719186 0.016123738 -0.028131226
-0.026614444 -0.03851832 0.0065295007 -0.013695462 -0.0413328 -0.08025969 -0.008101025 0.0920225
-0.03878731 -0.014970441 -0.037039805 0.00784801 -0.04827713 0.017273113 -0.060339857 -0.02400927
-0.048788916 -0.017450497 -0.018730119 0.036014073 0.024314782 -0.020226195 0.025074372 -0.040167727
0.05489818 -0.035949532 0.031102229 0.05000526 -0.06280254 -0.0063029416 -0.034578703 -0.004680041
0.054565255 0.03517114 0.017135587 0.009742171 0.009813033 -0.023568038 -0.05099901 0.047919787
0.032700706 -0.026792739 0.055003945 0.0015297136 0.070378214 -0.032020383 -0.039881524 -0.028242722
0.030390013 -0.021055862 -0.06159843 0.021369793 -0.00280866 -0.046389744 -0.028846972 -0.00069018395
-0.030341618 -0.01963702 -0.031022605 -0.017942842 0.062429707 -0.01897105 -0.03071998 -0.02061714
0.03399368 -0.047263987 0.019662224 -0.028673822 -0.021546982 0.007809695 0.010962973 0.023334514
-0.027603751 0.010987587 -0.018835729 -0.024488466 0.036413386 -0.04005431 0.037605863 -0.041749302
0.035811383 -0.061664857 0.010751521 -0.043593947 0.02884206 -0.03948661 0.000265648 0.05346008
-0.04239484 -0.008664604 0.03726639 0.031271163 0.012089688 0.04824927 -0.04468473 0.020032045
0.011101945 -0.006955597 0.03464981 -0.045664985 0.05820519 0.026610823 0.074868344 0.043061808
-0.005772318 -0.010356249 -0.026441904 -0.018534573 -0.033850607 0.04108048 0.007632965 0.011907235
-0.031477686 0.0032088577 0.04053236 0.010267909 0.029746398 0.008341404 -0.04692704 -0.013737687
-0.058011442 0.04961817 0.0011350141 -0.011870741 -0.008874041 0.03950141 -0.009676941 -0.047345392
0.030480033 -0.05737303 -0.03904846 0.0481319 -0.024684224 0.06794344 -0.029074974 0.021432001

weight f4 [100, 49]
00000000: aa57 f9bd f139 33bd 4cd4 22bd 4e62 e5bb
00000010: 2afe 843d 08c2 22bc 1eaf f13d 8ded 5d3d
00000020: de79 c2bd 1d7b afbc 354a c5bc 1b92 093e
00000030: 93da ffbd 2084 233e e660 6fbc 5135 033e
00000040: 5ccf f4bd 387a 4dbd 7544 23bd 2145 9c3c
00000050: 1bec 1dbd d98e 863b c68f aebd 869d 0bbd
00000060: d72f 0a3e c674 30bd a428 303d 1ecd 88bd
00000070: d90b ecbd ea97 c2ba 29d9 993d 6971 82bd
00000080: 071f ddbc 2050 49bc 0496 383d 8a1f 76bd
00000090: bf20 d3bc 233c b73c fed9 aebd 8067 75bd
000000a0: 2398 24be 7075 db3d 2345 c73c 6d79 ee3d
000000b0: fed1 d6bc 22d9 f73d 6349 1cbe fead b13d
000000c0: d799 943d b39a f7bd 0457 d8bd 7539 e03d
000000d0: f4b6 6fbd 8ae6 1c3d 716d d43c a5a5 09be
000000e0: 9578 45bd 379c ee3d 9dad cfbb 3a5e 033d
000000f0: d949 2abb 5566 bcbd de07 e43d 9834 183e
00000100: 5f53 823d cd04 d73c ac6d 4f3d b722 89bd
00000110: d4ba 823d 346a 3d3d c903 61bd 25e8 e3bd
00000120: 007f c5bd 22cc 0c3c 0d5e d8bd 67b4 3c3d
00000130: ef19 b93d 9c5c 1abd cc53 23bd 591b 463d
00000140: b356 1e3e 55d0 c03d 460d 05be f0e3 1ebe
00000150: 6b7c efbd dfa4 48bd cb7a e13c 1bc9 553d
00000160: 603b 1dbc b938 f2bc 099b a43d 7682 8c3c
00000170: 8b8d 28bd d1c5 f73d b71b 8c3c 181b b3bc
00000180: fd85 93bc 4f00 85bd fa4f ccbb a024 df3d
00000190: 0c6f bc3c 853c e53c 1362 01be a867 8ebd
000001a0: f85b 423d 8563 f7bd 343e 813c eca8 fcbd
000001b0: 6172 063e 5681 9a3d 9eb9 7fbb 78e6 053c
000001c0: 30f3 e5bc 2a52 e13d 724b 8c3c 018e 8fbc
000001d0: 7a75 3d3c 2c11 133e 2a76 d83b 701c d8bd
000001e0: 3964 033b 167b 3fbd a978 07be 04db 233d
000001f0: 3e29 47bd b8cc 05bd 5cda 003c 73ad 63bd
00000200: fcfe 703d 7150 75bc 9c6a 163e a1fa f3bd
00000210: 324c 203d 1466 f43c 8362 98bd 071b 8cbd
00000220: 42fc 993d 17e9 96bd e7c2 1a3d 955b d93c
00000230: 94e3 24bd 123f ecbd 3280 afbd 7918 84bd
00000240: 0a21 f13d 3052 c4bc 49e2 f73d 930a 9ebd
00000250: 7a5a 0a3e ba3e 7fbd 11f1 b0bc 2a55 04be
00000260: 594f 9bbc 764b e43d ee8f ff3d ab46 9ebd
00000270: 9537 e63d cf82 e13d 1856 16bc 0498 d0bd
00000280: 92c0 c63c cafa 89bd ff21 e03d 5dcf bebd
00000290: 08b0 5b3d bca5 bfbc 70fd 703d de86 dcbc
000002a0: 4a39 773b 8c87 adbd 6589 77bd 4c66 adbc
000002b0: d603 ff3c e0e8 233d 7753 99bd 52d7 acbd
000002c0: 8179 cfbd 42ae 913b 7ea1 00be 6b05 183e
000002d0: 0f09 a7bd ac04 ad3d fe03 ab3d 22d1 8c3c
000002e0: 8be7 3bbd 9e30 0cbd c8f9 78bd b42e 523d
000002f0: 36e5 5a3d 796a 9a3d abed af3c 6c9e fdbb
00000300: 7848 053d cac5 a3bd 72f8 d93c ed6c ccbc
00000310: 3e02 bb3d dffb 8abd 376e 0abe 6f7a 683c
00000320: 1d0d ebbd 2aab f43c d257 06be 8eb5 673c
00000330: 6782 9dbd 73cb dfbd 6db3 d23d cd8f 9e3d
00000340: 3420 c13d eed2 083e 2f90 463c ab8e a1bd
00000350: 4716 b7bd 1cd1 693d 5155 febd ff7b e53d
00000360: beb9 f3bd 4368 c3bd 6588 cbbd 917d da3d
00000370: 2767 00bd aeed 1c3c b1b4 debd 2682 f7bd
00000380: 679f 253d 4645 02be ca8e 95bc fe00 023e
00000390: 4584 2fbd ea68 cbbd 45aa dabd 1447 6d3c
000003a0: fdc4 49bd 5bb3 de3d 27b5 3bbb 98dd 923c
000003b0: f024 f53d 028f d33c 5a3c 433d f87f 923d
000003c0: bfb6 0d3e 9cf8 783d 8859 d63c 2dbc 4fbd
000003d0: e8c2 90bd 8c98 453d a1bd 6fbd d788 cdbc
000003e0: baf0 1cbe c052 533d a08d 873d 37b1 a7bc
000003f0: 8a81 7a3c 77fc b63d 980b 2f3d 47ad 80bd
-0.12174924 -0.04375643 -0.039753243 -0.007000244 0.064937904 -0.009933956 0.11800979 0.054181624
-0.094959006 -0.02142101 -0.024083236 0.13434641 -0.124928616 0.1596837 -0.014610505 0.12813307
-0.11953613 -0.050165385 -0.039860208 0.019075932 -0.038555246 0.0041063842 -0.08523516 -0.034085773
0.13494812 -0.043080114 0.043007508 -0.06679748 -0.11525697 -0.0014846299 0.07512123 -0.063692875
-0.026992334 -0.01228717 0.04506494 -0.06008867 -0.02577245 0.022367543 -0.085376725 -0.05991316
-0.1607366 0.10715759 0.02432496 0.11644254 -0.026223179 0.12101962 -0.1526237 0.086757645
0.07255905 -0.120900534 -0.10563472 0.10948459 -0.058524087 0.038305797 0.025931092 -0.13442095
-0.0482107 0.11650889 -0.006337835 0.032072283 -0.0025983958 -0.09199206 0.11134313 0.14863813
0.06363558 0.026247406 0.0506417 -0.066960745 0.06383291 0.04624386 -0.05493525 -0.111282624
-0.09643364 0.008593591 -0.10564814 0.046070483 0.090381496 -0.037685975 -0.039874837 0.048365925
0.1546276 0.09414736 -0.12993345 -0.15516639 -0.11693653 -0.04898536 0.027524373 0.052193742
-0.009596676 -0.029568063 0.08037383 0.017152052 -0.04115061 0.12098277 0.01710306 -0.021863505
-0.018008227 -0.064941995 -0.00623512 0.108956575 0.02300217 0.02798296 -0.12635069 -0.069533646
0.04745099 -0.12079529 0.015776731 -0.12336907 0.1312957 0.075442 -0.0039020549 0.008172624
-0.028070062 0.11002 0.017125819 -0.017523767 0.011563653 0.1436202 0.006605883 -0.10552299
0.002004875 -0.046748243 -0.13229622 0.04000379 -0.048623316 -0.03266594 0.007864561 -0.055585336
0.058836922 -0.014972792 0.14689106 -0.11913038 0.039135166 0.02983383 -0.074406646 -0.068410926
0.075188175 -0.07368677 0.03778353 0.026532928 -0.040256098 -0.11535467 -0.08569373 -0.0644998
0.1177388 -0.023964971 0.12103707 -0.077168606 0.13511077 -0.06231568 -0.021599324 -0.12923113
-0.018958734 0.111472055 0.12478624 -0.077283226 0.1124107 0.11011278 -0.0091758 -0.10185245
0.024261747 -0.06737287 0.10943984 -0.09316895 0.053634673 -0.023394458 0.058835447 -0.026919778
0.0037723356 -0.08473119 -0.060433764 -0.021166943 0.031129759 0.04001701 -0.07486623 -0.084395066
-0.10130597 0.004445822 -0.12561604 0.14845817 -0.08156025 0.08448157 0.08350371 0.017189566
-0.045875113 -0.034226052 -0.060785085 0.05131407 0.05344125 0.07539839 0.021475634 -0.0077398326
0.032539815 -0.0799671 0.026607726 -0.024954284 0.09131287 -0.06786322 -0.13518606 0.014189347
-0.114771105 0.029866774 -0.13119438 0.014142407 -0.07690888 -0.10927477 0.10288129 0.077422716
0.094299704 0.13361713 0.012119337 -0.0788854 -0.08939796 0.057084188 -0.124186166 0.11205291
-0.11900662 -0.09541371 -0.099381246 0.10668481 -0.031348374 0.009578152 -0.10874308 -0.12085371
0.04043522 -0.12721738 -0.018256564 0.12695691 -0.04285075 -0.0993212 -0.106770076 0.014482278
-0.04926013 0.10874053 -0.002864191 0.01792793 0.11969936 0.025825027 0.047664978 0.07153314
0.13839243 0.060783967 0.026165739 -0.050716568 -0.070684254 0.048241183 -0.058530454 -0.025089664
-0.15326205 0.05159259 0.0661881 -0.020470245 0.015289674 0.089348726 0.042735666 -0.0628305

bias f4 [100]
00000000: a69f f83d 8e0d 03be 1649 e3bd 4390 533d
00000010: f8bd d63d 41ba 3a3d 104e 1b3e 8305 5cbd
00000020: 52e2 bf3d 628b a13d 82f0 b03d b557 583d
00000030: 13f2 133e 7850 f6bd 84d2 10be 4312 15be
00000040: 5c2b 0c3d 7112 0d3e 6e83 0dbe bc03 23bd
00000050: 3230 1d3d c017 f8bd bafd ecbd 1822 e53d
00000060: c164 003e 51d6 eabd 1fb1 933d 93ac 0cbc
00000070: 267c 0abd 0ee5 21bd 5851 1dbd 26fb 4fbd
00000080: 364e 813d d4af 04be 6676 c3bd 55c8 dfbd
00000090: a00c d63b a3c2 023e 039b 173d c039 043e
000000a0: ca8d 8f3d 034f 033d 88c3 29bd 46f0 fa3d
000000b0: 9c49 05be f3d8 4b3c 3223 80bd b993 b9bd
000000c0: 9e24 c03d 41f5 f53d 558e 173d 3a51 aebd
000000d0: d0c3 99bd 1b74 62bd 94b0 1d3d a323 58bd
000000e0: dd2a 543c c2c8 773d 7f49 0c3d b87f 533d
000000f0: 3700 c83c 7e4d 54b9 7ace 81bc 2077 343d
00000100: 4916 973b 6fbc 1b3d 4ee6 c7bc 0125 123e
00000110: 4347 93bd 5845 f03d 02f4 4d3d e598 ef3d
00000120: ef19 c4bd 124f de3d caeb a33d 346b aebd
00000130: fe07 0cbe 03f3 3dbd 7c46 cd3c b560 a4bd
00000140: 4fdf 8dbd b264 053e 29b9 11be 6f20 cabd
00000150: 8a20 22bd d36c 063c d462 033e 4f39 24bd
00000160: 5f08 503d 2300 153c 5183 16be 239c b93d
00000170: 297c bd3d cbe2 10be ffbd 053e a655 c7bd
00000180: f39c c5bd 0889 24bd 1fc7 40bd 38e9 e6bd
0.121398255 -0.1279814 -0.110979244 0.05165125 0.104854524 0.04558778 0.15166497 -0.053716194
0.09369339 0.07887913 0.08639623 0.05281802 0.14447813 -0.12027067 -0.14142805 -0.14557748
0.03422104 0.13776566 -0.13819668 -0.039798483 0.03837604 -0.12113905 -0.11571832 0.111881435
0.12538435 -0.11466659 0.072115175 -0.008586067 -0.033809803 -0.039525084 -0.038407654 -0.050776623
0.06313746 -0.12957698 -0.09544067 -0.10926882 0.0065322667 0.1276956 0.037013065 0.12912655
0.07009466 0.032057773 -0.04144624 0.1225286 -0.13016361 0.012441861 -0.06256713 -0.09061379
0.09381984 0.12009669 0.037000973 -0.085115865 -0.075080514 -0.055286508 0.038498476 -0.05276836
0.0129496725 0.060494192 0.03424978 0.051635474 0.024414165 -0.00020246764 -0.015845526 0.04405892
0.004610811 0.0380215 -0.02440181 0.14271928 -0.071913265 0.11731976 0.050281532 0.11699084
-0.09575259 0.10854925 0.080039576 -0.08516541 -0.13674924 -0.046374332 0.025058024 -0.08026258
-0.06927358 0.13026693 -0.14230789 -0.098694675 -0.039581813 0.008204657 0.12830669 -0.040093716
0.050789233 0.009094271 -0.1469853 0.09062984 0.09252197 -0.14149015 0.13060759 -0.09733133
-0.09649076 -0.040169746 -0.047064897 -0.11274952

weight f4 [400, 100]
00000000: 270e 563d 7b53 5d3d 45c2 a0bd 2e82 f43c
00000010: 1476 9bba 31ba af3c 21a1 4a3d 4016 36bd
00000020: 279d 0ebd f201 af3d 4653 bb3d 3137 9a3d
00000030: 5fba 9fbd 4bc0 b9bd f2cb 463c b19c 333d
00000040: be36 6c3d 40ff edba 2435 6fbc c951 aa3d
00000050: 66e6 78bc 90ff 3cbd 9fdd 2c3d b1f0 b0bc
00000060: 763a 713d 8c24 75bd 3060 7c3c 1102 f23c
00000070: aff3 ae3d 6970 0a3d e919 333d 31d9 5ebd
00000080: 79a8 8cbd 39b9 19bc 9596 a1bd d042 043a
00000090: 35e0 f5bc 5c21 44bc 830a 913c 1a0c 7b3b
000000a0: 98c6 973d 570a a03c 5e2a 96bd 9bce 1ebd
000000b0: 8965 61bd 097b 99bd 5592 dbbd 2979 99bd
000000c0: a97f b83c 9ac8 843d bc64 80bd 3259 52bd
000000d0: c9eb 3d3d 39f1 5d3d 74bc 9c3c f86c 6dbd
000000e0: c65f 2dbd f757 94bd 460f afbd ab06 e03c
000000f0: 1b69 60bc 861a d0bd 8db5 ae3a ea21 15bc
00000100: 372b 70bd fe73 173d 7b86 59bc 6148 9bbd
00000110: f593 3e3d 77c8 d7bd fd48 b2bd ccf4 25bd
00000120: aaeb 07bd 9f88 35bd 5793 2a3d a93b f5bd
00000130: 982b 683d 4fb7 ab3d d24f 8dbd 97b5 98bd
00000140: b10f db3d 6ee7 bebc 856b 4d3d 0eaa b13d
00000150: 94ef 19bc fbcb a73d 32c8 113d 05dc 4abb
00000160: 251e d53c 5ddb 983d c18d b5bd 32d1 703d
00000170: 0d47 02bd 1d7e acbd 3e14 1f3c 9f65 31bc
00000180: ecac 83bb 363e fa3b 1f72 83bd 05c7 913d
00000190: 46b8 883c bc30 9e3d f35c 84bd 8488 89bd
000001a0: 521c b9bc 42c4 cdbd c187 9f3c ab50 673c
000001b0: 778d 52bc 6a38 b63c 818d 43bc 6309 8a3d
000001c0: 3eca c4bd e805 a0bd 90dd 753d 0eba f1bc
000001d0: 5822 403d 9bd0 c83c d282 acbb 961a 2fbd
000001e0: 1888 92bd c38c de3d 12bf ce3c f4f5 2fbc
000001f0: 7a1a d0bd 3d8f 803d b329 b6bd 65ac 4bbd
00000200: 6a42 01bc 7e57 8e3c 9a9b 453d cbc1 aa3d
00000210: 9967 59bc 3134 aabd 220e a83d deab 263c
00000220: c957 ffba 7a54 f23c 13a8 81bd d0c7 56bd
00000230: b251 263d bcf6 08bd 9d6f 5ebc 21b8 0abd
00000240: b9dc a63d aab9 9ebc bc77 b33c ab16 9a3d
00000250: c0ae 883d 4d72 b73c 9161 883c 12f7 d9bd
00000260: 6b77 b83d dc03 5cbd 91b7 2d3d 2596 40bd
00000270: 2e33 1d3d 41ba 993d 3c77 a83c db11 d13c
00000280: e295 99bd 8441 dbbd c770 5c3d cf7d bcbd
00000290: 5c08 babc 2576 c0bc 2143 fbbc d977 893d
000002a0: d8a9 9fbd 328c 18bd d0bc a3bd d865 3dbd
000002b0: f60a b83c e9e9 653d f82c 80bd f1ca 833d
000002c0: a25b 853d 6158 10bd 5087 2a3d a232 36bd
000002d0: 08df 673d 355b 453d f283 b63d c1ca 47bd
000002e0: e7c1 023d 1e1b 9ebd 39b8 923c 08d6 683c
000002f0: 68d1 e7bc 0ee9 a3bc 6240 38bd fd04 733d
00000300: 5b22 173d 0947 b6bd 9693 043d 44c2 1cbd
00000310: e01f 92bd 25d8 5c3d 6fe2 893d aec7 cabd
00000320: 73b0 bc3d ae82 90bc 4e63 7a3d 5e72 e4bc
00000330: 8537 1a3d df14 0f3d eec2 ab3c b04a 61bb
00000340: 1d76 1c3d d0f6 3e3d e21b 5d3b b63c 52bd
00000350: fefe 973d bf99 b5bd 7070 ab3d 8985 b13d
00000360: 390a 98bd e25a 0dbd f13e 91bd f93c 4d3c
00000370: b221 22bc 6a23 d13d 92bd 423d 9cac c03c
00000380: b8ee 6e3d 839b bdbd f534 f03c 1321 d6bc
00000390: 2252 a6bd b5ed ffbd e725 58bd 3477 23bb
000003a0: 5caf ee3d d3ab 463d 05f3 26bd 9c26 ba3d
000003b0: 991c a3bc f5cf 97bd c550 093d 51ff 793d
000003c0: 4680 2ebd 5c6b 0cbd 5574 743c 9714 debc
000003d0: b46d 803c 3814 823d 35ad 7ebd c5ce 86bd
000003e0: 2019 63bd 2346 f0bc e3f6 45bc fa8f b63d
000003f0: 20f7 f93c e009 b0bd 08d8 333d e39c d23d
0.05225959 0.05403469 -0.07849554 0.02984723 -0.0011860752 0.021451088 0.04947007 -0.044454813
-0.03481784 0.08545293 0.091467425 0.07530058 -0.07799219 -0.0906988 0.012133585 0.043850604
0.057669394 -0.0018157735 -0.014600072 0.083163805 -0.01519165 -0.04614216 0.04220354 -0.021599146
0.058893643 -0.059849307 0.015403792 0.029542001 0.08542573 0.03379861 0.04372588 -0.05440635
-0.06868071 -0.009382539 -0.07890049 0.0005045356 -0.030014137 -0.011970844 0.017705208 0.0038306774
0.074109256 0.01953618 -0.073323 -0.038771253 -0.055028472 -0.0749417 -0.1072127 -0.074938126
0.02252181 0.06483574 -0.062692136 -0.051354595 0.04636744 0.054185126 0.01913283 -0.05796525
-0.042327665 -0.072433405 -0.08547835 0.02734693 -0.013696934 -0.10161309 0.0013329253 -0.009102324
-0.058634963 0.036975853 -0.013276692 -0.075821646 0.04652782 -0.105362825 -0.08705328 -0.04051666
-0.03318373 -0.044319745 0.04164442 -0.1197427 0.0566822 0.08384573 -0.0689999 -0.074565105
0.10696352 -0.023303714 0.050151367 0.086750135 -0.009395499 0.08193203 0.03559131 -0.0030953896
0.02601535 0.07463715 -0.08864928 0.058793254 -0.03180604 -0.08422492 0.009709416 -0.010827451
-0.0040184166 0.0076368107 -0.06418251 0.07118038 0.01668943 0.07724139 -0.06463041 -0.067154914
-0.022596512 -0.10047199 0.019473912 0.014118354 -0.012851111 0.022243697 -0.011935593 0.067400716
-0.09608887 -0.078136265 0.06002575 -0.029507663 0.046907753 0.024513533 -0.0052646184 -0.042749964
-0.07154864 0.10866692 0.025237594 -0.010739792 -0.101613 0.062773205 -0.08894672 -0.049724955
-0.0078893695 0.017375704 0.048244096 0.08337744 -0.0132693285 -0.08310736 0.082058206 0.010172812
-0.0019481118 0.029581297 -0.06330886 -0.05243665 0.040605254 -0.03343843 -0.013576415 -0.033867005
0.08147568 -0.01937564 0.02190768 0.07523855 0.06673956 0.02239337 0.016648086 -0.10642828
0.09007152 -0.053714618 0.04241139 -0.04701819 0.038378887 0.07506228 0.020564668 0.02552121
-0.07499291 -0.107058555 0.05381849 -0.092036836 -0.022709064 -0.023493836 -0.030671658 0.06712312
-0.07796067 -0.037243076 -0.079949975 -0.046239704 0.022466164 0.056131277 -0.06258577 0.064351924
0.06511618 -0.035240535 0.04163295 -0.04448188 0.056609184 0.048182685 0.08911885 -0.048777346
0.0319232 -0.07720016 0.01791011 0.014211185 -0.028298095 -0.02000859 -0.044983275 0.05933093
0.036898 -0.08900268 0.03236731 -0.038271204 -0.07134986 0.05391707 0.06732642 -0.09901367
0.092133425 -0.017640438 0.06112986 -0.027886566 0.037650604 0.034932014 0.020966973 -0.0034376793
0.03819858 0.046622097 0.0033738543 -0.05132743 0.07421683 -0.08867215 0.08371055 0.08668048
-0.07423825 -0.0345105 -0.07092083 0.012526744 -0.009895729 0.10211833 0.04754407 0.023519807
0.05833313 -0.09258177 0.029322127 -0.026138818 -0.08121134 -0.12496511 -0.05277052 -0.0024942877
0.11654541 0.048503708 -0.040759105 0.090893954 -0.019911097 -0.074127115 0.033524293 0.061034504
-0.0426028 -0.034282073 0.014920314 -0.027109427 0.01567731 0.06351513 -0.0621769 -0.06582407
-0.055443883 -0.029330319 -0.012082788 0.0891418 0.030513346 -0.085956335 0.043907195 0.1028383

bias f4 [400]
00000000: d0c2 22bd 3c69 8dbd 7180 8ebd 7c03 4cbd
00000010: 529f 343d 69f0 e03c b2c6 be3c a1c3 72bc
00000020: b0b4 c4bd eb93 373d 2fcb a53d 8ad4 793d
00000030: 40f0 353d 1ddb a8bd 0890 953d 6aa5 28bd
00000040: eb2d b8bd b083 163c 1660 903d 98bb f53c
00000050: 3359 6ebd 0896 a0bb 5d1f a23d 1ec8 173d
00000060: c392 b63d 6388 a1bc 91cd b33d 14e8 81bd
00000070: af48 8a3d d559 15bd 7b04 8c3d 1e71 073d
00000080: e873 25bd 4be7 933d ba55 b13d 7361 923d
00000090: 6a42 43bd c1d9 b53d 2e7e dabc 1e93 56bd
000000a0: a2ca a63d a319 9fbc f2a9 86bd c907 333d
000000b0: f7dd 18bc 69e8 80bd 706a d43d 2431 2b3d
000000c0: 1951 5a3c bc9b 9c3d f024 a4bd 1154 49bd
000000d0: 0329 89bd ef2a 0a3c 2434 40bc 2b47 c1bd
000000e0: d884 a0bd dce5 7abd a436 51bd 792c a0bb
000000f0: f36e b73d e5cb 933d 820a 6bbd a456 663d
00000100: 0fb9 b9bd f5cb 253d 8486 f6bc 9883 9bbd
00000110: bb6c 923d a019 fabc 9bfd 0b3d 8a2a 0f3d
00000120: 4041 ae3d 057f 743d 478b 21bd 6378 083d
00000130: e160 77bd 3ada 89bc 5b6e 8a3d 67ec 88bd
00000140: 892c c3bd d82f b2bd 91e9 943d dd11 9e3d
00000150: 331b 6ebb d2eb 993d fc68 5b3c c3d1 1cbb
00000160: 6f11 82bd ae8d 83bd a14c f8bc d2c5 a9bc
00000170: 678f 84bd 8a10 1f3c c6c1 b9bc 0aa4 c0bd
00000180: f130 523c 4725 abbd 1af4 5db9 86df 74bc
00000190: 4f6d 8b3c b6be 92bc f113 a8bb 02dc 97bd
000001a0: ab14 333d dc4e bd3d 5596 5cbd fe26 74bc
000001b0: 68f8 f73c 953e 0e3d a0a8 26bd a298 74bd
000001c0: 0f9a 8a3d 0485 8d3d e072 ad3c 1dd8 43ba
000001d0: 56e6 74bd fa3b 8abd f287 353d b9ea 063d
000001e0: 61a2 77bd 3ce0 2a3d 3fdb 7a3c 167e 17bd
000001f0: 8c26 e83b 7315 9e3c 1018 0b3d 790e d1bd
00000200: 4a11 693d fa24 95bd b823 843c e706 4abd
00000210: 486d 463d 6808 7b3d b9ad 1f3c fc59 9e3c
00000220: 96fd 14bd 2142 503c 279f 903d efed bebb
00000230: 2f50 e93c a3eb 873d a174 933d ef2a 653d
00000240: e035 5e3d 2c17 423d efd5 25bd 511e 323c
00000250: a235 89bd b2f7 55bd 6436 7b3d 1942 a6bd
00000260: 32ed c63d 3903 8e3d 5e3a 79bd 2487 10bd
00000270: ee10 213a ea80 a33d b9d3 11bd 06e0 d5bd
00000280: 4007 f23c d1c3 203d 187f bc3c d41e bf3c
00000290: 3f34 e53c f2c1 05bc b17d edbd 229c 813c
000002a0: b4d4 a5bd 07da aabd 5c0e 533d 7236 43bd
000002b0: 50d3 98bd eb79 d53d 5b04 9d3d 7fee 873c
000002c0: b655 7d3d 5309 33bd 6ab2 b43d 44d5 73bd
000002d0: 9de8 c6bc 809e c8bc a5aa 18bd 3ede 4dbc
000002e0: 02ad e23d 2bf0 47bc 0b0e 9c3b 56ef a5bd
000002f0: 0f1f 7e3d c8cb 703d 2271 0cbd 03d7 e4bb
00000300: c7a7 aebd 4a33 8b3c cef5 e53a 93fd 17bd
00000310: c1be b1bd 91fa 48bd 8736 d0bd a469 683c
00000320: 4e11 9ebd d147 903d 7b31 5ebd b4ca 10bd
00000330: ecee f03c 26f0 0dbd 334c 4bbd b147 023d
00000340: b2ad 9abd ded6 89bd 850d 7fbc 3830 aa3d
00000350: 928a 153d 0ac3 8c3d 0c33 60bd 5243 8fbd
00000360: 7a5e 6dbd 9ae3 4f3d 777c b9bc 0785 343d
00000370: 9eda 503d acdb f3bc aa4c cabd bd8a d2bc
00000380: 7002 28ba 3a61 b4bd 5040 883d 3acf 3c3d
00000390: 6a8b 06bd 1f48 693b 56e3 9abc b29c c9bd
000003a0: 1d62 57bd 1108 febc 7908 0ebc e743 9fbd
000003b0: f994 543d 76a0 ffbb bf37 633c 69d6 00bd
000003c0: 041f 7f3d 725e cdbd 5815 41bc 1c71 8bbd
000003d0: 8b9a 463d 88e9 3dbc c43f 7b3d 1932 46bd
000003e0: 9f9b 05bd a5a0 a53c 1865 763d c62a de3c
000003f0: 3a7e f3bd 05cd a8bd 983a c0bc cbf3 04bd
-0.03973657 -0.069048375 -0.06958092 -0.04980801 0.044097252 0.027458386 0.023288105 -0.014817149
-0.09604776 0.0448188 0.08095395 0.06099371 0.044418573 -0.082449175 0.073028624 -0.041173376
-0.08993133 0.00918667 0.07049577 0.029996678 -0.058190536 -0.0049006976 0.07916138 0.03705608
0.08914711 -0.019718355 0.08779443 -0.063430935 0.067521445 -0.036462624 0.06836792 0.03306686
-0.04039374 0.0722185 0.08658929 0.07147493 -0.04767076 0.08879424 -0.026671495 -0.052386396
0.08144118 -0.019421404 -0.06575383 0.043708596 -0.009330264 -0.06294329 0.10371864 0.04179491
0.013324999 0.076468915 -0.08014858 -0.049152438 -0.066972755 0.008433088 -0.011731181 -0.09437402
-0.07837838 -0.061254367 -0.0510775 -0.004888114 0.08956709 0.07216624 -0.057383068 0.05623497
-0.090685 0.04047771 -0.030093439 -0.07593459 0.07149645 -0.030529797 0.034177404 0.034952678
0.08508539 0.059691448 -0.039439466 0.033317935 -0.060395125 -0.016827691 0.0675933 -0.06685715
-0.09529979 -0.08700532 0.07271112 0.07718251 -0.003633213 0.07515682 0.013391729 -0.0023928739
-0.063509814 -0.06423508 -0.030309977 -0.02072421 -0.06472664 0.009708533 -0.022675406 -0.09406288
0.012829051 -0.083567195 -0.00021167137 -0.01494587 0.017019896 -0.017913204 -0.0051293303 -0.0741501
0.043720882 0.09243557 -0.053854305 -0.014901875 0.030269817 0.03472765 -0.040688157 -0.059715874
0.067676656 0.06910136 0.02117294 -0.0007470863 -0.059789978 -0.06749721 0.0443191 0.032938693
-0.06045759 0.041717753 0.015311061 -0.03698548 0.0070846733 0.019297337 0.033958495 -0.102078386
0.056901254 -0.07282443 0.016130313 -0.04932299 0.048444062 0.061287314 0.009746009 0.019330017
-0.03637465 0.012711079 0.07061606 -0.0058267037 0.028480617 0.06636741 0.071999796 0.055949148
0.054250598 0.04738538 -0.040487226 0.010871486 -0.06699683 -0.052238174 0.061331168 -0.08118076
0.0971321 0.069342084 -0.06084668 -0.03528513 0.00061441853 0.07983573 -0.035602305 -0.1044312
0.029544473 0.039249245 0.023009822 0.02333013 0.027979014 -0.008163916 -0.11596239 0.01582152
-0.080972105 -0.08342367 0.051527366 -0.047659345 -0.0746218 0.10423645 0.07666846 0.016593216
0.06184932 -0.043710064 0.08823092 -0.059529558 -0.02428084 -0.024489641 -0.037272114 -0.012565194
0.11068155 -0.012203257 0.0047624162 -0.0810229 0.06204134 0.05878809 -0.03428758 -0.006983639
-0.08528095 0.01699223 0.0017544569 -0.03710706 -0.086789615 -0.049067084 -0.1016665 0.014185343
-0.07718144 0.07044948 -0.054246407 -0.035349563 0.029410802 -0.03465285 -0.049633216 0.03180665
-0.07552661 -0.06730436 -0.015567188 0.08309978 0.036509104 0.06873138 -0.054736182 -0.06995262
-0.057951428 0.050754167 -0.022642357 0.044072177 0.05098974 -0.029767834 -0.09877904 -0.025700921
-0.00064090546 -0.08807607 0.06652892 0.046096064 -0.0328478 0.0035595966 -0.01890723 -0.098443404
-0.052583802 -0.031009706 -0.008669012 -0.07776623 0.051899884 -0.007801111 0.013868271 -0.031454477
0.06228544 -0.1002778 -0.011784874 -0.06808683 0.048487227 -0.011591323 0.06134011 -0.04838762
-0.032619115 0.020218203 0.060155004 0.027120005 -0.1188931 -0.08242229 -0.02346544 -0.03245906

weight f4 [400, 400]
00000000: 9367 0a3d d66a 193d 7deb 7a3c a37b fc3b
00000010: 77f6 7d3b 0eeb 0fbd aab7 963c 01bd 87bc
00000020: 1ea7 67b8 e223 1ebc c952 6b3c 4ba9 3dba
00000030: 8647 df3c f639 183d ae85 223b 4b7e 1bbd
00000040: c335 adbb a9d8 f5bb 5b0a a23b 3e3c a13b
00000050: b36a ef3c 649d 38bd 06ac 4cba 1dcb d43c
00000060: 0e69 4e3c 2ade 04bd aff3 f6bc 9f8e 543c
00000070: 97bd 6e3d a1fc abbc 9e60 663d 7815 20bd
00000080: 7daf 503c 29ee af3c 5206 6f3d 074c 51bd
00000090: 711f c2bc 129d d4bc 99e7 9f3b ac18 18bc
000000a0: fa44 36bd a905 843c 58c3 e23b a082 c1bc
000000b0: bc52 b638 6dbd fa3c 49f7 583d 9acb 02bd
000000c0: ba56 e23c c426 2bbd a4d7 8cba 5a22 d23b
000000d0: c00c 7dbd 7d5b 433d d493 88bc 7335 82bc
000000e0: f72c b73c fef1 acbc 2a81 f33b dbbc 0ebd
000000f0: fdfb 53bd 827f 3b3d fa78 9c3c f36f 4e3d
00000100: 149f 91bc 3933 57bc 62c1 90bc af5e a23c
00000110: fb4b 3bbd 2943 03bd 0b39 013d cbea a8bb
00000120: 2fcc 39bb 8646 00bd c72e d83c db58 9bbc
00000130: e50f 453d 11c8 dabc 8593 b4bb 9be2 2cbd
00000140: 6097 3d3c 5923 62bc 2b5e 12bd d3b9 9dbc
00000150: 0c20 353d f6ff f8bc e7de 903c 14d2 c2bc
00000160: 79e6 56bd a13a 0ebd 6027 05bb 8068 453d
00000170: 4880 50bc 79a0 1b3d 8688 863c 5d1d 693d
00000180: 643f 2d3d a75a 103d 7d44 34bd 25ab bd3c
00000190: eb0d 0e3c 80f2 eebb cbcc 5c3c 88b7 953c
000001a0: 3229 04bb 87fc 73bc e490 2ebd e000 6abc
000001b0: a3bb e7bc cb16 01bd e87a 503d 95f6 c43c
000001c0: 61cf 1dbc 6ec3 04bd eadd 9cbc ebc7 d4bc
000001d0: c77f dc3c b69f 213d 940e 09bd 0906 34bd
000001e0: 1a68 f6bb 661d ac3a 33cb b33c e8f6 5c3d
000001f0: 6c3e e13c f6a1 0cbd 6bd6 2ebd 9723 bc3b
00000200: 9b22 b9bc dbc5 8e3c 91be 98bc da2a 3c3d
00000210: bac3 e5ba a23d 5c3d 3307 a63b 0c32 24bd
00000220: e62e 673c 44a2 073d b450 f8bc 0ce6 00bc
00000230: dbd0 c4bc c360 40bc 4509 21bc e6ad 093d
00000240: 88db 90bc 08b8 16bc 0928 01bd 6092 0b3d
00000250: b55e 0abd a7bd bc3c 3952 19bc c3c4 043d
00000260: f9bc 2b3d 2a34 44bc ce53 f23c 2597 d03c
00000270: 91b1 0fbd 1bb2 40bd f2b8 b8bc 1f3a 0dbc
00000280: ecbf 0f3c 2d51 6bbc b557 133c 94e6 1f3d
00000290: 16e0 2dba 0a70 41bd 6b4e e23c f6f0 54bd
000002a0: 3ef4 08bd 30b9 123d 0ae8 0cbd 9dc0 0ebc
000002b0: 9530 3f3d dc0a 5a3c fd77 ff3c 1059 db3c
000002c0: 3ece d83c b90a 3d3c 5378 8e3c d114 483d
000002d0: ffa5 dabc 963b 203d 7770 903c 3f51 aebc
000002e0: ff5a 513c c563 94bc fb04 57bc f0ea debc
000002f0: 5f8b 8fbc 866d c13c 9ace 0fbb f48a 513d
00000300: dcd7 42bc 93f9 febc 62f4 17bd 57f5 27bd
00000310: f4a2 28bc 55a1 35bd e8f0 b33b 023a c4bc
00000320: a75f ccbc e4a2 3c3d 97d2 1cbd c0bb 433d
00000330: 9653 0dbd b0c7 c7bc 6f75 4b3d 8adf 263c
00000340: 708f a1b7 3caa dabc 13e7 3e3d a5d2 d53c
00000350: f149 40bd 81be e53c 52f9 103d 4638 9b3a
00000360: ad92 d9bc 5370 0dbc 6965 d5bc 70e4 e6b8
00000370: 9e72 94bc c673 083d b85c 5d3b 6519 a6bc
00000380: ea3b 063d d19b cfbc 7bab abbc e476 313d
00000390: 61b8 46bd 6437 eebc 0741 273d e408 903c
000003a0: 32a6 213d cc9b eebc f2e9 1a3d 5be9 93bc
000003b0: 827a 22bc 8399 83bb 3adb 08bd ae37 a63c
000003c0: ae99 443d ce4a 073d 6df1 813c 1250 a3bb
000003d0: dd88 edbc d8e8 e4bc 0d24 763d 9f37 cc3c
000003e0: 4632 fa3c 835a fabc 5c1e a4bc 97c5 753c
000003f0: 3d69 513d 31b3 9a3c f0a1 bb3c 53c8 133d
0.033790182 0.037455402 0.015314934 0.0077051683 0.003875164 -0.035136275 0.018398125 -0.016569616
-5.523033e-05 -0.00965211 0.014362999 -0.00072350045 0.027255785 0.03716465 0.0024798918 -0.03796224
-0.00528595 -0.0075026345 0.004945082 0.0049205115 0.029225683 -0.045071974 -0.0007807616 0.025975758
0.012598289 -0.032438435 -0.030145494 0.012973457 0.058286276 -0.020994486 0.056244485 -0.039082974
0.012737152 0.021475868 0.058355637 -0.051097896 -0.023696633 -0.025953803 0.0048799035 -0.009283226
-0.044499375 0.01611598 0.0069202594 -0.023621857 8.693847e-05 0.030607903 0.052970205 -0.03193245
0.027629245 -0.041785017 -0.0010745418 0.0064127864 -0.061779737 0.047694672 -0.016672052 -0.015894627
0.022360308 -0.021111485 0.007431169 -0.034848075 -0.051753987 0.045775898 0.019100655 0.05039973
-0.01777605 -0.013134771 -0.017670337 0.01982054 -0.045726757 -0.03204647 0.03154854 -0.0051549426
-0.0028350463 -0.031317256 0.026389493 -0.018963268 0.04811086 -0.026706727 -0.0055107498 -0.042208295
0.011571735 -0.013802373 -0.035734337 -0.019253647 0.044220015 -0.03039549 0.017684413 -0.023781814
-0.05246589 -0.03472388 -0.0020317659 0.048195362 -0.012725897 0.037994836 0.016422521 0.05691277
0.042296782 0.035242703 -0.044010628 0.023152897 0.0086703105 -0.007292092 0.013476561 0.018275991
-0.0020166156 -0.01489175 -0.042618647 -0.014282435 -0.028287714 -0.031515878 0.050898463 0.02404336
-0.0096319625 -0.03241294 -0.019148786 -0.025974235 0.026916398 0.039458953 -0.03346117 -0.043951068
-0.007519734 0.001313132 0.021947479 0.053946406 0.027495585 -0.034334145 -0.042684954 0.0057415473
-0.022599509 0.01742833 -0.018645557 0.045939304 -0.0017529645 0.053769715 0.005066776 -0.04008679
0.014110303 0.033113733 -0.03031192 -0.007867347 -0.024025371 -0.01174182 -0.00982887 0.033613108
-0.017682806 -0.00919915 -0.03153232 0.03407514 -0.033781726 0.023039652 -0.009357982 0.03241421
0.041928265 -0.0119753275 0.029580977 0.025462696 -0.03508145 -0.047044855 -0.022549126 -0.008619814
0.008773785 -0.0143626155 0.008993079 0.039038256 -0.00066328177 -0.04722599 0.027625283 -0.05198761
-0.033436053 0.03582114 -0.034400977 -0.008712915 0.04667719 0.013308253 0.031185145 0.026775867
0.026465531 0.011538201 0.01739136 0.048847977 -0.026690481 0.039119326 0.017631752 -0.021278976
0.012778043 -0.01811398 -0.013123746 -0.027211636 -0.017522512 0.023611795 -0.0021943212 0.051157907
-0.011892285 -0.031124866 -0.037098296 -0.04100546 -0.010292757 -0.04434331 0.0054913647 -0.023953442
-0.024947954 0.046053782 -0.03828677 0.047786474 -0.034503542 -0.02438721 0.04967254 0.010185132
-1.9259489e-05 -0.026692502 0.04660709 0.02610142 -0.046945516 0.02804494 0.03539402 0.0011842332
-0.026559198 -0.008632737 -0.026049333 -0.000110098044 -0.01812106 0.033313535 0.0033777189 -0.02027578
0.032771982 -0.025342854 -0.020955792 0.043326274 -0.04851568 -0.029079147 0.0408335 0.017582364
0.039465137 -0.029127024 0.037820764 -0.018055608 -0.009916903 -0.0040161028 -0.033412196 0.020290222
0.047998123 0.033030324 0.015862191 -0.0049839104 -0.028995926 -0.02794306 0.060092974 0.024928866
0.03054155 -0.030560737 -0.020034008 0.015000722 0.051125754 0.018884273 0.022904366 0.036079716

bias f4 [400]
00000000: d82f 40bd def7 8bbc a6e5 0abd 6403 51bc
00000010: 4440 54bd bd28 ca3c c7fc cabb e826 04bc
00000020: 2a5e 00bd 82e5 79bc 7b39 04bd 4c03 0e3b
00000030: 2a59 1cbc 8e65 32bd 3abf 223d 574e 34bd
00000040: 2378 9abc e73a 1a3d 9344 f8bc 6b63 933c
00000050: 11f4 d9bc 71b8 54bc 05d9 bbbc 0985 ad3c
00000060: 06c8 823d 5dff 2bbd 5d1a 5a3d 2306 aa3b
00000070: bcc4 633b 1e50 42bd 46ef 323d 34f4 893c
00000080: 8693 96bb 6aa6 0dbd 229c e23c 26ff c43c
00000090: ad61 1f3d 617b a2bc f3ad 21bd 80e1 fbbc
000000a0: 728d 4d3d c5ca 303c 99a5 1a3b a0a7 efbc
000000b0: 15c8 373c be2f ecbc 95eb 85bc 9f16 3ebd
000000c0: c989 f53b e173 783c 1d15 343d 3733 f2bc
000000d0: c52d eebc 8bd9 1cbd 6ac0 023d 7c1f 16bd
000000e0: 0028 263d f707 09bd 3272 1c3d bcda 2ebd
000000f0: 4eda 003d bd4d 2bbd 91bd c8bc 5e8b 943c
00000100: 50fe 26bc 6744 6f3c a4e5 49bd 78a6 8d3c
00000110: 4038 35bc 2bb9 12bd 403a 253d d292 dabc
00000120: 1839 243d 0ddb 03bd 7b30 9dbc 1f16 b7bb
00000130: 4ca9 693d 26cf 26bd 7c04 27bd 89fa 4ebc
00000140: 72e8 3d3d 0f08 80ba 026c e4bc 6054 cdbc
00000150: 6614 d73b e1c6 c9bb 2c90 143d 5f6c efbc
00000160: 9537 46bd 4fa0 d5bc 919f 15bd ad60 6d3b
00000170: b06f 573a 0aff 95bc cdcb 1f3d 0b0f 99bc
00000180: f0ac 0b3c 4fbf 4e3b ce77 06bd a620 28bd
00000190: 9287 01bc 75e5 403d 0435 b5ba 72dd 03bb
000001a0: 4720 efbb 87fe 333b a2cd e73b 0464 283d
000001b0: 44c9 233d fff1 73bc 2c42 cfbc 99b7 1abd
000001c0: 62b9 88bc 28af d53c 3b4c 1c3d ac7c fabc
000001d0: a3bb e1bc 6e2f 36bc 388f f13b 6a29 85bc
000001e0: d377 ecbc d5f9 79bc 101a ba3c bcf5 b83c
000001f0: fb00 e9bc 63d2 e3bc 4e14 01bc ecdd d8bc
00000200: 9585 6e3c 5d9b 273d f1b2 3a3c a5d8 233d
00000210: 9f69 3f3d cb17 b73c 8c0a afbc 3b82 473c
00000220: ff65 513b 362b 0f3b 66e9 38bc 88ed 383b
00000230: d9df 23bd 8afe 1b3d 69db 6d3d aabe 91bc
00000240: 9bf6 0cbd 9b3b db3c 4852 88ba f111 debc
00000250: c398 bcbc 550b 333c 85cc 28bd 529e 2fbd
00000260: 6be1 d63c f915 3f3d c2b2 423d 8b81 c63c
00000270: d2b3 473d 80a4 dabc 3779 38bc 9102 f53c
00000280: f61c 4dbd 4b61 2ebd bc26 473d 894a 3a3d
00000290: 1a5c 0ebd 6300 ff3c e3d9 f2bc 7284 e0bc
000002a0: e077 d1bb bfdd 0fbc a71c 073c 9f21 ff3b
000002b0: 6431 933c 3ffc 29bd 6adb 7b3c 84db a13c
000002c0: 2126 bbbc 63e2 35bc 6bbb 273d 43e8 e43c
000002d0: 7109 f43b 94cb 6c3c 39a0 70bd ecd5 5e3d
000002e0: 0d69 f7bc db33 bb3b b80d ab3c 0ac0 a3bb
000002f0: 73a1 4a3c 265e e7bc 2034 3f3d 934f 1d3d
00000300: 6af6 0b3b fdc0 a53c 5b0a af3c f5ac a03c
00000310: 0cb7 583d eae0 aebb 2d12 38bd 5638 023d
00000320: 1a45 16bd 6f1f 84bc 4d99 5b3d 7a49 9b3c
00000330: ce8f 683c a55a 013d 5634 0fbd a162 be3b
00000340: f283 4dbd 79fa 59bc d7e3 c73b b79e b3bc
00000350: 8b39 a63c d2bd d5bc 8bc7 d63c f8df 383c
00000360: 8a4f 143d 980d 21bd 65f1 463d 06c7 99bb
00000370: 06d1 a43b 0f67 a7bc 2304 4a3c c036 fc3c
00000380: 339f 173d a363 e83c 73a6 d03c 54d8 7a3c
00000390: 1a7a 16bd 3748 3dbd 8101 55bc ce57 973c
000003a0: 3b51 0abd 018b 3cbd aca9 54bd ebdd c03b
000003b0: 63a7 3c3d cd5c fd3a 366f 393c ca61 483d
000003c0: 27d6 fcbc 5333 10bc 7b49 0c3d cdf7 4f3d
000003d0: 166f 213d 8da3 183d e3d1 3abd 5b90 ccbc
000003e0: bd11 153d a22c 04bd c025 e0bb 22fb 333d
000003f0: 3f52 ac3c e9fb 3f3b 8c26 91bb b3ff 5f3c
-0.046920627 -0.017085966 -0.033910416 -0.012757156 -0.0518191 0.024677629 -0.006194684 -0.008065917
-0.0313398 -0.015252473 -0.03228138 0.0021669446 -0.009542743 -0.04355388 0.03973315 -0.044020023
-0.018856114 0.03765383 -0.030306136 0.017991742 -0.026605638 -0.012983427 -0.022930631 0.0211816
0.06385808 -0.04199158 0.0532478 0.00518872 0.0034754714 -0.047439687 0.04368522 0.016840078
-0.004595223 -0.034582533 0.02766234 0.024047446 0.03891151 -0.019834222 -0.03947253 -0.030747175
0.05018372 0.0107905315 0.002359724 -0.029254735 0.011217137 -0.028831359 -0.016347686 -0.046408292
0.007493232 0.015164346 0.043965448 -0.029565437 -0.029074559 -0.038293403 0.03192178 -0.03665112
0.04056549 -0.03345486 0.038194843 -0.04268907 0.03145819 -0.041822184 -0.024504455 0.018132862
-0.010192469 0.014603711 -0.049291268 0.017291293 -0.011060774 -0.03582112 0.040338755 -0.026681338
0.04009351 -0.032191325 -0.019188156 -0.005587354 0.05704622 -0.040724896 -0.04077576 -0.012632974
0.046364255 -0.0009768027 -0.027883533 -0.025064647 0.006563711 -0.0061577414 0.036270306 -0.02922648
-0.04839285 -0.026077418 -0.036529128 0.0036220953 0.0008218242 -0.018310089 0.03901272 -0.01868393
0.008525118 0.0031547134 -0.0328291 -0.04104676 -0.007905858 0.047093827 -0.0013825004 -0.0020121005
-0.007297549 0.0027464943 0.007074074 0.041111007 0.039986864 -0.014889239 -0.025300108 -0.03777275
-0.01668996 0.026084498 0.038158637 -0.030577026 -0.027555292 -0.011119707 0.0073718093 -0.0162551
-0.02886573 -0.0152573185 0.022717506 0.022578113 -0.02844285 -0.027810281 -0.007878376 -0.026473008
0.014558216 0.04091965 0.011395202 0.04000153 0.046731587 0.022350213 -0.021367334 0.012177045
0.0031951664 0.0021845824 -0.011286115 0.0028217752 -0.0400084 0.038084544 0.058070574 -0.017791111
-0.03441487 0.02676182 -0.0010400498 -0.027108165 -0.023022061 0.010927995 -0.04121067 -0.042875595
0.026230535 0.046651814 0.047533758 0.024231693 0.048755474 -0.026689768 -0.011259369 0.02990845
-0.050076447 -0.042573255 0.048620924 0.04548124 -0.034755804 0.031128114 -0.029644912 -0.027406905
-0.006392464 -0.008780896 0.008246577 0.0077859904 0.017967887 -0.041500326 0.015372137 0.019757994
-0.02284533 -0.011101338 0.04095022 0.027942782 0.0074474146 0.014452834 -0.05874655 0.05440323
-0.03020146 0.0057129688 0.020880565 -0.004997258 0.012367594 -0.028243136 0.04668057 0.038405966
0.002135659 0.020233626 0.021367243 0.019613722 0.052908942 -0.0053368704 -0.04493921 0.031792007
-0.036686994 -0.01612827 0.053612996 0.018955935 0.014194442 0.031580586 -0.03496202 0.0058100973
-0.05017466 -0.013304346 0.0061001587 -0.021926267 0.02029111 -0.02609149 0.026218196 0.011283867
0.036208667 -0.039319605 0.048570056 -0.004692915 0.0050298003 -0.020434884 0.012330088 0.030787826
0.03701706 0.028367823 0.025469994 0.015310366 -0.03673754 -0.046211448 -0.013000847 0.018474486
-0.033768874 -0.046031002 -0.051919624 0.0058858297 0.04605807 0.0019330025 0.011318019 0.048921384
-0.030863835 -0.008801299 0.034249764 0.05077343 0.03941258 0.03726535 -0.04561032 -0.024971178
0.03639387 -0.032269128 -0.0068404377 0.04394067 0.021035312 0.0029294437 -0.004429644 0.013671803

weight f4 [100, 1]
00000000: 048b d5be 0e97 39bf 841b 433f daa3 5fbf
00000010: 8777 65bf 8001 3f3c 0af4 4ebf 00d6 14bb
00000020: 8c2a 18bf cecf 51bf 681a 4fbf f4e1 603f
00000030: aaf3 213f ab85 333f 9eec 623c db3f 443f
00000040: 60ac febe e774 a43e bc6e a3be 3b85 97be
00000050: 1760 50bf bd6a 823f b934 fa3e 2a8f 0b3f
00000060: 7cb4 523e b753 cc3e 8067 10bf 48f3 663d
00000070: ec0c 4fbf 5b64 18bf 3ce8 a2be bcb7 6abf
00000080: 8415 0ebf ca10 5abe dfe3 133f c2f2 a5be
00000090: a426 d43d 687b 7abf f73d 793f 9f76 48bf
000000a0: e7b2 083f 506a 41bf f690 3e3f eefa 3abf
000000b0: d960 f43d 4377 d2be 670a afbe 8569 1b3e
000000c0: 2468 833e bb4a 603f 7ef8 50bf acd4 f8be
000000d0: f445 003f 5401 fbbe eb11 3c3f ec58 f2be
000000e0: a77f eabe b095 463f 9edc 813f 22b4 44bf
000000f0: 619d 743f 60a7 4bbd 4a49 58bf de94 193e
00000100: b7e8 243e d6d8 7dbe 353d 523f 4f08 9cbd
00000110: 72c4 28be 27a9 46be 6a6a 48be 08b9 03bf
00000120: 983f 39be 80d0 b53e d471 48bf 11a5 383f
00000130: 3884 16bf 31a2 0f3e a847 df3e e88a 4b3f
00000140: f014 a63e 346f edbe 756c e23e 25e1 493f
00000150: 8e43 de3e 30da 39be cc7c 34bf bc39 19bf
00000160: 2050 d0be d13f dd3e 4391 ac3e c1a7 6d3f
00000170: 8c28 c7be 30fd 22be 0c91 e8be d069 e1be
00000180: 60e0 eabe 371a 23bf bede 73bd 2039 61bf
-0.41707623 -0.72496116 0.7621386 -0.8735939 -0.8963551 0.0116580725 -0.80841124 -0.0022710562
-0.5943992 -0.8195771 -0.8089967 0.8784478 0.63262427 0.70125836 0.013850359 0.76659936
-0.49740887 0.3212044 -0.3192042 -0.29593834 -0.8139662 1.0188824 0.4886835 0.54515326
0.20576662 0.3990762 -0.5640793 0.056384355 -0.8087909 -0.5952813 -0.31817806 -0.91686606
-0.5550158 -0.21295467 0.5776958 -0.32411772 0.103589326 -0.97844553 0.97360176 -0.78306
0.53397983 -0.75552845 0.7443994 -0.7303914 0.11932535 -0.41106614 -0.34187624 0.15176971
0.2566539 0.8761403 -0.8162917 -0.48599756 0.5010674 -0.4902445 0.7346484 -0.47333467
-0.45800516 0.77572155 1.0145452 -0.7683736 0.9555264 -0.049720168 -0.8448683 0.14998195
0.16104399 -0.24789748 0.82124645 -0.07618772 -0.16481188 -0.19400464 -0.19571844 -0.5145421
-0.18090665 0.35510635 -0.7829869 0.7212687 -0.587955 0.14026715 0.43609357 0.7950883
0.3243785 -0.46373904 0.4422337 0.7885917 0.43410915 -0.18149638 -0.70502925 -0.5985372
-0.4068613 0.4321275 0.33704576 0.928341 -0.38898122 -0.15916896 -0.45423162 -0.4402604
-0.4587431 -0.63711876 -0.059538595 -0.8797779

bias f4 [100]
00000000: aa67 79bf b02b b0be 8b29 21bf 473b 6c3f
00000010: a799 a53e 1c57 f0be 14bb 5d3f 9013 7bbe
00000020: 3ab9 5e3f c024 853d 882f 27be 2260 3dba
00000030: 73a3 313f 28b1 dfbe 0f01 a3be 9a06 68bf
00000040: 4638 28bf 5bf3 743f 085a 5bbe 62e3 b63d
00000050: 388d 683e ce9c 44bf 4329 2abf 68ef 823f
00000060: 54d9 01bf 91d4 49bf c243 3dbf 43ce 513e
00000070: cafe af3e da0a 343f e84c 8fbe 0032 7abd
00000080: d0e1 f7bd d988 2a3f bf2a 5bbd 7934 973d
00000090: f56c 7b3e 4c67 88be a844 5dbf 28db f43d
000000a0: aa5a 78bf 7f1d e03e a105 7fbf 881c 17be
000000b0: 5bbe 463f 0782 e03e b06f 083f d020 113f
000000c0: 696c aebe dc17 1fbf 0e1a 65bf 30f2 8ebd
000000d0: 6555 f13e 9c03 fbbe 99bd 9fbe 46a0 2bbf
000000e0: cb82 9f3e 2bce 063f e91d 573f 8e3c 53bf
000000f0: 712c 9b3e 507d 17be 69bb c73e 22a5 6f3f
00000100: fbab 07bf 887b dc3e 9e66 7fbe 1c03 f53e
00000110: 471f 1b3e 6ec5 603e 255b a93e 98a9 67bf
00000120: 10e2 c3bd 5fb1 48be f08b ffbe 26ee 2ebf
00000130: 362d 0bbf 4b92 3f3f 4256 4d3f 375e 0abf
00000140: 9536 fe3e cc20 93be 2e13 923e 20f4 843f
00000150: 0e3b 973e f6aa 75bf cba6 e63b 5863 ec3d
00000160: 1e6f 53bf 9994 803d 3e38 e03e 6aea 0f3f
00000170: dbcd 3d3f 3af3 06bf d0bb 68bf 5890 abbe
00000180: c831 36be d340 2a3e 03a8 423e 74d7 82be
-0.97423804 -0.3440833 -0.62954015 0.9227795 0.3234379 -0.4694146 0.86613584 -0.24519181
0.87001383 0.0650115 -0.16326725 -0.0007224103 0.6939003 -0.43689847 -0.31836745 -0.90635073
-0.65710866 0.9568383 -0.21421063 0.089300886 0.2271012 -0.76801765 -0.6646921 1.0229311
-0.5072224 -0.78839976 -0.73931515 0.20488839 0.34374076 0.7032906 -0.27988362 -0.06108284
-0.12103617 0.6661506 -0.053507563 0.07383055 0.24553283 -0.2664131 -0.86432886 0.11955863
-0.9701334 0.43772504 -0.99617964 -0.14756978 0.7763421 0.43849203 0.5329542 0.5669069
-0.34067085 -0.6214578 -0.8949288 -0.06979787 0.47135463 -0.4902619 -0.3119934 -0.6704143
0.31154475 0.5265834 0.84030014 -0.82514274 0.30307344 -0.14793897 0.3901017 0.9361135
-0.52996796 0.43062997 -0.24941489 0.47853935 0.1514865 0.21950313 0.3307735 -0.90493155
-0.095646024 -0.19598912 -0.4991145 -0.68332136 -0.5436586 0.748326 0.80209744 -0.5405001
0.49651018 -0.2873596 0.28530258 1.0387001 0.29537243 -0.9596399 0.0070389262 0.11542386
-0.82591426 0.06278343 0.4379291 0.5621706 0.74142236 -0.52714884 -0.9091158 -0.33508563
-0.17792428 0.16626291 0.19009404 -0.25555003

weight f4 [1, 100]
00000000: bf7f c5bd a09c 7fbd 0e75 ac3d d2c6 48bd
00000010: 4e2e 413c 787c 9fbd 4eb2 d1bd a2c7 903d
00000020: 8a9f c0bd 978c 34bc b3a2 e2bc 85cd e23d
00000030: 856e e9ba 97eb cfbc b380 7c3d 805b 083d
00000040: 2d29 fc3c 64bd c1bb 579e 94bd f503 d83b
00000050: 2f6d 80bd ec35 3f3d 6399 9a3d d00f f4bd
00000060: 5cb6 a0bd a5cd bbbd 3343 62bd b481 c13c
00000070: 783f 16be ed15 e3bd 7042 3e3d 7798 5b3d
00000080: 87a4 813d 3882 09be f2c5 793c 483e 0dbd
00000090: 16f6 08bc 0065 afbc 81df 833d 2836 0c3b
000000a0: d2ce 30bd d6f4 2bbe 14d1 00bd cd1c 23bd
000000b0: 0577 13be 94e0 cc3a 3c80 eebc e848 6abd
000000c0: f51d 9c3c 56a8 d83d 5df2 52bd 2724 9cbd
000000d0: 3668 97bc d3fb 0cbd faed a83d d8de 8c3d
000000e0: 2b60 00bd fc07 a83d 4a87 6b3d da00 673c
000000f0: 40d6 ba3d ca10 39bd 2580 5abd 0777 92bd
00000100: e873 513c e2c4 10be cb33 8c3d f120 39bd
00000110: 29e7 04be c0cb 123d a8e4 02bd 5a65 123c
00000120: 9ae4 2fbc 4298 0f3e 6d89 71bd 6e5b f03d
00000130: 4535 8f3d 1664 efbd 53ae 6f3c b2c1 f33d
00000140: be67 c7bd 5aad fabc dbd4 2b3d 3bb3 d1bc
00000150: 496e 893d 1a84 ae3c 0f5a 1d3c 6312 123d
00000160: 4890 c2bd dae7 9e3d 5b3c 01bc b1e0 4f3d
00000170: 690b 0fbe 9757 263d e79e 08bc 3d0d 3dbd
00000180: 7abc 2fbd 2d84 2abe 6811 663c 735c 3bbd
-0.09643506 -0.06240523 0.08420764 -0.049017735 0.011790825 -0.077874124 -0.10239087 0.07069327
-0.0940543 -0.011019847 -0.027665472 0.11074356 -0.0017809427 -0.025380893 0.061646175 0.033290386
0.030781353 -0.0059124697 -0.072567634 0.0065922686 -0.06270825 0.046682283 0.075487874 -0.119170785
-0.07847282 -0.09170083 -0.055239867 0.023621418 -0.14672649 -0.110881664 0.04645008 0.0536122
0.06330209 -0.13428581 0.015244948 -0.034483224 -0.008359453 -0.021410465 0.06439114 0.0021394584
-0.04316599 -0.16792616 -0.031449392 -0.03982239 -0.14400871 0.0015630894 -0.029113881 -0.057198435
0.019057253 0.105789825 -0.051500667 -0.07624083 -0.018482309 -0.034419846 0.082485154 0.068784416
-0.031341713 0.08204648 0.05750207 0.014099324 0.09122896 -0.045182027 -0.053344864 -0.07151609
0.012783982 -0.14137605 0.06845816 -0.04519743 -0.12978806 0.035838842 -0.031956345 0.008935297
-0.010735655 0.14022925 -0.05896895 0.11736189 0.06992582 -0.11689012 0.0146289645 0.11902179
-0.09736584 -0.030600239 0.04195104 -0.025598159 0.06710488 0.021303225 0.009603991 0.035662066
-0.09500176 0.07759066 -0.007887925 0.05075139 -0.13969196 0.040610876 -0.0083386665 -0.046155203
-0.042904355 -0.16651984 0.014042236 -0.045742463

weight f4 [100, 1]
00000000: 1622 a03e 424d ffbe 969a 0b3f 1d33 413f
00000010: 6c9d 9bbe d2e7 4bbf c191 3e3f a014 57be
00000020: 6de7 043f a0c1 ddbe 474d 96be 0187 323f
00000030: 51a0 48bf 16dc 633f cb48 633d 9351 363f
00000040: 6cc5 3abf b321 443f 694c 72bf 2c38 c83e
00000050: 6d09 82be b026 b5be 008a 65be 82c8 4bbf
00000060: 1520 41bf 48a6 213f 18c5 a2be b5c0 4f3e
00000070: f2ab 3a3f 4ed1 7e3f aaa7 d0be 70f7 42be
00000080: c40c 54bd f829 3fbe aba2 563e 0034 83bf
00000090: 4492 1d3f 11e2 e23e ddba 0e3f 24b0 83bf
000000a0: 5899 303f 1273 58be 06d8 1dbf bd8a 853f
000000b0: dfb8 403e bc81 393e 4805 00bf 6536 11bf
000000c0: 76e9 50bf e071 8bbe 420f aa3e 0a2b 3f3f
000000d0: 43ec 3bbf f094 cdbe c80e 0f3f 17e6 91be
000000e0: b809 18bf d64f 7a3f 0bbf 843d a4a0 053f
000000f0: 5c06 a53e c66b 9fbe 5514 d83e 7749 8e3d
00000100: aabb df3e 9c73 b2be 96d9 f4be 4064 77be
00000110: ba27 54bf 8476 89be 40f7 cc3e 43ce 1ebe
00000120: e49c 9bbe 9c82 ccbe 4cb7 febe 10f9 c0bd
00000130: 526d 013f 1f41 663f b5bc 3cbf 9cb9 773f
00000140: 76b2 a6be 44ae 4abf be3d 3e3e 1d50 413f
00000150: 8c12 2fbf 2948 e03e 56f7 02bf b07f 2c3f
00000160: ed93 3ebf 2f75 2d3f df92 363f 2a64 143f
00000170: d6d3 4abf a7f9 7abf e0fe 9abe cacd 1c3f
00000180: cc17 c8be dfb8 4abe 9b39 77bd a6ba c13e
0.31276006 -0.4986363 0.54532754 0.7546862 -0.3039354 -0.79650605 0.7444115 -0.21003962
0.5191563 -0.43311787 -0.29355833 0.6973725 -0.78369623 0.890077 0.055489343 0.7121822
-0.7295749 0.7661392 -0.9464784 0.39105356 -0.25397816 -0.3538108 -0.22415924 -0.79602826
-0.7543958 0.6314435 -0.31790996 0.20288356 0.7291862 0.99538124 -0.40752918 -0.19039702
-0.051769987 -0.18668354 0.2096049 -1.0250244 0.6155131 0.443131 0.5575388 -1.0288129
0.68983984 -0.21137646 -0.6165775 1.0432965 0.18820523 0.18115896 -0.5000806 -0.56723624
-0.81606233 -0.27235317 0.33214766 0.7467505 -0.7340738 -0.40152693 0.5588193 -0.28495857
-0.5938983 0.9777807 0.06481751 0.52198243 0.32231414 -0.31136912 0.42203012 0.06947606
0.43697864 -0.34853828 -0.47822255 -0.24159336 -0.8287312 -0.26848233 0.40032387 -0.1550837
-0.30393136 -0.39943397 -0.4974922 -0.09422505 0.50557435 0.89943117 -0.73725444 0.9676759
-0.3255803 -0.7917216 0.1857824 0.7551287 -0.68387675 0.43805054 -0.51158655 0.67382336
-0.74444467 0.6775693 0.7131786 0.5796534 -0.79229486 -0.9803719 -0.3027258 0.6125151
-0.39080656 -0.19797085 -0.06035767 0.37837714
